Doom/basic1/6model-doom.pth (torch_old, 117036 bytes, 8 tensors)

weight f4 [8, 1, 6, 6]
00000000: 0e79 ab3e 2bd2 8d3e 9243 013f 0d92 b53e
00000010: 34dc 153e 782c 953e c4f0 ef3e ff4e ee3e
00000020: 0d95 ca3e 3a7b 5d3f 39b7 1d3f ff88 223f
00000030: 7975 d4bb 1ee2 203e 2a4b 823e ca6b 6c3e
00000040: 5eab aabc 3499 4d3e bae8 6cbe c397 93bd
00000050: 4165 babe a5c6 50be bddc 753e 3f4b 87be
00000060: 439e 82be f52e 15be 3c37 d5be 54e8 80be
00000070: 9c09 2cbe 2176 aabe 1f3b 2d3e a958 d83d
00000080: a492 8bbe dfd8 ae3d e602 a43d 974e 68bd
00000090: 323c c43e 6b9c 5a3e b3a4 f03e 5459 1f3e
000000a0: fc52 a8be dbab fbbc f3b4 513d 106d 123f
000000b0: 6d56 af3e 10d6 0c3f 2797 e33e 7aaa 40bc
000000c0: c29d 2d3f 610b 553f e652 633f 6a47 5f3f
000000d0: aa26 093f e535 3b3f 9c49 663e 07d0 713f
000000e0: 3795 d73d 116e 593f db53 533f 8128 883e
000000f0: 6051 c73e 78f2 f33e 2181 383f 330d 733f
00000100: 1ad3 cd3e b55c 0c3f 22d2 8a3d 7833 eb3d
00000110: 188d ba3e 0430 963e 22d1 ff3d 401e 7ebd
00000120: 2bb7 f1bc 5133 f4bc eb3d 7b3d feda 3dbe
00000130: 40c6 d9be e728 47be 631e 61be f44f 0b3e
00000140: a48f 01bc 170b 8d3e 70cd c53e 8f53 003e
00000150: e99b 053f 4805 f23e 6e35 5a3f e0f0 2f3f
00000160: 6de0 8d3e 0175 143f c349 ac3e 0b6d 4f3f
00000170: 33ee 133f f922 3a3f a44b e23e e5f0 073f
00000180: c1dc b33e bf07 093f a4de 863f 70d5 603f
00000190: c27f 103f 4ba7 dd3e 6d28 1a3e bf0d c73e
000001a0: 7cba 133f 1161 953e 3207 983d 52d7 943d
000001b0: 3a9f 18be 7873 453d 7e6a 193d 1fd0 f7bd
000001c0: 3335 96bc d2e1 1fbe c2f8 82bd 9683 1abe
000001d0: c245 f9bd a23b b5bd 7508 fe3d aaa9 273d
000001e0: 8cfb c43d 8025 12bd ab89 febd b74d 06be
000001f0: d237 e13d 938a 26be ceaa 913d 56b9 d5bd
00000200: 7815 ebbd 2ca2 bebc 7d02 f8bd dbf8 053c
00000210: e380 f23c 2a01 1a3d 13d0 aabd a273 cb3d
00000220: 4b52 203e 752c d83c 1051 25bd 8e29 e13d
00000230: 780f 82bd 5862 1fbe 8039 cabc e6b0 60bd
00000240: fea6 a6bd a43b 403d 5e66 ccbd b8b5 e33c
00000250: 8308 a4bd 7093 543c 2ef6 c33d 565a 953d
00000260: 6cce 153d 70f9 acbd 347c 05be 47b3 013e
00000270: 2847 a83d 8469 28bd 0628 983d e0f9 99bc
00000280: 62d7 b43d 624f 29be 0e8f cbbd 9bbd bebd
00000290: 70fa 4cbc 7b11 06be af9d 08be 505a 353d
000002a0: 74cf 22be c800 a33d 50b7 debd f3d4 fabd
000002b0: 08e6 20be e07a 8d3c d66f f0bd 0c96 27be
000002c0: 882d debc 4078 683d 36bf 08be 96c1 96bd
000002d0: 5bc8 92bd 7ecb e3bd bc92 fc3d a65c 05be
000002e0: 6050 973c ccfa 0bbd 3ba4 28be 2e5e c7bc
000002f0: 3dad 12be 0d6b 1fbd fad9 55bc 29d7 cf3d
00000300: 7589 21be 02ba 133e ea87 cbbd c892 3dbb
00000310: c5d5 07bd 0a4c c93d db8d 18be 7de1 4f3d
00000320: 1363 e4bd 23d6 e5bd 9620 7b3d e73c 303d
00000330: 6bc5 fbbd 3b7f 7ebd 2123 d8bc be8a aa3d
00000340: 0ac7 2a3d c813 75bd 7d0f d43d 7d3c abbd
00000350: bfdf de3c 09d4 a63d 5aa5 993a 27b3 47bd
00000360: b51e 5c3e 1e4a 4e3e c73c 1ebd 87b2 63bd
00000370: 1044 073d 9033 a63c 25b9 023e d709 cf3d
00000380: 300d 153e fcaa 503e 87b0 99bc f646 32be
00000390: 2a7b 15be 681e e8ba d311 343e 68b0 babd
000003a0: 56fe aa3c 19b0 393d 6a1e f93d bf76 81be
000003b0: 3b66 1abe f448 e6bd 5244 9d3d 2ca1 70be
000003c0: e8f1 18be 4227 493d 449b 41be 1d78 35be
000003d0: b3e9 15be 70d8 513d 65ee 803d 4bea a43d
000003e0: 2baa 08be 0389 8d3d 8a81 703e da63 d73d
000003f0: 4c00 20be e5b5 dcbd 71d2 bcbd 4c19 863d
0.33490795 0.27699408 0.5049373 0.3546299 0.14634782 0.2913549 0.46863377 0.46544644
0.39566842 0.86516154 0.616077 0.6349029 -0.0064837304 0.15711257 0.2544797 0.23087993
-0.020833667 0.20077974 -0.23135653 -0.072066806 -0.36405376 -0.20388277 0.24009986 -0.26424596
-0.2551137 -0.14568694 -0.41643703 -0.25177252 -0.1680054 -0.3329325 0.16917084 0.105637856
-0.27260315 0.08537459 0.08008365 -0.056715574 0.38327175 0.21348731 0.47000656 0.1556142
-0.32875812 -0.030721596 0.051197957 0.57197666 0.34245625 0.55014133 0.44451258 -0.011759395
0.67818844 0.8322049 0.8879837 0.87218344 0.5357462 0.7312911 0.22489017 0.9445805
0.10526507 0.84933573 0.8254983 0.26593402 0.38929272 0.47645926 0.72072035 0.94942015
0.4020012 0.5482896 0.06778361 0.11484426 0.3643577 0.29333508 0.12491061 -0.062040567
-0.029506287 -0.029809626 0.061338346 -0.1854057 -0.42534065 -0.19449197 -0.21984248 0.13604718
-0.007907782 0.27547523 0.386333 0.12531875 0.52191025 0.47269654 0.8523778 0.6872692
0.27710286 0.57991034 0.33650026 0.8102576 0.5778534 0.72709614 0.44198334 0.5310195
0.3512936 0.53527445 1.0536695 0.8782568 0.5644494 0.43291697 0.15054484 0.38877675
0.5770643 0.29175618 0.074232474 0.072676316 -0.1490449 0.048205823 0.037455074 -0.12100243
-0.018335914 -0.15613487 -0.06395103 -0.15089259 -0.12171508 -0.08849265 0.12403957 0.04093329
0.09618291 -0.035680294 -0.12428602 -0.13115583 0.10996975 -0.162638 0.071126565 -0.10435741
-0.11478704 -0.023270689 -0.121098496 0.008177008 0.029602474 0.037598766 -0.08340468 0.099341646
0.15656392 0.026388386 -0.04036051 0.10994254 -0.06350607 -0.15564859 -0.024685621 -0.054856203
-0.0813732 0.046931878 -0.099804625 0.027796611 -0.08009436 0.012974605 0.095684394 0.07292621
0.036573812 -0.08446014 -0.13035661 0.12666045 0.08216697 -0.041116253 0.07429509 -0.018795907
0.088301435 -0.16534188 -0.09939395 -0.09313508 -0.012510881 -0.13092606 -0.13341402 0.04427558
-0.1589945 0.079591334 -0.10874808 -0.12247648 -0.1571275 0.017270505 -0.11740081 -0.16365832
-0.02712132 0.056755304 -0.13354191 -0.07361142 -0.07167121 -0.111227974 0.12332675 -0.13023624
0.018470943 -0.034174725 -0.16468899 -0.0243369 -0.14323898 -0.03892045 -0.013052458 0.101484604
-0.15775092 0.14426425 -0.09938033 -0.00289266 -0.03316285 0.098289564 -0.14897864 0.05075215
-0.111517094 -0.11222484 0.061310373 0.04302683 -0.12293514 -0.062133055 -0.026383938 0.08327244
0.041693725 -0.059833318 0.10354517 -0.083611466 0.0272063 0.08145911 0.0011722252 -0.048754837
0.21496089 0.20145461 -0.03863218 -0.05559018 0.033023894 0.020288259 0.1276594 0.10109299
0.14555812 0.20377725 -0.018760933 -0.17409882 -0.14597765 -0.0017709257 0.17584924 -0.09115678
0.02087323 0.045333955 0.12164004 -0.2528591 -0.1507806 -0.112443835 0.07679047 -0.23498982
-0.1493603 0.049109705 -0.18906885 -0.17721601 -0.1463993 0.0512318 0.0629547 0.080525
-0.13346164 0.069108985 0.23486915 0.10517092 -0.15625113 -0.10776881 -0.09219826 0.06547794

bias f4 [8]
00000000: 899e 583e ca96 92bf a89b 84bf 999c 14bd
00000010: bb5b 9cbd 78b7 5bbd 8630 fa3c 07e4 053e
0.21154226 -1.1452267 -1.0360003 -0.036282156 -0.07634684 -0.053641766 0.030540716 0.13075267

weight f4 [8, 8, 3, 3]
00000000: a517 c83d 4af8 bfbd ffc7 dfbc 4f0d f53c
00000010: ac55 ef3d d1ec 893d 195d 44bd 0db8 babd
00000020: e962 2f3e 2781 263e 4c05 e83d 4142 f23d
00000030: 71a9 5bbc b969 f73b 7791 bb3e f5a4 98be
00000040: cc09 82bc 5e5a 5a3e 0c11 ab3d 1062 af3d
00000050: f3a5 d63d f0a9 c3bc d60a cd3d 4f84 8e3e
00000060: 753a 52be 5efb 2ebe ef4a ff3d 18ef 173c
00000070: f5c9 dfbd 9651 313d e90a 88bd 5e20 433c
00000080: 2a1d 47bd 3745 cb3d 7d7f cc3d 78e3 babc
00000090: 5617 11bd 65fe 983d f1e7 dcbd bc28 803c
000000a0: 8a1c 0a3d e06f 9bbc d850 42bc 242a 9d3c
000000b0: 541a c43c 7450 72bd 9e03 dfbd 9d18 36bd
000000c0: 8b32 ec3d 8489 8b3c 8e5e 8bbd 990c 3f3c
000000d0: ddf6 db3c 5703 2f3d dc64 ac3d fa33 f53d
000000e0: fb39 febb ecca 8e3d b8fe ad3d 8d88 6a3c
000000f0: a005 89bd 0ed5 e3bd 308d abbb 4d68 be3d
00000100: 718f 0c3d b2a6 05bd a8dc a1bc 9f37 393c
00000110: 543b 8e3d 1cc7 4cbd ce3c 2cbd c98f f5bd
00000120: bd11 eb3c 909c c13d ac03 5abd 0f14 a23d
00000130: 3d0e 2fba c708 c73d 8006 ec3d 93d6 2ebd
00000140: 9669 093d 8bb1 39bc 47cb 9fbc f8d1 7fbd
00000150: fcec b1bd 23f2 313d 899a 93bd f18b c23c
00000160: abcd 783d 7e94 073c 0565 2e3d 9046 8ebd
00000170: e98b f5bc 8224 da3c acb8 e9bc 0cb1 3bbd
00000180: 6e18 d53d 5c82 a3bd 2d4d c1bd 32e6 cebd
00000190: b299 5ebd c649 8bbd e4fd e53c f8c8 c6bc
000001a0: f874 a3bd 5b84 e93d 306b dbbd 7d85 c43d
000001b0: 5b68 913d a631 2c3d 869a 0cbd 7480 a9bd
000001c0: 694f e43d ca72 b9bd 5ec1 4bbd a0f9 25bc
000001d0: 2ecb 213d 9dcb cc3d 24cd 4bbd e8ef 763c
000001e0: dfe5 de3d 12fc 463d 00c1 ddba a8ea 18bd
000001f0: acfb 923c 45e3 e63d 1d5c b63d a4ce 58bd
00000200: 1db5 903d 3210 023d 88bc 91bc 45c3 df3d
00000210: 9265 14bc 2b4f dcbd 4aca 06bc bc4c 8ebc
00000220: 7c9a a93d 87a4 e93d 3dc6 cbbd 88f3 67bd
00000230: 79ad 893d efdc edbd 1c6c 22bd de3c b9bd
00000240: 6f8c 13be 1bd9 f93c 9ecd 1dbd 3e6f 173d
00000250: aebe 16bc 3702 b6bc fb85 15bd 048b d93d
00000260: eec1 543e 259f 9ebe f0d5 c8bd 0c36 a23e
00000270: 84da 89be d7cb 0b3d 1f08 d63e 3b1e b33c
00000280: 051f b13d 4469 103e 74f8 49be b83c c9bd
00000290: 3505 833e 30e3 2fbe 0d47 163e 41f6 ac3e
000002a0: 84a5 6cbd 351c b03d 5f5a e93c 509b eebb
000002b0: bed5 47ba 6557 a53d 52f6 4b3d 1096 dfbc
000002c0: 4867 78bc 40f9 f9ba b0ab 5dbc 89d1 a1bd
000002d0: df8f 8d3d 0c93 c43c 45f8 b13d bd50 ec3d
000002e0: 3804 15bd 8cc8 e7bc 100c f53b c69e a4bd
000002f0: 0337 d83d dd6c 6b3d 1506 913d cbca c33d
00000300: 5dc2 d53d b060 e23b 3caf dabd 1f7f c6bd
00000310: 9bb0 61bc 6b4b 123b 715d dabd d800 72bd
00000320: 7428 46bd 1e45 57bd 17df e9bd 6b9d a4bd
00000330: d1eb 423d 275f 54bd 2235 fc3d a139 cbbd
00000340: 49b6 afbd 0169 e13d a2d4 6bbd b84c 49bd
00000350: 7ad0 963d a15b 813d f882 9e3d c8e4 cb3d
00000360: e3c5 043e 44b3 09be 306a 733d 63e9 dabe
00000370: 755f 0fbf 9761 0ebf 1c38 b33e fc2c 003f
00000380: 3276 253f 1202 febe 4c65 95be a4bd 0ebf
00000390: 744a e03e 709c 883f 3e66 773f 86f3 4fbd
000003a0: 3078 4a3f 015f 813f 795d cebe 5233 11be
000003b0: c664 6ebe 38b8 183f 01a7 973f 0a69 883f
000003c0: 184e d1bd 4145 cc3e 54a7 073f 1d28 ecbd
000003d0: f5de 943d 983d dcbd 4c5f a33c c681 c5bd
000003e0: f239 bbbd 147e da3c 1d53 c6bd 3805 0cbd
000003f0: 1804 683c 3f67 b5bd 7539 e13d 1adb 303d
0.09770135 -0.09373529 -0.027317045 0.029913573 0.116862625 0.06734622 -0.047940347 -0.09117136
0.17127575 0.16260205 0.11329135 0.11829043 -0.013407097 0.007550445 0.36634418 -0.29813352
-0.015873812 0.21323535 0.08352861 0.08563626 0.10480871 -0.023884743 0.100118324 0.27835318
-0.20530112 -0.17088076 0.12465464 0.009273313 -0.10927192 0.043290697 -0.06642706 0.011909572
-0.048611797 0.09925311 0.09985254 -0.022813544 -0.035422646 0.07470397 -0.10786427 0.015644424
0.033718623 -0.018974245 -0.011860095 0.019185133 0.023938335 -0.059158757 -0.10889362 -0.044457067
0.11533078 0.017033346 -0.06805144 0.011660718 0.026851112 0.042727794 0.08417675 0.11972804
-0.0077583767 0.06972298 0.08495849 0.014314783 -0.06690526 -0.11124621 -0.0052353367 0.092972375
0.034316484 -0.032629676 -0.019758537 0.011304765 0.0694491 -0.049994573 -0.042050175 -0.119903155
0.028694982 0.0945369 -0.053226158 0.07913982 -0.0006677842 0.09718471 0.11524677 -0.042685103
0.03354796 -0.011333833 -0.01950611 -0.0624561 -0.08687779 0.04344381 -0.072072096 0.02374837
0.060743015 0.008275149 0.04257681 -0.069470525 -0.02997394 0.026628736 -0.028530441 -0.045823142
0.1040505 -0.079838485 -0.09438548 -0.101025 -0.054345794 -0.068011805 0.028075166 -0.024265751
-0.079812944 0.11402198 -0.10713804 0.09595773 0.07099982 0.042039536 -0.034327053 -0.082764536
0.11147959 -0.090550974 -0.049744956 -0.010130316 0.039500408 0.09999774 -0.049756184 0.015071847
0.10883688 0.048580237 -0.001691848 -0.03733316 0.017942272 0.11273817 0.08904288 -0.052931443
0.070657946 0.031753726 -0.017790094 0.109259166 -0.009057419 -0.107572876 -0.00822694 -0.017370574
0.08281419 0.11408334 -0.0994992 -0.056628734 0.067225404 -0.11614405 -0.039653882 -0.090448126
-0.1440904 0.030499032 -0.03852617 0.036971323 -0.009200735 -0.022217853 -0.036504727 0.10622218
0.20777103 -0.30980793 -0.0980643 0.3168186 -0.26924527 0.034129944 0.4180307 0.021865001
0.08648495 0.14102656 -0.19723684 -0.09826034 0.2558991 -0.17176509 0.14675541 0.33781627
-0.057775036 0.0859913 0.028485475 -0.0072816983 -0.00076230976 0.0807331 0.049795456 -0.027293235
-0.015161343 -0.0019071475 -0.013529703 -0.07901294 0.06912207 0.023995899 0.08689932 0.11538837
-0.036380976 -0.02829387 0.0074782446 -0.08038096 0.10557368 0.057476867 0.07081238 0.09560164
0.104374625 0.0069084987 -0.106779546 -0.09692215 -0.013775016 0.0022322785 -0.10662354 -0.059082836
-0.048378423 -0.05255615 -0.11419504 -0.080378376 0.047588173 -0.051848557 0.12314822 -0.09923101
-0.0857969 0.11006356 -0.05757583 -0.04914543 0.073639825 0.06316305 0.07739824 0.09955746
0.12966113 -0.1344729 0.05942744 -0.42756185 -0.5600503 -0.5561766 0.35003746 0.5006864
0.64633477 -0.49610955 -0.29178846 -0.5575812 0.43806803 1.0672741 0.96640384 -0.05076935
0.7908964 1.0107118 -0.4030569 -0.14179733 -0.2328063 0.59656096 1.184784 1.0657055
-0.10219973 0.39896587 0.529897 -0.115310885 0.07269088 -0.107539356 0.019942902 -0.09643893
-0.091419116 0.026671447 -0.09683821 -0.034184664 0.014161132 -0.08857583 0.10997287 0.0431777

bias f4 [8]
00000000: 8f70 24bd e27f e6bd 8a54 02bb ea6b 363d
00000010: 535b 05bb 95dd 403e f7ef 8d3d bfe0 b8bd
-0.040146407 -0.112548605 -0.0019886815 0.04453651 -0.0020348623 0.18834527 0.06930535 -0.09027242

weight f4 [128, 192]
00000000: 8e95 833c 0ca4 ea3c ab3e 343d 514d 00bd
00000010: a4a7 8dbb 88ba 2b3d 4a29 173d a708 253d
00000020: 3137 36bd 603d 5bbd 1803 06bd cdc6 863d
00000030: 314c 533d 5853 6abc bbc7 75bd 22d8 603c
00000040: c31b 713d 0afd 43bd ae8f 8a39 7c85 4abd
00000050: 85e7 dcbb 3deb 553c 4ae3 3ebd 792f 49bd
00000060: 895c 21bd a124 81bd 882a 713d 30fc ef3b
00000070: 1816 673d a0b2 ed3c 7cba 803d e620 903d
00000080: 74fc 1e3d c0c2 0c3d c35d 81bd bc5e a23c
00000090: 8000 fb3b 360b d5bc be15 1abd 2afc 503d
000000a0: c4b5 913c b8ca 733d 40fd 00bd 9ee3 293d
000000b0: c240 533d 92d0 d2bc f4ef 1d3d 78fd 4f3c
000000c0: 6208 a33c 0694 503d 3729 5bbb 783b 60bd
000000d0: 6abe 2b3d dadc 0b3c e41c 813d 7098 d63b
000000e0: aa0e db3c fdc5 0bbd 1917 923d 053a 003d
000000f0: b2eb 85bd e787 7fbc 9a72 78bd da9e 493d
00000100: 6b5a 323b 8c11 3abd d68a 33bc c2b6 95bc
00000110: a5f2 6abd 4167 53bd 6b71 dbbb 5024 24bc
00000120: 262f c83a 2d4b e1bc 0cf3 223d 332e 113d
00000130: 76c6 aabb 30ff 4b3d c5b3 873d a80c 56bc
00000140: a7e9 5c3d e052 bcbc c8fc 52bd 78fa 57bd
00000150: 4c83 213d df93 b83b 893e 573d d2db a53b
00000160: cda6 a13b 2dfb 97bd 3c00 8abd d4d7 c03b
00000170: 655d 1fbc c7e2 3abd 6802 313d b300 703d
00000180: 7c3b 233d 5c08 25bc acd5 c33c aea2 92bc
00000190: 44bd fdbc d0e8 69bc 1c0d eebc fef9 26bd
000001a0: 04fc 243d baed 9cbc 3036 c0bb c020 5a3d
000001b0: a84f e43c a045 4a3d 0c6e 38bc 73a2 12bd
000001c0: 126a ccbc ded5 873d 4604 43bd 07c7 06bd
000001d0: e651 87bd 4065 5cbd f856 123c c06d 5f3c
000001e0: eae4 28bd 1d23 56bc d6f5 49bd c5cf 76bd
000001f0: 351a 67bd 371d 45bc aec5 93bd 3f5a 9c3c
00000200: 274c 663d 0539 65bd 788d ae3b 3888 92ba
00000210: c6c9 283d 8af9 fdbc 0545 913d 74ac 963c
00000220: 0850 36bd 387d 8ebd a6ac ad3c 62b3 ceba
00000230: d537 d1bc 9d5b 03bd b9f5 8abd 742b e53c
00000240: da1f 94bd ed74 263d 1db8 4cbc 4eb3 35bc
00000250: e46a 81bd 40de 873b 3b45 273d 7216 96bd
00000260: b1bd 873d a371 013c 5633 68bc 2c56 81bd
00000270: 3823 c9bc 5d15 4fbd 14f8 113d 6280 733d
00000280: f607 33bd 838a 8b3d 6895 efbc 87b5 313b
00000290: 38ad 2a3d fdb9 5e3d af71 f83c d513 4fbd
000002a0: c3ce 803d 2611 1b3c bf39 0fbd ace1 8abd
000002b0: 2d6b 8ebd b4c1 3cbd 3af9 3c3d 7113 c1bc
000002c0: cb91 aa3c 1858 08bd 3174 33ba ad89 6cbd
000002d0: d301 173d 1b47 8bbd a1c3 4cbd 6636 8fbd
000002e0: 047e c2bc dcc1 e93b b4f1 95bc 1f5a c0bc
000002f0: 97f2 4cbd 9e9f a93b 5eeb abbb c9e2 723d
00000300: a1a4 9d3d b6e2 80bb 1812 d2bc 1f8b 85bd
00000310: eabc ddbc bb3d 53bd 20e4 52bd c22d 013c
00000320: b4a1 a83d 1c33 b6bc b707 8abd b8ef 5abc
00000330: cd4c 10bd 7a80 463d e7d1 02bd 6939 33bb
00000340: d99e 083d bfb4 a2bc 146e 22bd a125 72bd
00000350: add2 823d 17bd 2bbd cfd2 0ebd 0922 803d
00000360: a62c 89bd de2e 053d cfea c6ba 8f83 3dbc
00000370: 6087 ce3c dcdf 92bd 39ae 7cbd 8ca1 95bc
00000380: 1c21 653c ba73 87bc d890 25bd a088 e63b
00000390: a844 88bd bcf4 edbc e449 203d fc12 98bc
000003a0: 1c03 7bbd 295f 22bd 2ea0 e1bc 8081 94bb
000003b0: c612 f1bc 84ce b9bc d0e4 70bd 8eaf 923d
000003c0: afd0 843b 97c3 0b3d 7c48 753d 09bf 073c
000003d0: e5b5 9bbd 72a4 693b 3f18 ecbc dd7c 763d
000003e0: 05ee 64bd d880 1abb 3f91 0ebd 60fa 433d
000003f0: ae2a 093d 426c 36bd baf2 2e3d 5943 23bd
0.016062524 0.028642677 0.044005077 -0.031323735 -0.004322963 0.041925937 0.03690461 0.040291455
-0.04448623 -0.05352533 -0.032717794 0.06580887 0.051586334 -0.014302097 -0.06000493 0.013723405
0.058864366 -0.04784874 0.0002642846 -0.049443707 -0.0067414665 0.013056573 -0.04660348 -0.04911754
-0.03939489 -0.063058145 0.05887845 0.0073237643 0.056417555 0.02901584 0.06285569 0.07037525
0.038814977 0.034365416 -0.06316712 0.019820563 0.0076599717 -0.026006322 -0.03761839 0.051021732
0.017786868 0.0595195 -0.031491518 0.04147684 0.05157543 -0.02573422 0.038558915 0.012694709
0.019901458 0.050922416 -0.0033441314 -0.054744214 0.04192964 0.008536542 0.063043386 0.0065489337
0.02674039 -0.034124363 0.07133312 0.03130533 -0.06539096 -0.0155963665 -0.060656168 0.04922376
0.0027214538 -0.04542689 -0.010958394 -0.018275622 -0.05736031 -0.051612142 -0.00669687 -0.010018423
0.001527284 -0.027501667 0.03978257 0.03544445 -0.0052116467 0.049803913 0.06626085 -0.013064541
0.053933766 -0.022988737 -0.051510602 -0.0527291 0.039431855 0.005632862 0.052549873 0.005061605
0.0049332143 -0.07420955 -0.06738326 0.0058851037 -0.009726857 -0.045626428 0.043215185 0.058594417
0.03985165 -0.010072794 0.023905598 -0.017899837 -0.030974038 -0.014276698 -0.029058985 -0.040765755
0.040279403 -0.019156326 -0.0058658347 0.05325389 0.027870014 0.049382806 -0.011256706 -0.035799455
-0.024952922 0.06632589 -0.047611497 -0.03290465 -0.06607418 -0.053807497 0.008931868 0.013637006
-0.041233934 -0.013069895 -0.049306713 -0.06025674 -0.056421477 -0.012030891 -0.07215439 0.019086001
0.05622497 -0.05596258 0.005326923 -0.0011179512 0.04120805 -0.031002779 0.070932426 0.018392779
-0.044509917 -0.06957477 0.02120049 -0.0015770013 -0.025539318 -0.03206979 -0.06785149 0.027974822
-0.07232638 0.040638853 -0.012495068 -0.011090113 -0.06319216 0.0041463673 0.040837508 -0.073285
0.06627978 0.007900628 -0.014172396 -0.06315264 -0.024552926 -0.050557483 0.035636976 0.059448607
-0.043708764 0.068135284 -0.029246047 0.0027116255 0.0416691 0.05437659 0.030327646 -0.050556023
0.06289437 0.009464538 -0.03496718 -0.06781325 -0.06954036 -0.046083167 0.04613612 -0.02356884
0.020821473 -0.033287138 -0.0006845622 -0.057748485 0.036866974 -0.06800672 -0.049991254 -0.069927976
-0.02374173 0.0071337055 -0.01830373 -0.023480473 -0.05003604 0.0051764986 -0.005246564 0.05929831
0.07697416 -0.003933276 -0.025643393 -0.06520676 -0.02706762 -0.051572543 -0.05148709 0.007884445
0.082339674 -0.022241168 -0.06739753 -0.0133628175 -0.035229493 0.04846237 -0.03193846 -0.0027347452
0.033354614 -0.019861577 -0.03965576 -0.059117917 0.063878395 -0.041928377 -0.03486901 0.06256492
-0.06697969 0.0325154 -0.001517618 -0.011567011 0.025211036 -0.07171604 -0.06168959 -0.018265508
0.013984945 -0.016534675 -0.040421337 0.00703533 -0.0665372 -0.029047363 0.039132968 -0.01856374
-0.061282262 -0.039641533 -0.0275422 -0.004532039 -0.029427897 -0.022681482 -0.058811963 0.07162391
0.0040531973 0.034122076 0.05988358 0.008285292 -0.07603053 0.0035650996 -0.028820155 0.060177673
-0.055891056 -0.0023575332 -0.034806486 0.047846198 0.03348797 -0.044536836 0.04271195 -0.03985915

bias f4 [128]
00000000: 01e4 8fbd 628a b1bd 30fb 323d 553c cab8
00000010: c170 31bd d94f c43d c471 5f3c 917b 443d
00000020: dfd0 fab9 c778 86bb 7900 213d ecd9 63bd
00000030: d7ee 91bd d2c6 663d 6121 f93c ebaa 76bd
00000040: 7786 acbb b735 b63d 7cd4 87bd da6f 793d
00000050: 588f 20bd 9fbb b33b c143 9bbc bc4a 93bd
00000060: 706d 233c a420 1d3d 2489 f6bc 8a7c d93d
00000070: a30e c73d 66a6 9abd 3653 b2bc 86ec 123e
00000080: 2e6e 9c3d 68e1 c13d 3cb6 f63c b05c 573d
00000090: 8a88 9e3c af5a 1e3d b37c 813d 58d4 fc3d
000000a0: cbb9 8fbd 9084 46bd 1cf1 563d 0d4d c53d
000000b0: de59 c03c 3aa0 2bbd eafe 8ebb ec5f 80bd
000000c0: adc8 28bd dc64 3db9 3278 f73c 1954 26bd
000000d0: 8e0c 273c d687 953d 275e 943b caa5 803c
000000e0: 2be1 f3bc 2682 193e 1c49 1cbb f23b 0cbd
000000f0: 64aa d53b ff56 1c3c 9d19 393c 529e 32bd
00000100: d3c4 88bc f5be ee3c 247b 22bc a3c7 cfbc
00000110: 87aa b9bb 056c 813c 3b8e 8abd b341 213d
00000120: 6dc6 fd3c b706 d03d 2a54 fe3b 157f 6e3b
00000130: f95d 2f3c a1f5 623d 7cf1 8dbb 631a 80bd
00000140: 37ce e03d 0cf7 cb3c 6146 fb3d 3b08 be3c
00000150: a2b7 ad3d e4e0 b53d a2da df3d 2bfb bd3c
00000160: 7b01 e83d adba d63d 8c9b 6cbb 7757 973d
00000170: dcaf 2f3e f8c0 51bc 033f 893c 1bd8 7739
00000180: f28f 8bbd 9af4 c3bc fbc1 e0bc 0e2a 0d3c
00000190: e2c3 a6bc 1606 6c3d 49d6 563d 142e 93bc
000001a0: ca55 f4bc 9284 913c 0308 583d d60d ca3d
000001b0: 8a75 cf3d 057a d53d 69bf 373d 1156 333c
000001c0: 9f37 703d ffd9 1bbb efcb 5f3d 5fb2 b73d
000001d0: e37a 88bd 2713 623d 602c a8bb 3b53 b83c
000001e0: d2e4 73ba f740 663b df1d 39bd 848f 4bbd
000001f0: 371c bcbc 4fdc ed3b 6420 cf3b 0aaa 583d
-0.0702591 -0.086689726 0.043696582 -9.643348e-05 -0.04332042 0.09585542 0.013637964 0.047969405
-0.00047839337 -0.0041037533 0.03930709 -0.05562775 -0.07125633 0.056341954 0.030411424 -0.060221594
-0.005265053 0.08896964 -0.06632325 0.060897686 -0.039199203 0.0054850127 -0.018953206 -0.07191989
0.009974822 0.038361207 -0.03009469 0.10619457 0.097195886 -0.07551269 -0.021768194 0.14348039
0.076382026 0.09466821 0.030116193 0.052578628 0.019352216 0.0386607 0.063226126 0.12345189
-0.07017859 -0.048466265 0.052476034 0.09633837 0.023480352 -0.04190085 -0.004363884 -0.06268296
-0.041207004 -0.00018062018 0.03020868 -0.040607546 0.010195864 0.07301299 0.0045278254 0.015704054
-0.029770454 0.14991054 -0.0023847288 -0.034236856 0.0065205563 0.009542226 0.011297611 -0.043608017
-0.016695416 0.02914379 -0.009917054 -0.025363749 -0.0056660804 0.015798578 -0.067654096 0.039369296
0.030978406 0.10157531 0.007761498 0.0036391665 0.010703557 0.05541003 -0.0043317657 -0.06255033
0.10976832 0.024898075 0.12269283 0.023197284 0.08482291 0.08880785 0.10930373 0.023191055
0.113284074 0.10484824 -0.0036103455 0.073897295 0.17156929 -0.012802355 0.01675368 0.00023636261
-0.06814565 -0.023920346 -0.027436247 0.008615984 -0.020357076 0.05762299 0.052450452 -0.017966308
-0.029826064 0.01776341 0.052742016 0.0986592 0.10129841 0.10423664 0.044860277 0.010945813
0.058646794 -0.002378106 0.054637846 0.089695685 -0.06664064 0.055194046 -0.005132243 0.022500625
-0.0009303811 0.0035133937 -0.045194503 -0.049697414 -0.022962673 0.007258929 0.006321 0.052896537

weight f4 [8, 128]
00000000: f3ee c23c 5664 403d 7ba6 5c3d 5928 0a3e
00000010: b8a2 bbbd 3ccb 0ebe d799 a0bc b603 08be
00000020: 7342 afbd 4ab8 b2bd 156f 26bb 1b51 633d
00000030: 031d f5bc bdf0 2c3d b4f2 1d3d edb8 973d
00000040: 005e 6d3c 0400 4fbe d0f7 683d 86d6 7bbe
00000050: b696 4dbd 34ea 1a3c 3eb1 9fbd 91cb 503d
00000060: 427e 793d f853 c7bc b4cf fabc bfca 0dbe
00000070: dfda 13be 2780 4cbe 6ff4 80be 2c5a 5fbe
00000080: 7bc2 4ebe 1043 b1bd b8fc 71bd e684 5cbe
00000090: 58e4 003e 1724 52bc 3c1a 10be ba98 93be
000000a0: b722 873d 54ea d4bc a098 97be 9421 4cbe
000000b0: 030b fe3c 00e5 5b3b 5803 babb e10a cb3c
000000c0: 445a cabd ed4d 03bd 7442 b3bd 745f 88bc
000000d0: aabf 82be 4e4c a8bd d84d 85bd d69c 83bd
000000e0: b214 a1bd d165 1ebe e99a 3a3e 6335 c8bd
000000f0: 6fe2 d1bc 6074 803e d562 eb3d d86c ecbb
00000100: 06bc ef3c 1829 953c 6182 a73e 2965 d6bd
00000110: 9508 373d e512 64be 0b67 9abd f4e7 f43d
00000120: d686 39bc aa3b edbd d0b2 4dbd cae1 30bc
00000130: ac03 8e3d 4333 e8bd 9281 17be d078 34bd
00000140: 4f58 73be 2fe0 efbd d3ba febd 3b1a d73d
00000150: 6f05 e1bd ba7f 56be 8011 b7be cac7 7f3e
00000160: 2f77 83be af26 54be 3695 263e eb67 06be
00000170: c2f3 a4be 0aa5 6cbc 584c 8ebe 3bf0 a83d
00000180: b2e4 6fbd aa6c 8e3d bbd3 1abe 39bc 52be
00000190: 0fc0 023e 3b2d f73c 2f60 1bbd 3212 4cbd
000001a0: 7745 a13d 092c 273d c429 afbd 7e02 7bbd
000001b0: 10d4 253e 2ecf 12be 40b2 223d c115 c7bc
000001c0: 6b53 41bd df5f 103e 3ace 26be fce3 56be
000001d0: 4ebe 253d 2ce9 0cbd 5eda 443d f3ae 38bd
000001e0: 1e61 843d ff10 a1bc 4de5 21bd 9be4 9abd
000001f0: 2c7a aa3d 12f7 1b3d 79b2 fb3c ff5a 6bbe
00000200: 5544 b43d 3c21 063d e737 473e c4b2 c73d
00000210: b229 50bd afaa 2cbe 2df9 26bc 3153 81be
00000220: cd6b fdbc 4030 75bd 7464 0dbe f628 683d
00000230: dbfd e4bc fffe 36bd c733 2d3c b80b 883d
00000240: 343b 7d3d 56ac 4cbe 1623 3d3d 4924 7cbe
00000250: 75c4 353d d6bb 21bd a7b3 d2bd 42f2 a8bd
00000260: bbaf 8a3d ce19 e93c cf92 e2bd d044 e6bd
00000270: fcb1 5dbe cab5 1dbe 13ff 70be 3b64 92be
00000280: dc22 55be fda8 49be 391f 1bbd 9815 97be
00000290: c578 2b3e 9793 c13c af32 80be 4ed1 9ebe
000002a0: a2dd a73d b381 9b3d b7df bbbe 8672 26be
000002b0: 5af1 b8bd 3e37 223d c4c9 a1bd a04b 7abd
000002c0: 01d4 a2bd 929b 663d da98 60bd 5c2a a13c
000002d0: b2d7 a0be 0605 33be 0325 983b 06a8 bdbb
000002e0: 6e00 b83c 8e6d 37be 3710 eb3d f3dc dcbd
000002f0: a822 3fbd 0275 843e 7d50 36bb ddab 963d
00000300: edd9 a53d 196b 1a3d 8bf1 933e dfff 04be
00000310: aaa3 cfbb 236d 78be 553f bbbd d6be f83d
00000320: e86d 69bc 78b4 09be 9155 1cbd 9067 f03c
00000330: 552a 9bbd d984 ffbd ec78 afbd 458f 2abd
00000340: 16f5 88be 98f3 80be 5a8b 76be f2ad 8d3d
00000350: 1116 c1bd 0d88 28bd 93d5 c3be 16e8 b63e
00000360: 60ac 3cbe eed0 cfbd 2b9f e63d 83f5 1ebe
00000370: a24c 0ebf 7ebe 9d3b d652 9dbe cb23 5f3d
00000380: 46f6 1cbe 254b c63c 13bd 33bd 7e4d 30be
00000390: fd73 0f3e afae fdbc 52b1 743b c51b ddbb
000003a0: 6931 063d 4683 11bd 795a b1ba b27b babc
000003b0: 64fb 833d 867a 74be 9267 463a 933e 29bd
000003c0: 982a 063d acfa e33d 065a 62be a27c 5abe
000003d0: 4d23 a1bd d44a f33b f002 d5bb 418c a0bc
000003e0: 1de8 5c3d ccba 16bc feef 91bd 2b2e cd3c
000003f0: 3b3f d2bd 0800 813e 82b6 603d 2a8f 0ebe
0.02379558 0.046970688 0.053869706 0.13491954 -0.091618955 -0.13944715 -0.019604607 -0.13282666
-0.08557596 -0.087265566 -0.00253958 0.05549727 -0.02992106 0.042221773 0.038561538 0.07408319
0.014487743 -0.2021485 0.056876957 -0.24593553 -0.050192557 0.009455252 -0.07797478 0.050975386
0.060911424 -0.024332032 -0.030616619 -0.13846873 -0.14438961 -0.19970761 -0.25186488 -0.21811742
-0.20191376 -0.08655369 -0.059078902 -0.21535072 0.12587106 -0.012825987 -0.14072508 -0.2882746
0.06598418 -0.025990643 -0.2960863 -0.19934684 0.03101111 0.0033553243 -0.005676668 0.02478546
-0.09880498 -0.032056738 -0.08752909 -0.016647078 -0.25536853 -0.08217679 -0.06508988 -0.064263985
-0.078652754 -0.15468527 0.18223156 -0.09775808 -0.025620667 0.25088787 0.1149346 -0.0072151236
0.029264461 0.018208072 0.3271666 -0.104685135 0.04468592 -0.22272833 -0.07539185 0.11958304
-0.011323651 -0.11583646 -0.050219357 -0.01079602 0.06934294 -0.113379024 -0.14795521 -0.04406053
-0.23764156 -0.117126815 -0.12437978 0.1050305 -0.109873645 -0.20947161 -0.3575554 0.24978557
-0.25676867 -0.20717882 0.16267857 -0.13125579 -0.32217222 -0.014443645 -0.2779262 0.08248945
-0.05856771 0.0695432 -0.15119831 -0.20579614 0.12768577 0.030172935 -0.037933525 -0.04982204
0.078745775 0.04081348 -0.08552888 -0.061281674 0.16194177 -0.14336845 0.039720774 -0.024302365
-0.047198694 0.14099072 -0.16289607 -0.20985407 0.04046469 -0.034402058 0.048059814 -0.04508872
0.06463836 -0.019661425 -0.03952532 -0.07563134 0.08324084 0.03807742 0.03072475 -0.22983931
0.08802096 0.03274654 0.19454919 0.09750894 -0.050821014 -0.16861986 -0.010191244 -0.25258783
-0.030935192 -0.059860468 -0.13807851 0.05667969 -0.027953079 -0.044676777 0.010571427 0.0664286
0.06182404 -0.19987616 0.04617604 -0.24623217 0.04437681 -0.039485775 -0.10288172 -0.08249332
0.06771799 0.028454687 -0.11063158 -0.11243594 -0.21649927 -0.15401378 -0.23534803 -0.28592095
-0.20814079 -0.1969337 -0.037871573 -0.29508662 0.16745289 0.023629947 -0.2503867 -0.31019062
0.0819657 0.075930975 -0.36694118 -0.16254625 -0.09030409 0.039603464 -0.07899812 -0.061107278
-0.07950593 0.056300707 -0.05483327 0.019673519 -0.31414562 -0.17482385 0.004643084 -0.005787852
0.022461142 -0.17912886 0.11477702 -0.1078433 -0.04666391 0.2587052 -0.002781897 0.07356999
0.08098207 0.037699793 0.2889522 -0.12988232 -0.006336649 -0.24260382 -0.09142939 0.12145774
-0.014247395 -0.1344775 -0.03816754 0.029346257 -0.075764336 -0.124765106 -0.08567986 -0.04164054
-0.26749486 -0.25185847 -0.24076596 0.06917943 -0.09428037 -0.041145373 -0.38248882 0.35723943
-0.18425131 -0.10147272 0.11260828 -0.15523343 -0.5558568 0.004813968 -0.3072726 0.054477494
-0.15328321 0.024205754 -0.043881487 -0.17217061 0.1400909 -0.030967085 0.0037337136 -0.006747695
0.032761965 -0.035525583 -0.0013530991 -0.02276406 0.06444433 -0.23874864 0.0007568534 -0.04131944
0.032755464 0.11131796 -0.22104654 -0.21336606 -0.07868061 0.0074246917 -0.0065005943 -0.019598128
0.053932298 -0.009199809 -0.07125853 0.025046429 -0.102659665 0.25195336 0.054861553 -0.139218

bias f4 [8]
00000000: 2c64 45be 53f4 80be d164 86be b76b 66be
00000010: a1bc 85be 19fa 83be 44f5 82be 682d 84be
-0.19276494 -0.25186405 -0.26248792 -0.22502027 -0.26120475 -0.25776747 -0.25577748 -0.25815892
