MountainCar/MountainCar-v0/lr_0.0002/coeff_entropy_0.0001/batch_size_64/horizon_2048/policy.pth (torch_old, 1682 bytes, 7 tensors)

act_fc1.weight f4 [10, 2]
-0.65577614 -0.02807492 -0.51003355 -0.66322106 -0.52347326 -0.36558884 -0.74978364 0.5010769
0.69004434 0.483432 -0.6468211 0.64841473 0.07230079 -0.012910247 -0.44136155 -0.74598974
0.27331388 0.4276263 0.22999048 0.5489239
00000000: f2e0 27bf 60fd e5bc 8f91 02bf dbc8 29bf
00000010: 5802 06bf 762e bbbe d2f1 3fbf 9346 003f
00000020: bfa6 303f 6684 f73e 1196 25bf 82fe 253f
00000030: 7012 943d 8085 53bc 24fa e1be 2ff9 3ebf
00000040: ccef 8b3e d6f1 da3e a082 6b3e 4786 0c3f

act_fc1.bias f4 [10]
-0.70574903 0.06828644 0.4443209 0.36672103 -0.41075516 -0.39385125 -0.25966513 -0.25989375
-0.6279795 0.22592653
00000000: f8ab 34bf c3d9 8b3d 077e e33e dcc2 bb3e
00000010: 804e d2be dfa6 c9be d4f2 84be cb10 85be
00000020: 44c3 20bf 4959 673e

act_fc2.weight f4 [3, 10]
0.020297138 0.119083986 0.06768188 0.06018879 -0.025108848 0.06698674 0.00011755526 0.047547683
-0.009670629 0.12091961 0.029063437 -0.022472918 -0.039589413 0.0168302 0.012793315 0.005904763
0.016621957 0.034028716 0.031558517 0.03921766 -0.012267441 -0.014023915 -0.019333743 -0.056604937
0.0152922785 -0.009179279 0.017046003 -0.031188006 0.006081858 -0.09255054
00000000: 2f46 a63c 4ee2 f33d cc9c 8a3d 8588 763d
00000010: 12b1 cdbc 5830 893d 0088 f638 5cc1 423d
00000020: 8f71 1ebc b3a4 f73d 7216 ee3c 2019 b8bc
00000030: 8228 22bd 7ddf 893c 0d9b 513c be7c c13b
00000040: c52a 883c b261 0b3d 8143 013d b2a2 203d
00000050: 60fd 48bc 90c4 65bc cc61 9ebc 94da 67bd
00000060: 778c 7a3c b064 16bc 0fa4 8b3c fd7d ffbc
00000070: 534a c73b 238b bdbd

act_fc2.bias f4 [3]
-0.10284262 -0.06668049 0.13313697
00000000: 279f d2bd c88f 88bd 0f55 083e

value_fc1.weight f4 [10, 2]
-2.8105876 -0.72693706 0.23938805 -0.36671087 0.5170937 0.6600639 0.0047847033 0.28520662
-2.3201134 -0.21718839 -1.794297 -0.60129565 -0.38566542 0.2017802 -2.1830378 -0.103005975
-1.6787664 0.020922171 -2.5264692 -0.6773124
00000000: abe0 33c0 8c18 3abf 2422 753e 87c1 bbbe
00000010: 4160 043f f3f9 283f 00c9 9c3b 9a06 923e
00000020: bd7c 14c0 a266 5ebe 86ab e5bf 83ee 19bf
00000030: f075 c5be 789f 4e3e e4b6 0bc0 ccf4 d2bd
00000040: d1e1 d6bf f964 ab3c acb1 21c0 5864 2dbf

value_fc1.bias f4 [10]
2.4831305 -0.04694897 -0.027670145 -0.2543661 2.8192906 2.9057395 -0.52845377 3.0341337
2.7170172 2.0768726
00000000: 9ceb 1e40 904d 40bd 80ac e2bc 463c 82be
00000010: 426f 3440 a3f7 3940 bf48 07bf 3f2f 4240
00000020: 9ce3 2d40 7beb 0440

value_fc2.weight f4 [1, 10]
-2.4717782 -0.17448804 -0.21707824 -0.110443965 -2.5020676 -2.1681147 0.08822501 -2.332325
-2.6826963 -2.2417238
00000000: 9d31 1ec0 feac 32be c249 5ebe 7230 e2bd
00000010: e021 20c0 64c2 0ac0 50af b43d d044 15c0
00000020: 4cb1 2bc0 6778 0fc0
