bipedalwalk/Pendulum-v0/lr_0.0002/coeff_entropy_0.0001/batch_size_64/horizon_2048/policy.pth (torch_old, 71478 bytes, 10 tensors)

act_fc1.weight f4 [64, 3]
00000000: c735 2e3f 502d e4be 7d0a 57be b00a f13e
00000010: d356 8d3f 118d e13e f38d 92be 6ab6 e4be
00000020: 2e81 cf3e eb77 283e 73a4 e5be 619d be3e
00000030: 2b5c ccbd 005e dc3e e21b 423c ac65 45be
00000040: 43a1 07bf 53a3 29bd e4e7 963e 5608 0e3f
00000050: 5c82 f9be 3ec8 523e b441 40bf 9897 7b3b
00000060: 3f70 cfbe 2c77 343f 1c07 6e3e 4be0 1ebf
00000070: ec8c c5be 5f31 cd3e dfd2 a1be bfee 113f
00000080: 74fb 9f3e 6b87 23bf 0914 9e3e 6293 14be
00000090: 6728 87be f9bd 32be dbb6 fb3e bdf0 9b3e
000000a0: 8d17 61be 94cc a0bd 9a3f 0d3f 684e 11bf
000000b0: 8581 62be 0523 a0be 8b0f 523e e06f 773e
000000c0: afc9 cb3e 3d54 acbf 09ca ebbe 2ff5 be3e
000000d0: 1aa9 febe 4e14 7fbd aecc 6b3e be89 38bf
000000e0: bba9 b63c 0ef3 063f 4f3d 073f 7e5a 0ebf
000000f0: 87dc b93e efc8 bfbe 1caf 083f 2463 f53d
00000100: 3791 a3bd 2d0b dd3e 592f a0be 19ee e23e
00000110: 240a 4abd 0acb 013f a365 403f 706f 3f3d
00000120: d77e 03bf f80d 5b3e c8c0 6a3e f41d b8bd
00000130: a041 28bf 8abc 093f 68aa 2fbf 8b57 4a3f
00000140: 949c 913e d859 8dbe fde6 a63e 8299 043e
00000150: 0b98 02bf 5529 ec3e c296 1dbf b384 9c3c
00000160: e5b9 2f3f fb7d 8c3e 76e2 25bf aeb6 873e
00000170: 643f 51bd ba0c 06bf ef4b 34bf fcb5 73bd
00000180: e526 653e 2b96 103f 6cda a7bb 8f9c b4be
00000190: 82ce 683f 86c3 c7bc f76e 08bd 79d9 ecbe
000001a0: 011a 053f aa5d d53e 37dc 513e 0aeb 29bd
000001b0: c176 60be d92d 20bf bd3f c53e 3d8e fa3e
000001c0: 1ba7 c3be 5d6b d0bd 8bd2 ec3e a0f4 4cbf
000001d0: aafa 9fbc 7a37 eb3e 879c 37be 9b9b 0d3e
000001e0: b263 96be e11e 43bf e0b3 52bd b6ef 593e
000001f0: 1bd3 d5be cb03 e33e 345c 1abf 3c2d bfbe
00000200: 75a0 313e 02fa 18be 2589 41bf 4e37 84bf
00000210: 9997 dd3d 6415 143f ea0e 06bf c208 d8be
00000220: c753 cbbe 2dea 9f3e 404a 3dbf 92da fabd
00000230: f362 a53e 5eba d63e 7f89 493b 942b 18bf
00000240: d210 613e 8e30 a1be 1d17 0bbf dd7e 94be
00000250: 01c0 23be caf4 d93e 0336 083f 6279 5bbf
00000260: e41d a5be b5ff ff3e cb34 82be 84b9 82be
00000270: a9a7 3c3e ebad eabe a32c 023f 1e51 373e
00000280: 9fd9 7ebe 357e f0bd 9692 1bbe a9f2 583f
00000290: c3b1 01bd 86d3 e13e 79e5 4d3f 2eac 063d
000002a0: b5bf d53e 3ebb 103f a5d4 5b3a de9a a03d
000002b0: 5e66 a6be 5382 9cbc 6266 2c3f ca76 45bf
000002c0: 54ac 01bd 6c09 483f 112c e33e 9dc5 813e
000002d0: 43aa 1dbf 4b50 9a3e a6a3 d6be 2f3e 3ebd
000002e0: 6fd9 80be 9758 26bf badf d0bd 6882 eebe
000002f0: dde2 1abe 96ad b5bd 71d0 b03e 8f01 21bf
0.6805081 -0.4456582 -0.21000095 0.47078466 1.1042122 0.44052938 -0.28623924 -0.4467042
0.40528244 0.16451995 -0.44852027 0.37229446 -0.09978517 0.43040466 0.011847468 -0.19277066
-0.5298044 -0.041415524 0.29473794 0.5548147 -0.4873227 0.20584199 -0.75100255 0.0038389917
-0.40515324 0.7049434 0.232449 -0.62060994 -0.38584077 0.4007673 -0.31606194 0.5700492
0.3124653 -0.63878506 0.3087466 -0.14509347 -0.26398012 -0.17455281 0.49162945 0.30457106
-0.2198164 -0.0785152 0.55175173 -0.56760263 -0.2211972 -0.31276718 0.20513742 0.2416377
0.3980231 -1.3463207 -0.46052578 0.37296435 -0.4973839 -0.062275223 0.23027298 -0.7208518
0.02229773 0.5271462 0.52827924 -0.5560683 0.36301062 -0.37457988 0.53392196 0.119818
-0.07986682 0.4317259 -0.31286123 0.4432228 -0.049326077 0.5070044 0.75155085 0.046737134
-0.5136542 0.21392047 0.22925103 -0.08990088 -0.65725136 0.5380331 -0.68619394 0.7903983
0.28439772 -0.27607608 0.32598105 0.12949184 -0.5101325 0.46125284 -0.61558163 0.019106245
0.6864303 0.27439865 -0.64798677 0.2650656 -0.051085845 -0.5236317 -0.70428365 -0.059499726
0.22378118 0.5647914 -0.0051224735 -0.35275695 0.90940106 -0.024385225 -0.03330895 -0.46259668
0.51992804 0.41673023 0.20494162 -0.041483916 -0.21920301 -0.6256996 0.3852519 0.48936644
-0.3821343 -0.10176728 0.46254382 -0.8006077 -0.019528706 0.45940763 -0.17930804 0.1382889
-0.29372936 -0.7621899 -0.051441073 0.21282849 -0.41762623 0.4433883 -0.6029694 -0.373392
0.17346366 -0.1493912 -0.7559989 -1.0329378 0.108199306 0.5784514 -0.5236651 -0.42194182
-0.39712355 0.3123335 -0.7394142 -0.1224872 0.32302055 0.41939062 0.003075212 -0.59441495
0.21979073 -0.31482357 -0.54332143 -0.2900304 -0.15991212 0.42569572 0.53207415 -0.8573209
-0.32249367 0.49999776 -0.25430903 -0.25532162 0.18423332 -0.45835814 0.5084936 0.17902038
-0.24887703 -0.11742822 -0.15192637 0.8474527 -0.031663667 0.44106692 0.8042827 0.032879047
0.41747823 0.5653571 0.00083858735 0.078420386 -0.32499975 -0.019105112 0.67343724 -0.7713438
-0.031658486 0.78139377 0.44369557 0.2534608 -0.61587924 0.30139384 -0.4192173 -0.04644602
-0.2516589 -0.6497893 -0.101989225 -0.46583867 -0.15125604 -0.088709995 0.34534028 -0.62893003

act_fc1.bias f4 [64]
00000000: 9729 07bf f107 d5be 709b bdbd 294d df3e
00000010: 2646 6d3d 01ec 2e3e 7417 023f bfe1 38be
00000020: 8be4 8a3e 7565 10bf 951d b33e 20dd 223f
00000030: ed7a 39be d539 c6bd 346d debe 234e f8be
00000040: e53c ecbe 8868 003f df7c 86be 5928 0fbe
00000050: 3206 5e3d 0726 273e a37e 8f3e 01bf 173e
00000060: 8423 e2be 5497 85be d63d 213f b358 d13e
00000070: 19d6 15bf 63aa 0cbf 7526 073e f91d 0cbf
00000080: ddb8 743e 670e 763e 2590 703e b065 9abc
00000090: e656 263e fc64 c23b 2945 e6bc 0cca 11bf
000000a0: 55ce 403d 2d98 ba3e 36cb 153f 08a9 eb3c
000000b0: 5343 b03e 3498 acbe 5f33 04bf 279f d53e
000000c0: b9dc 0b3f 0fe5 f3be 9c08 16bf b3d1 e13e
000000d0: b0d2 7c3e 1d1e dfbe ba5d db3e 2684 c23e
000000e0: d8e5 9ebd 29d7 d1bc e493 d03e 9db3 183f
000000f0: efb2 acbe 776c 943e 8a01 c83e aa21 9e3d
-0.52797836 -0.4160762 -0.09258163 0.43613556 0.057928227 0.17082216 0.50817037 -0.18054865
0.2712749 -0.5640481 0.34983507 0.6361866 -0.18113299 -0.09678999 -0.4344269 -0.48497114
-0.4614021 0.501595 -0.26267144 -0.13980235 0.054205127 0.163231 0.28026304 0.14818956
-0.4416772 -0.26092017 0.6298498 0.40887985 -0.5852981 -0.5494749 0.13198264 -0.54733235
0.23898645 0.24028932 0.23492487 -0.018847317 0.16244087 0.0059324484 -0.02810915 -0.56948924
0.047071774 0.36444226 0.585132 0.028767124 0.34426364 -0.33709872 -0.51640886 0.41722986
0.5463367 -0.47635695 -0.58606887 0.441053 0.24689746 -0.43577662 0.42844945 0.37991446
-0.07758683 -0.025615292 0.40737832 0.5964907 -0.33730265 0.28989002 0.39063674 0.07721265

act_fc2.weight f4 [128, 64]
00000000: 4b8a 0b3d b9f7 eabd 9b84 463c c7fe 413c
00000010: ac68 fcbc e0e8 a1bd ad23 83bb 39b5 a53d
00000020: 5cb1 e5bd 956a 73bd 84cb 6ebd 5b35 dd3d
00000030: 2561 73bd f0e9 edbd 1ce8 72bd b7db 103e
00000040: 73a7 023e 70b9 33bd 144a 823d f155 b4bd
00000050: c8fd 493a 97ee b23c cd29 ecbc 65eb c73d
00000060: d1c7 123d eed7 e9bd 5264 d43b ae50 30bc
00000070: 1b9c 193e b6e1 173d e86b 803d 0a86 1c3d
00000080: 182f 7d3c 34d7 01bd 870f 403d c651 143d
00000090: 48f0 a3bd 738a c4bd 1c44 e03d b033 093c
000000a0: d19e a6bd f498 893c a15a 86bd e84f 04be
000000b0: 2518 843d 1c3d 04bc 31bb 033d 36c3 c7bc
000000c0: b820 aabd 9b6a 733d b277 b13c aee8 91bc
000000d0: d285 833d 096b 04be 99a0 9abd f9bc 163e
000000e0: a074 eb3c ea65 d23d 8bed 6b3d 018c 10bd
000000f0: 24ed 923d c237 d2bd ca9a 633d 0cdd 833d
00000100: 400e de3d 9f48 f7bb ae4d 08be e226 c5bc
00000110: 2c5e 22bd b38e b43d 6a73 60bc 84ee e03d
00000120: d678 0cbd 6c84 133e 6dff aebc f3b2 693e
00000130: 9550 a53d d20a 0fbe 9b46 9c3d cd0e cbbc
00000140: a013 4e3a 6722 46bd 1268 e5bb af34 cfbd
00000150: e4be 9ebd 3def a0bd 209c d63d 11b7 9d3c
00000160: 4e66 a63d fd8d b83d 6b20 44be e5c1 1ebd
00000170: 9ad9 9d3d d4ae eabc 7ec9 7dbc 2a17 78bd
00000180: 7a04 15bd c71b 94bd 86e7 ee3c 8493 aabd
00000190: 1663 9dbd e863 bf3c 797b bd3d a20c a7bd
000001a0: d022 f2bd 31a9 ac3c d25b ccbb 40bb e6bd
000001b0: 5a66 403b f012 cbbc d8c7 8f3d 0b08 cdbb
000001c0: e65c 2e3d 2ae4 cebd 2d8b a9bb 5db8 a5bc
000001d0: 0806 53bd ef12 70bc 2322 363b 986f 3b3e
000001e0: 0a6b 03be a522 1dbd 383b 7ebd 7ecf 783e
000001f0: e1bb b53d 7f3b dfbd 29ef 0abc 59e8 a6bd
00000200: 5b11 553e 62ad 6fbe 2bf8 d93c 0726 083e
00000210: a36e 923d 4dc5 403c 0c1a 713d ba10 ea3c
00000220: adc9 87ba 7a4b 9c3d 9163 e93d 9264 0a3e
00000230: dafa d43d 211a 0bbe 394a ff3d 14d6 9ebd
00000240: 110e 883e 508b 82bc 85a1 d1bd 6541 0dbd
00000250: 183d 023e 9e3a 8b3d 52b5 d03d 9c6f a83d
00000260: a26c aebd b642 b53b 20ab 6abe cc3b d6bc
00000270: c321 3abe 01e2 ec3d 9d51 6dbd 7d6d 45bc
00000280: 9edb 223d 0150 623e 7b25 933d 29ce a9bd
00000290: 6d05 103e a716 11be 04e0 113c 1ca8 22be
000002a0: bcc2 c03d 412f 7a3d 0a7e 7e3d 2299 e13d
000002b0: 6289 933d 1894 063d fd2b a93c a711 13be
000002c0: 4c68 693d ecf1 f73d a860 4a3e f3e4 01be
000002d0: 420d 1bbd 98c8 e83c 83f9 e23d 54ff 613e
000002e0: cef8 db3d e292 e8bc 4cc8 63be 1235 353d
000002f0: b0fc 9cbc c457 f73b 8842 0cbd 7446 54bd
00000300: dfd6 f2bc 419c 623c ec59 5bba 6b34 f4bc
00000310: 1503 b13c df38 d33d 05b8 bd3d f04b 08be
00000320: f1e0 84bd 4bba 25be f740 763d 5c6d a23b
00000330: 0443 e93c ed99 993d 81d3 693d 2a21 043d
00000340: 8baf d3bd 14cf 8abc deff c1bb 331c 76bd
00000350: 309e dd3c 1b30 053d 04be eebd afde 6abd
00000360: bab5 6cbd 4f2e bd3c a9d4 3a3d c592 53ba
00000370: 30f3 6a3d aa7c 553d 3755 fbbc 1225 54bd
00000380: aa9c 713d f527 d1bb 4b47 623d bc4f 2ebd
00000390: cc2f 0e3e 27a9 73bd 84df e4bd 7142 ba3d
000003a0: 1866 9f3d c543 773d bd15 6e3b 913a 443e
000003b0: 7905 703d 787f 3d3d fe7d 343c 2c25 393d
000003c0: 04da 893d 990a 1e3d 9c40 e33d acf6 f9bd
000003d0: 405c 91bd 4236 1abd 9781 8b3d 9b5e 783d
000003e0: f5cc 3ebd 7b96 d93d da30 1a3e 4e0e 3dbd
000003f0: ccb7 723d a8a9 fcbc c19f c6bc d847 d8bd
0.034067433 -0.114730306 0.012116577 0.011840529 -0.03081163 -0.079057455 -0.0040020556 0.08091206
-0.11215469 -0.059427816 -0.058299556 0.108011924 -0.059418816 -0.11616886 -0.059303388 0.14146315
0.1275919 -0.04387802 0.063617855 -0.088054545 0.0007705358 0.021842284 -0.028828526 0.09761695
0.03583509 -0.114181384 0.0064816857 -0.010761423 0.15000956 0.03708049 0.062705815 0.038213767
0.015453123 -0.031699374 0.046889808 0.036210798 -0.080048144 -0.095967196 0.10950491 0.00837414
-0.081357606 0.016796567 -0.06560255 -0.12921107 0.06449918 -0.00807121 0.03216094 -0.024385076
-0.08307022 0.05942784 0.02166352 -0.017811146 0.064220086 -0.12931456 -0.07550163 0.14720525
0.028742135 0.10273345 0.057599586 -0.035289768 0.07174137 -0.10264541 0.05556754 0.06438646
0.10842562 -0.007546499 -0.13310882 -0.024066392 -0.03964059 0.0881628 -0.013699392 0.10982993
-0.034294926 0.14405984 -0.02136203 0.2282217 0.080720104 -0.13968971 0.076306544 -0.024787331
0.0007861201 -0.048372652 -0.0070009315 -0.101174705 -0.07751253 -0.07858131 0.10478997 0.019252332
0.08124982 0.09011457 -0.19152991 -0.03875913 0.0770752 -0.028647818 -0.015489934 -0.060568966
-0.036381222 -0.072318606 0.029163133 -0.083289176 -0.07684915 0.023363069 0.09252066 -0.081567064
-0.11823046 0.02107677 -0.006236532 -0.11266184 0.0029357881 -0.024789304 0.07020539 -0.0062570623
0.042569064 -0.101021126 -0.0051740617 -0.020229513 -0.051519424 -0.014652952 0.0027791343 0.18304288
-0.12833801 -0.038363118 -0.062068194 0.24297902 0.08873726 -0.1090002 -0.008479872 -0.081497855
0.20807402 -0.23405984 0.026607594 0.13295756 0.071500085 0.01176579 0.05886273 0.028572429
-0.0010359787 0.076315835 0.11395944 0.13514927 0.10399409 -0.13584186 0.12465329 -0.07755676
0.26573232 -0.01593557 -0.102358855 -0.034486193 0.12718618 0.0679829 0.10190834 0.08224413
-0.08516814 0.005531634 -0.22916842 -0.02615156 -0.18176942 0.11566544 -0.05793916 -0.01205003
0.039760225 0.22100832 0.07184883 -0.08291275 0.1406457 -0.14168797 0.008903507 -0.15884441
0.09412143 0.06108022 0.06213192 0.11015536 0.07203938 0.032856077 0.020650858 -0.14362203
0.05698423 0.1210669 0.19763434 -0.12684993 -0.03785444 0.028415963 0.11082747 0.22070056
0.10740815 -0.028390352 -0.22244376 0.044240065 -0.01916346 0.0075483043 -0.034243137 -0.051825
-0.029643474 0.013831199 -0.00083675864 -0.029810151 0.021607915 0.10313582 0.092636146 -0.13310218
-0.06488217 -0.16184346 0.06012055 0.0049568843 0.028474338 0.07500062 0.05708647 0.03225819
-0.103362165 -0.016944446 -0.0059203943 -0.060085487 0.027052969 0.03251658 -0.11657336 -0.057341274
-0.057790495 0.02309337 0.045612965 -0.00080708816 0.057360828 0.052120842 -0.030680282 -0.051793166
0.058987297 -0.006382937 0.05524377 -0.04255651 0.1388542 -0.059487488 -0.11175445 0.09094704
0.07783145 0.060367364 0.0036328875 0.19162966 0.05859897 0.04626414 0.011016367 0.045201465
0.06731036 0.038584325 0.11096308 -0.12205252 -0.070976734 -0.0376494 0.06811827 0.060637098
-0.04658218 0.10624405 0.15057698 -0.04615622 0.059257314 -0.030842617 -0.024246098 -0.10560578

act_fc2.bias f4 [128]
00000000: 1914 083e 7900 3a3d da45 83bd 0dc7 9cbd
00000010: 16a2 293e 69e0 c1bd 6ac8 2ebe b749 183c
00000020: dbe6 b9bd 59d4 9b3d 42e8 743b de82 023e
00000030: c847 983c e6fe 153d 108b 2fbd efee 12be
00000040: 1a4b acbd 1bf6 30bd 59bc 80bd f37c 193d
00000050: 3dd6 323e 0950 bc3d 4cdf 26be 2d88 9dbd
00000060: 7dee 42bb b789 83bc b02c 1bbe a9da d03b
00000070: f0ae 10bd f997 a73d fd47 a23b c4db 1fbe
00000080: 00d2 9a3d 8926 88bd 540a cd3d cdc0 86bc
00000090: 2120 f83b fe49 c1bb 295d b4bc be7f 22bd
000000a0: b554 3f3c 686c 1abd f2e4 0e3d 21e4 18bb
000000b0: 4411 193d 7447 023e b049 8cbb 2bfe 22be
000000c0: 5ab3 4f3c e14f 19bd 0d1f d9bd dd5c d8bc
000000d0: 24f4 d2bb e4b9 d83d d9cd 7a3d d59a 993d
000000e0: b086 633d 92be 603d 3482 c43d 80ec 733d
000000f0: ea0c 72bd c2f0 883b f65f 57bd 2f3a 8f3d
00000100: de46 acbc 73cc 25bb 25a1 633e fa8a 153d
00000110: 2f0a 4e3d ebb4 d93d 3ccf 86bc caf6 3c3d
00000120: 302b 23bd fbfd a23c 3ec8 413d 6436 83bd
00000130: c113 82bc ea9a 98bd d397 183d f946 21be
00000140: c35e 10be b437 423d a5ba d2bd 9025 bdbd
00000150: 3497 98bd cdbb 6f3c c344 953b 4f5c b1bd
00000160: 2b79 2e3e bdcd e4bd 3436 0a3d c909 ffbc
00000170: 464a 15be 034f 4dbd f14c 4dbe 0efc 76bd
00000180: 35e2 483d 6bee 763d ee81 f4bd 4427 86bd
00000190: a6ac 65bd 5017 843d 80df ee3d 7e55 3fbe
000001a0: 895c ba3d 68e3 9a3c 2972 593e d699 45bd
000001b0: a5cb 17be c601 053e e0ec af3d ae4a bcbd
000001c0: 606e c9bd b18c eb3d a272 873c 8e73 4b3d
000001d0: 2bae 4fbc f49c 60bd c3e6 01be b5af d53c
000001e0: 83e6 623d de1d 5f3d 20d7 97b9 8558 643d
000001f0: 4579 b3bd b320 90bc 8491 053d f82a aa3b
0.13288917 0.045410607 -0.064098075 -0.076551534 0.16565737 -0.09466631 -0.1706864 0.009294919
-0.09077235 0.076088615 0.0037369882 0.12745234 0.018588915 0.036620043 -0.04285723 -0.14348958
-0.08412762 -0.043203454 -0.062859245 0.037472676 0.17464538 0.09194953 -0.16296118 -0.07691989
-0.00297442 -0.016056878 -0.15153766 0.0063737226 -0.035323083 0.08183283 0.0049524293 -0.15611178
0.075595856 -0.06647975 0.100117356 -0.016449356 0.0075721894 -0.005898713 -0.022017078 -0.039672606
0.011677911 -0.03770104 0.034886308 -0.0023329335 0.03736998 0.1272257 -0.004281245 -0.1591727
0.012677038 -0.037429694 -0.106016256 -0.026411468 -0.0064377952 0.10582331 0.061231468 0.07500235
0.05554837 0.054869242 0.09595147 0.059551716 -0.059094347 0.004179091 -0.05258175 0.069935195
-0.021029886 -0.0025298863 0.2222944 0.03650949 0.05030268 0.106302105 -0.016456239 0.046133794
-0.03983611 0.019896498 0.047310106 -0.064068586 -0.01587856 -0.074514225 0.037254166 -0.1574973
-0.14098649 0.047416404 -0.10289506 -0.0923568 -0.07450715 0.014632178 0.004555316 -0.086601846
0.1703841 -0.11172054 0.0337431 -0.031132596 -0.14579114 -0.05012418 -0.20048882 -0.06029897
0.049043853 0.060285967 -0.119388446 -0.06550458 -0.056072854 0.06449759 0.11663723 -0.18684956
0.09099681 0.018907264 0.21234955 -0.048242413 -0.14823778 0.12988958 0.08590102 -0.091939315
-0.098355055 0.11501444 0.016534153 0.04967075 -0.012675802 -0.054837182 -0.12685685 0.02608476
0.055395614 0.054471843 -0.00028961245 0.05574848 -0.08763365 -0.017593717 0.032609478 0.0051931106

mu.weight f4 [1, 128]
00000000: cf90 dab9 cb41 1fbb 4e45 8c3b fcac bb39
00000010: 3c1f 0b3e af08 d93d 1a4c 3bbd e378 fbba
00000020: 086b e93a 5654 053e 9370 41ba aa4a 003e
00000030: 0682 b339 b846 cab8 aa6c 8b3a 06d3 753e
00000040: 68d3 63ba c969 ccb9 1665 973a 7670 33be
00000050: 61a8 9fbe 87ce 65ba 3811 cb3b 9d96 cfba
00000060: 1f10 2e39 4560 a73a b323 a9ba 91a3 9ebd
00000070: 2795 1cbe add3 b0bd 01e5 34bd fa5f de3d
00000080: 0e2c 3f3e 27ca 343a 9815 eebd 4fb1 2e3b
00000090: c56f f434 5361 0bbc 44dd 26ba 2fe1 593c
000000a0: 077a 1f39 03b9 a9b9 c0ac d3ba af17 cdba
000000b0: 46a7 b8bd a514 183a 26df 63bd 0f13 30be
000000c0: a01d e7b9 db1d cc38 a664 d63d baed 093a
000000d0: 8166 acb9 192c 0a3b cac5 843d ad48 803a
000000e0: f9ae 70b7 3a78 2bba 23e6 9cbb 8b6f adba
000000f0: 34a7 8a3b 5757 fa3d de12 db3d ffe3 353d
00000100: ebc7 13bd d5ee bdbc 013c a6be 743f 71bc
00000110: 7253 313a 6de6 90b9 a925 e2b8 2291 7938
00000120: a6db 46be 19e4 80ba e686 01bb 4072 b2ba
00000130: 3246 873b 26ad a2b9 2a0d 11bc fe51 363d
00000140: 04b2 2638 fddd 2bba 395b 96bb 1de7 6f3d
00000150: c2aa c138 28e7 243e 1a90 1dbb 4616 3d3e
00000160: 7b4e 123a 723b c5bd 3665 a3bd 8956 593b
00000170: b319 073e 3922 b23d 1761 23be 759e 083e
00000180: f261 dbb8 313c 1c3a 3beb 2d3a 083e c93b
00000190: 66e4 3c3e 68a3 bc38 ac6b c5bc 9afe 0ebe
000001a0: a19c a93d 7176 15b9 4dc7 d8be b2f4 0338
000001b0: bd8b 4e38 77db cdbb 43d5 0bba 60a0 013e
000001c0: 101c c3bd 9b72 4539 90fc cc3a 5b45 293e
000001d0: 7d21 893a 5a36 863b 3c19 f939 796f 273e
000001e0: f343 98b8 44e4 50ba 4ff5 02bb 83a1 cc3a
000001f0: e97c 853b 7d71 8c3d b96c f939 47e0 283a
-0.0004168809 -0.002430069 0.0042807227 0.00035796303 0.13586134 0.105973594 -0.045726873 -0.0019185807
0.0017808387 0.13020453 -0.00073791406 0.12528482 0.00034238416 -9.645283e-05 0.0010637243 0.2400628
-0.0008690865 -0.00038988728 0.0011550512 -0.17523369 -0.3118315 -0.0008766432 0.006197121 -0.0015837733
0.00016599939 0.001276978 -0.0012904316 -0.077460416 -0.15291272 -0.08634124 -0.044163708 0.1085815
0.1866915 0.0006896578 -0.116252124 0.0026655977 4.5529865e-07 -0.008507091 -0.00063653686 0.013298317
0.0001520888 -0.00032372036 -0.0016149506 -0.0015647317 -0.0901628 0.0005801416 -0.055632733 -0.1719477
-0.00044081826 9.733039e-05 0.10468416 0.0005261559 -0.00032882768 0.0021083413 0.06483038 0.0009787284
-1.4345854e-05 -0.00065410475 -0.0047881766 -0.0013232095 0.004231358 0.1222369 0.10696958 0.044406887
-0.03607933 -0.023185173 -0.32467654 -0.014724601 0.00067644485 -0.000276375 -0.000107835345 5.950139e-05
-0.19419727 -0.0009833603 -0.0019764244 -0.0013614371 0.004128241 -0.00031028053 -0.008853236 0.044511788
3.9743274e-05 -0.0006556211 -0.0045885113 0.058570016 9.234763e-05 0.16103804 -0.002404219 0.18465528
0.00055811525 -0.09630479 -0.07978289 0.0033163151 0.13193397 0.08697934 -0.15955006 0.13341697
-0.000104609775 0.0005959897 0.00066344783 0.006141428 0.18446502 8.994975e-05 -0.024099194 -0.1396431
0.08281828 -0.0001425387 -0.42339554 3.1460724e-05 4.924437e-05 -0.0062822658 -0.00053342077 0.12658834
-0.09526837 0.00018830078 0.0015639234 0.16530363 0.0010462251 0.0040958347 0.00047511782 0.16351117
-7.260581e-05 -0.00079685845 -0.001998264 0.0015612099 0.0040737283 0.06857584 0.00047573986 0.00064421113

value_fc1.weight f4 [64, 3]
00000000: bdce e03d 355c f6be 4f95 803b 66ef b73d
00000010: 4bb0 103f ed79 8d3d fd35 853f 0c2f b6bc
00000020: d636 c6be 0708 bb3f 4d72 d2bf bb61 01bf
00000030: 1ff5 f03e b947 70bf 579e 9f3e 45cd e23e
00000040: 8eae 2ebf 2e46 a0bd d514 6fbd 9748 3abf
00000050: 31f2 a03e bd2e bc3e bc1a e63d 0159 533d
00000060: fcbf a93d 77ee b63e 47b5 b03c b630 453f
00000070: 962d aebe 361b 37bf da2a 683d bd25 3dbd
00000080: cd09 59bb dc5b 883d f43c 3e3f 6972 79bd
00000090: e8ac 863f f5b5 fa3e c4a3 8c3e 1b90 143f
000000a0: facb 03bf a31b 04be 6141 85be 490d 79bf
000000b0: 7bac 763e 0e5a c33d 2a2c 41bf 4614 0f3d
000000c0: 0f4b 573f 49d7 a33e 7961 6f3e 83ca 66bf
000000d0: 1b77 b7be d07d 7cbe 4f57 65bf fb7f c4bd
000000e0: 7e2a 8bbe 4daa a8bf 0338 173f c643 d83e
000000f0: c44d 25bf d1c9 233f 0f6d 96be 3987 43bf
00000100: 7ca0 803f eaf3 16bf eaf8 99bf 750b 92be
00000110: 0da1 ad3e 7dc0 75bf 3de2 b6bf 5d4a a4be
00000120: ac92 803f 35de 993e 6016 8d3e b7a4 26be
00000130: e85e eb3e 7a02 25be c989 933f 108e 103d
00000140: d415 83be 8df7 a93f 01fd 53be 84d7 2f3e
00000150: 75b0 8d3f 89e4 39be fadc cbbe 88f1 a33d
00000160: b84a e63f ff9b cc3e 2d8b 833e 2966 5bbe
00000170: 1728 a7bc 885a bf3f 0369 a63e e076 d3bc
00000180: fb42 38be 845f 783e 1312 0d3c c7f9 70bf
00000190: a69d c33e 9916 a33e 2984 873e db3a b33e
000001a0: 4152 29bd 71b2 db3e e590 d73f 539f 893e
000001b0: 6945 9b3b 2079 a8be ba4e 003e 6799 59be
000001c0: c9b7 073f f6b2 de3b f9b2 54bf aa0c 493f
000001d0: 476e 573e d655 803f 98f5 af3e 5474 8b3e
000001e0: cec0 bcbe 0b52 4cbe 94e6 dc3e 553b ff3b
000001f0: e906 273e 4285 aa3b b424 bebe d087 d53f
00000200: d123 e53e c9f7 00bf 54e4 0bba b3b1 8cbc
00000210: 2e77 023f b8d3 74bf c7a1 cf3e c141 683f
00000220: 530f 70bc 9b2b b3be 9ca1 89bf 303e 853f
00000230: 76af 823e 1fe1 af3f d662 17be cd58 e5be
00000240: 83c4 9f3f 778a 023c eea6 76be 68ad 99bf
00000250: 3b37 a33e 2801 d63e 6cd2 833f fbc1 7dbf
00000260: 9277 abbe 55cb 013f a5e2 f93e a9bd d13d
00000270: ccef 463e ea97 b03d 4157 963a a07e db3e
00000280: 2928 0740 7b48 073f 3460 b5bf 1367 a3bf
00000290: dbf2 59bf e2d6 0b3f 1bf8 f23e cedf 8ebe
000002a0: ce60 06bf 4cfa b5be 4406 c0bd 5ca8 7cbf
000002b0: d369 ee3e 48bd ad3e 23e3 7d3f 9b36 39be
000002c0: ae4a ac3d 370f a03f cb93 0440 a8d9 d53e
000002d0: e41e 7b3f b1b1 823e 7709 343e 2aec de3e
000002e0: de64 46be 15b2 333e c941 993e aadf 7d3f
000002f0: a34a 53bf 47bd 963f d3db 01c0 a647 1ebf
0.10976932 -0.48117223 0.003924049 0.089812085 0.56519 0.06908021 1.0407101 -0.02223923
-0.38713712 1.4611825 -1.6441132 -0.5053975 0.47062013 -0.9385944 0.3117549 0.44297233
-0.682351 -0.07825886 -0.058369476 -0.72767013 0.31434777 0.36754408 0.11235568 0.051598553
0.08288571 0.3572881 0.021570815 0.7702745 -0.34019154 -0.71525896 0.05668149 -0.04617857
-0.0033117414 0.06658146 0.7431176 -0.060900126 1.0521517 0.48966947 0.27468693 0.5803239
-0.5148312 -0.12901168 -0.26026443 -0.97285897 0.24089234 0.09538661 -0.75458014 0.034931444
0.84098905 0.32000187 0.23377027 -0.9015276 -0.35833058 -0.24657369 -0.8958635 -0.09594723
-0.27180856 -1.3176972 0.5906984 0.42239207 -0.64571786 0.6397982 -0.2938008 -0.7637821
1.0048976 -0.58965933 -1.2029088 -0.28524366 0.33911934 -0.9599684 -1.4287792 -0.32087985
1.0044761 0.30052343 0.27556133 -0.16273771 0.45970845 -0.16114226 1.1526424 0.03529173
-0.2560259 1.3278672 -0.20701982 0.17172056 1.1069475 -0.18153585 -0.3981703 0.08005053
1.7991552 0.39962766 0.2569212 -0.2142569 -0.020404859 1.4949503 0.32501993 -0.02581352
-0.17994301 0.24255186 0.008610266 -0.9413113 0.38206214 0.31853178 0.26468018 0.3500584
-0.04133821 0.42909577 1.6841093 0.26879367 0.004738499 -0.3290491 0.12530032 -0.21249925
0.5301481 0.006796236 -0.8308559 0.7853495 0.21038161 1.0026195 0.3436706 0.2723719
-0.36865848 -0.19953172 0.43144667 0.0077890554 0.1631123 0.005203874 -0.37137377 1.6682072
0.44753888 -0.5037809 -0.0005336453 -0.017174577 0.50963104 -0.9563556 0.40553114 0.9072533
-0.014652091 -0.34994206 -1.0752444 1.0409603 0.2552449 1.3740577 -0.14783797 -0.44794312
1.2481846 0.007967583 -0.24087116 -1.2006044 0.31878075 0.41797757 1.0298591 -0.99124116
-0.33489662 0.50700885 0.4880573 0.10241253 0.19427413 0.08622725 0.0011470095 0.42870045
2.1118262 0.5284497 -1.4169984 -1.2765831 -0.85136193 0.5462476 0.47454914 -0.27905124
-0.5249146 -0.35542524 -0.09376195 -0.98694396 0.46565112 0.33933473 0.9917471 -0.18087237
0.084126815 1.2504643 2.0715206 0.4176762 0.9809401 0.25526193 0.17581736 0.43539554
-0.19374415 0.17548402 0.29933003 0.9916941 -0.8253576 1.1776513 -2.029042 -0.61828077

value_fc1.bias f4 [64]
00000000: b9d8 493f c0b7 563f 4974 43bf d639 1ebf
00000010: 30df 34bf 8160 4cbf 0422 85be 3eb0 71bf
00000020: 6d3a 883f 210a 9dbe 0762 73bf 1c20 30bf
00000030: 77ec 66bf a13c cabe 136a 76bf f223 4f3f
00000040: 4ee0 2cbf 75bd 313f 7918 663f a312 653f
00000050: 7f5b 293f a03f 55bf fdce 4c3f e0be fd3e
00000060: 0045 72bf 03f2 7b3f 696d aabe bd68 ae3e
00000070: e19e 48bd e9ba d13e e23e 84bf fc21 b3be
00000080: 845a 863f 46f6 173f 42cd 51bf 6996 533d
00000090: 6b8f 88bf dde5 67bf bbfb 063f ce89 72bf
000000a0: 5db3 aa3f ea61 7b3f 6c42 40be ddc8 28bf
000000b0: d307 3f3f 0e60 5bbf 6d1b ff3e 518c 58bf
000000c0: b31a 6fbe 21db 4b3f c304 ccbe 6c2f 4c3f
000000d0: 00bd 87bf 6f13 9a3e 3d27 1d3f 6447 8cbf
000000e0: f341 39bf e428 1e3f f133 0b3f 9dc8 edbe
000000f0: 5d26 b7be eddc 89bf b641 9fbe 659d a6be
0.7884632 0.8387413 -0.7634931 -0.61807 -0.7065306 -0.79834753 -0.26002514 -0.9440955
1.064283 -0.3067179 -0.9507145 -0.68798995 -0.90204567 -0.3949938 -0.96255606 0.80914223
-0.6752976 0.69429713 0.8988109 0.8948156 0.66155237 -0.8330021 0.8000334 0.4955969
-0.94636536 0.98416156 -0.33286598 0.34064284 -0.048979644 0.40962914 -1.033169 -0.34986866
1.0496373 0.5936016 -0.81953824 0.051657114 -1.0668768 -0.9058512 0.5272786 -0.94741523
1.3335987 0.9819628 -0.18775338 -0.65931493 0.74621314 -0.8569344 0.49825612 -0.84589106
-0.23350029 0.7963124 -0.39847383 0.7975986 -1.0604553 0.30092952 0.61388 -1.0959287
-0.72366256 0.61781144 0.5437613 -0.46442118 -0.35771456 -1.0770546 -0.3110482 -0.32541957

value_fc2.weight f4 [128, 64]
00000000: 06cc 68be 13ad b23d 1cb0 f5be a030 9a3f
00000010: 902e 023e f512 cb3e 42ef f8bd 1a50 32be
00000020: 4e18 c63d c2ca 983e 4872 9fbd 796d e6bd
00000030: 2caa 91be 7584 873f 86eb 613e f6b6 01be
00000040: 8271 213e 497d 29be b9ef 8a3e 63ab ebbe
00000050: 9d12 30be 7300 0bbe ba6d 413e ed2a 0abe
00000060: a611 c2be e851 9cbd aa75 933c 7561 013f
00000070: 87d4 d53e 4b9a 44bf 066c 3e3e 7c97 8f3d
00000080: 98f2 e53d 9cd0 f0be 50e8 9e3d b5b1 afbe
00000090: 2ca9 e13d 001c 573d 3e94 3abf e43b 9dbe
000000a0: cf8c b23e 8f9f f7bd c42e 8abf 164e 0fbe
000000b0: c72b 123b 5ff2 8b3e a4f9 38bf 1fdd 753e
000000c0: 8efb 21bf 4089 8c3d 7a25 633f 6a1f 8a3d
000000d0: c7ca abbd 91c9 33bf c576 98be 48e5 52be
000000e0: 29e0 5bbd 75ce f8be ca04 863e 5ed4 15be
000000f0: 1632 f03e 214f e1bb 7c39 583f c09a c13f
00000100: 3326 f33d 9753 cebe c255 273e f964 5abe
00000110: 0809 6cbd 08c6 003f 121f 303f 841d 0ebe
00000120: 3e9d c7be 5775 06be 242e 683e b276 20bf
00000130: 62f1 24bf ef56 013e 2f28 5f3e ccf1 0e3f
00000140: 19e2 02bf 5ba9 3d3f 0201 3d3e 98a6 b2be
00000150: d536 953e 9785 83bf 3a64 ccbe 9988 ae3f
00000160: ee84 74be 809b 69be 438d 1ebf d5ce 313c
00000170: 3e3a 09bf ce53 8bbf 7a6d 913e b62a 0dbf
00000180: b876 5fbe 0b9a 7cbc 4b7a 973d b4d1 c1bf
00000190: 82b7 9b3e 72e4 6ebd 3757 fdbe f0e4 fabe
000001a0: f094 083e edfd e3be da73 4c3e 45f7 7b3e
000001b0: cae8 6b3f d2e8 b03e c0d8 1abe be84 723f
000001c0: d1ca 3cbe 828c da3c 93d1 91be f366 e2be
000001d0: 0912 173e fd1e d3be d16f a33f d8c8 193c
000001e0: 2c6f bb3e 69c3 52bf 21b0 a5be c3aa 0ac0
000001f0: f08e 22bf 21ed 363e c626 ddbe 1bbb 2ebe
00000200: 9c7c c5bc 4eba c6bd 6b86 09be d7f8 c63f
00000210: be82 cd3d 5fe2 3b3c 0fbf dabe 4ca9 443e
00000220: e35b c2bd ea38 943e e136 3abd eac2 6a3e
00000230: 53af a13e 44b6 8a3f cf8d 4e3d 2783 65be
00000240: 4067 cc3e a09c a2be e834 8fbe c24e b7bf
00000250: fbaa 89be 29eb d23e 63bc c03c 751c 3fbe
00000260: 3479 b33e a015 18be 9da6 0c3f 06d6 92be
00000270: 5724 913e d1d0 f3bd b7e0 9e3d fc11 183f
00000280: 3c7b 18be 3e47 88bf 3e2d 1b3e 9a18 0f3d
00000290: 582c 2d3e 2c1d 1f3e fdae b9be 5cb8 db3e
000002a0: 7e02 acbe b107 3b3d 8d65 8dbf a982 143e
000002b0: 8fb5 1cbe 258d cd3e 0755 e3bd aeb2 c43d
000002c0: d681 3c3d 854c 4cbf d97d b93f 8c8e 5bbe
000002d0: 86ca 143e 18c9 07be 1b96 49bf b3b6 253e
000002e0: f18c fb3d b2f9 07bf 1519 84be 3516 323e
000002f0: c250 f73e f133 d33d 26ac 6e3e dc44 c83f
00000300: 209b 20bf 70c0 b93d 9348 22be 6d83 573f
00000310: 3231 1e3e e701 c5bd 52d4 2cbf 9230 a43e
00000320: ffbb ddbd 0911 f73e 7075 3a3e 2385 9f3f
00000330: 5458 973e 40b7 a13e b648 f33c a266 59bf
00000340: 83b2 b63e 5f2f 06bf dfed f7be 5ed8 00bf
00000350: ea97 a8be 0ca9 e73e a662 28be e160 02bf
00000360: 9ccf de3e 6914 65be dd18 363f 68f0 a7be
00000370: acda 473e 93da ffbe 3993 973d 18a5 ff3e
00000380: d058 65bd 8c09 e5be a8e2 423f 5684 55be
00000390: 0a47 563e 5fae 063f ca94 323f c642 843e
000003a0: 4add eebe d6db e7bd a122 2abf 5d34 fe3e
000003b0: 3ef9 3bbf 44ea 543f fd33 ad3e 45e5 c03e
000003c0: 8a49 ec3d 7951 61bf b808 a33e 88c3 66bd
000003d0: cbc8 8e3e f632 f6bd cd2d 6abf 5823 0c3f
000003e0: 2202 813e 70ca 1fbe 7cb8 f8be 5dde ad3e
000003f0: c211 f43e 3893 2e3e 3729 ff3e 53b7 933f
-0.22734079 0.087244175 -0.47985923 1.2046089 0.12713075 0.396629 -0.1215501 -0.17413369
0.096726045 0.29842192 -0.07785469 -0.11251349 -0.28450143 1.0587298 0.22062501 -0.1266745
0.15765956 -0.16551699 0.2713602 -0.46029195 -0.171946 -0.1357439 0.18889514 -0.13492937
-0.3790409 -0.0763281 0.018000443 0.5053933 0.41763708 -0.7679793 0.18595895 0.07011315
0.11227912 -0.47034156 0.07759154 -0.34315267 0.11018595 0.052516937 -0.7288245 -0.30709755
0.34873053 -0.1209098 -1.0795522 -0.13994631 0.0022303925 0.27333352 -0.7225592 0.24010132
-0.63274467 0.06862116 0.8872906 0.06744273 -0.08388286 -0.7022944 -0.29778114 -0.20595276
-0.053680573 -0.48595014 0.2617553 -0.14631793 0.46913213 -0.006875888 0.84462714 1.5125351
0.1187252 -0.4029815 0.16341308 -0.2132758 -0.0576258 0.5030217 0.6879741 -0.13878447
-0.38987154 -0.13130699 0.22673851 -0.62681115 -0.6443082 0.12630819 0.21792673 0.558377
-0.5112625 0.7408654 0.18457416 -0.34892726 0.29143396 -1.0275143 -0.39920217 1.3635436
-0.23878834 -0.22813225 -0.619343 0.010852535 -0.53604496 -1.088495 0.28403836 -0.55143297
-0.21822631 -0.015417586 0.073963724 -1.5142121 0.30413443 -0.05832333 -0.49480602 -0.4900279
0.13338065 -0.44529667 0.19966069 0.24606045 0.9215208 0.34552628 -0.15121746 0.947338
-0.18436743 0.026678327 -0.28480205 -0.4421917 0.14752974 -0.4123458 1.2768499 0.009386264
0.36608255 -0.8232942 -0.32360938 -2.1666725 -0.63499355 0.17863895 -0.43193644 -0.17063563
-0.02410727 -0.097035035 -0.13430183 1.554469 0.10034703 0.011467545 -0.4272389 0.19205207
-0.09490182 0.28949672 -0.045462493 0.22925916 0.31579074 1.0836873 0.050428208 -0.22413312
0.39922523 -0.3176012 -0.27970052 -1.432091 -0.2688826 0.41195038 0.02352733 -0.18663199
0.35053408 -0.14852 0.5494173 -0.28678912 0.28348038 -0.11905063 0.07757705 0.5940244
-0.1489076 -1.0646741 0.15153977 0.03493557 0.16911447 0.15538472 -0.36266318 0.42914093
-0.3359565 0.045661632 -1.1046616 0.14502968 -0.15303634 0.40146747 -0.11100202 0.09604393
0.04602226 -0.7980426 1.4491531 -0.21441096 0.14530382 -0.13260305 -0.7874467 0.16182975
0.12282742 -0.5311538 -0.25800386 0.17391284 0.483038 0.103126414 0.23307857 1.5646014
-0.627367 0.09069908 -0.15847997 0.84184915 0.15448454 -0.096195035 -0.67511475 0.32068306
-0.10826873 0.48255184 0.18208861 1.2462505 0.29559577 0.3158512 0.029697757 -0.8492223
0.3568307 -0.5241603 -0.4842367 -0.5033015 -0.329284 0.4524616 -0.16443881 -0.50929075
0.43517768 -0.22371067 0.7113169 -0.32800603 0.1951701 -0.49971446 0.07401127 0.49930644
-0.0559929 -0.44733846 0.761271 -0.20851263 0.20925537 0.5260982 0.69758284 0.25832194
-0.46653205 -0.11321227 -0.6645909 0.49649325 -0.7342719 0.8316996 0.33828726 0.3767492
0.11537464 -0.8801494 0.3184259 -0.056338817 0.27887568 -0.12021439 -0.91476136 0.5474143
0.2519694 -0.15604568 -0.4857825 0.33958712 0.47669798 0.17048347 0.49836132 1.1540321

value_fc2.bias f4 [128]
00000000: 0c49 f9bc fd51 1dbe 9d5e 593b bd34 73be
00000010: 75f9 8ebe b4e4 c3bd e2ab 1b3e dbc7 df3e
00000020: 642a a93e c431 aebe a745 c4bd 168f a3be
00000030: 38bc 7bbe 0040 0ebe 2ae2 4f3e 1afb 0c3f
00000040: d135 7a3e 5e8b 14bc 19c9 053e cfaf 7c3d
00000050: 253c ac3e 5217 1b3e 4fd4 723e 234b 64ba
00000060: f57f 42bd ce70 c8be 3888 413e 28c1 2e3e
00000070: bc72 72bc f66e 39be c58d 2bbc dfb0 963d
00000080: c0d1 8c3e eb77 603e c89e 853d e65f 8dbd
00000090: cbec c0be 6bbb 1b3e c01d 16bf 5812 abbe
000000a0: 37bc b23e d7cc f33d e9f4 733d 32d8 dabe
000000b0: fea5 3abe 1983 2dbe 30e6 96be 23d4 f6bd
000000c0: e158 0abe 3918 cf3e 60f7 81be 5b50 db3d
000000d0: b7b3 fa3d 429d a7be 2d7f 02bc 17b8 793e
000000e0: 4672 c439 3b57 8c3e 276c fb3d 4c3b 89bd
000000f0: c89d a6be 2ef3 8d3e 80c8 8d3e 5f4d a43e
00000100: 20d7 4b3e 4b30 a4be 5537 1fbe a427 76bd
00000110: 1e0d bc3c 6371 803e 3cc2 a8be 20fb c2be
00000120: f167 813e 6624 9d3e 702f d73e a4dc 9f3e
00000130: 4ab9 9ebe d767 2b3e 6f9b 9f3e 3e09 88be
00000140: 756f e1bd a428 93bd ca12 a73e 04b4 113f
00000150: 5f38 8ebb fdb4 cfbe 73f7 a93e 469b 603d
00000160: 5360 4a3e 0232 65bd a83e dd3e dc0f 80be
00000170: 00cd 403e 7cf3 6abe 3170 cc3e 35c0 533d
00000180: 3c3b 32be c004 42be d115 913e 32c9 a4be
00000190: 01a9 acbe 51bc 203b 6474 cbbe 6f38 82be
000001a0: 9dbf 8dbe 0383 5cbe 2e36 4abe e958 723e
000001b0: 3063 ddbe e9e1 88be 64f6 60bd 38c8 8b3e
000001c0: edc2 99be c837 913e 4977 49be d6f8 71be
000001d0: 492c 203e 4794 99be 70a7 4e3e 039a 00be
000001e0: 3131 5e3e 2135 8fbe 0fdc 77be d7b3 e6be
000001f0: c820 f53d 567e 81be 2207 1d3e 47d1 96bd
-0.03043034 -0.15363307 0.0033167966 -0.23750587 -0.27924696 -0.09565106 0.15202287 0.43707165
0.33040154 -0.34022343 -0.09583598 -0.31945103 -0.24583519 -0.13891602 0.20301118 0.5507065
0.24434592 -0.009066431 0.13064994 0.0616911 0.33639637 0.15145615 0.23713802 -0.0008708706
-0.04748531 -0.39148563 0.1889962 0.17065871 -0.014797863 -0.18108734 -0.010470812 0.07357954
0.27503777 0.21920745 0.06524426 -0.06903057 -0.3768066 0.15208213 -0.58639145 -0.33412433
0.34909222 0.119043045 0.059559736 -0.4274307 -0.18227383 -0.16944541 -0.29472494 -0.120521806
-0.13510467 0.40448168 -0.25384045 0.10708686 0.12241309 -0.32737166 -0.007964891 0.24386631
0.00037469174 0.27410302 0.12276488 -0.06700763 -0.32542253 0.27724594 0.27692032 0.3209028
0.19906282 -0.32068095 -0.15548451 -0.060096398 0.022955474 0.25086507 -0.3296069 -0.38082218
0.25274613 0.30691832 0.4202838 0.31223023 -0.3100074 0.1673883 0.31173274 -0.2656955
-0.11007587 -0.07185486 0.32631522 0.5691531 -0.004340216 -0.4056777 0.331966 0.05483558
0.19763307 -0.055955894 0.43211865 -0.250121 0.18828201 -0.22944444 0.39929345 0.051696975
-0.17405409 -0.18947124 0.28336957 -0.3218475 -0.3372269 0.0024526308 -0.39737236 -0.2543368
-0.27685252 -0.21534352 -0.1974723 0.23666729 -0.43239737 -0.26734856 -0.054922476 0.27301192
-0.3003153 0.2836287 -0.1967441 -0.2363008 0.15641893 -0.2999594 0.2018106 -0.12558751
0.21698453 -0.27970222 -0.2420504 -0.45059082 0.11969143 -0.252917 0.15334752 -0.07364135

value_fc3.weight f4 [1, 128]
00000000: 95f5 8f40 0ed7 8ec0 df06 9740 3794 9a40
00000010: bf01 a240 c1bc 9240 b4d4 89c0 c032 9bc0
00000020: e196 8ec0 7ed6 a0c0 0693 8940 5ba2 8540
00000030: bd2e 8940 2997 a140 9ac5 9bc0 f6a8 94c0
00000040: 5fc3 74c0 debd bac0 f283 93c0 4492 acc0
00000050: edfe 80c0 6eb9 90c0 5687 91c0 4f43 88c0
00000060: 571c a840 8a71 8340 0673 96c0 3345 88c0
00000070: f761 7840 43d9 7d40 d899 87c0 580b c1c0
00000080: a76b 80c0 1f65 99c0 885d b240 7d23 9c40
00000090: 68f6 9f40 875f 90c0 1f7e 98c0 47b9 9540
000000a0: 0b33 86c0 e5ed 96c0 9a68 a640 f864 9a40
000000b0: bdf5 8dc0 cff5 8c40 3449 7940 bec2 9cc0
000000c0: 7969 9540 7a17 9cc0 f0fb 9040 3c2f d0c0
000000d0: 692e 91c0 7c7b 8d40 c5b1 9a40 193d 8ec0
000000e0: 9c66 8d40 c35b 95c0 f2ec a0c0 455d b2c0
000000f0: fb5a 7940 db48 82c0 5b7f bd40 b878 83c0
00000100: 83b4 81c0 18f7 7ec0 dc7f 8840 add6 8540
00000110: 9822 86c0 c67d 9e40 7f86 9d40 4b8a 9540
00000120: 4894 aa40 4bf7 8ac0 de59 9540 744a 9640
00000130: 8cbc 7c40 049b 95c0 e730 8cc0 cbf1 7e40
00000140: 2647 9140 829c 9ec0 34db 7fc0 93ab 9b40
00000150: e444 c940 0743 a240 9a88 95c0 6953 9ec0
00000160: c554 8ac0 5148 a4c0 1ce8 bc40 f67f 9640
00000170: e966 87c0 ebd2 a7c0 5dc7 99c0 4de3 ab40
00000180: b9cd 8440 b43d 9940 831f 96c0 8b30 6e40
00000190: c010 8f40 d9ee d140 70a8 afc0 5260 9740
000001a0: c999 8ec0 0a12 8040 f2ed 89c0 f3d7 82c0
000001b0: e8b3 7240 c41f 99c0 5626 91c0 a515 c740
000001c0: 103e 8a40 3a0c 69c0 f84a 7e40 b2a1 9bc0
000001d0: c65c 8b40 2d40 aac0 5fed 85c0 aeea 8340
000001e0: 8416 8ac0 5e12 9640 6e07 8540 47ad 9c40
000001f0: 592c 87c0 000a 9540 76c5 94c0 ccce 9ac0
4.4987283 -4.463752 4.7195888 4.8305926 5.062713 4.5855412 -4.3072147 -4.849945
-4.455918 -5.026183 4.299197 4.176069 4.2869554 5.049702 -4.8678713 -4.645625
-3.8244245 -5.835677 -4.6098566 -5.3928547 -4.031119 -4.5226355 -4.5477705 -4.2582164
5.2534595 4.1076097 -4.701541 -4.258447 3.8809793 3.9663856 -4.2375298 -6.0326347
-4.013141 -4.793594 5.5739174 4.879332 4.998829 -4.511661 -4.7653956 4.678867
-4.193731 -4.71654 5.2002687 4.8248253 -4.4362473 4.405006 3.895093 -4.8987722
4.669125 -4.877866 4.530754 -6.505766 -4.5369153 4.421324 4.8342004 -4.444958
4.4187756 -4.6674514 -5.028924 -5.5738854 3.896178 -4.0713935 5.9217963 -4.108486
-4.053285 -3.9838314 4.265608 4.1824555 -4.191723 4.952853 4.922668 4.6731315
5.3306007 -4.342687 4.66722 4.6965885 3.949008 -4.675173 -4.3809695 3.9835079
4.539935 -4.956605 -3.997754 4.864694 6.2896595 5.070682 -4.672925 -4.947682
-4.322848 -5.1338277 5.9033337 4.70312 -4.2313123 -5.244497 -4.8055863 5.3714967
4.1501126 4.788782 -4.6913466 3.7217128 4.4707947 6.560406 -5.489311 4.730508
-4.4562726 4.002202 -4.310296 -4.088861 3.7922306 -4.7851276 -4.5359297 6.221392
4.320076 -3.6413713 3.9733257 -4.863488 4.355075 -5.320334 -4.185226 4.1223974
-4.3152485 4.689742 4.157157 4.896152 -4.2241635 4.6574707 -4.649104 -4.8377438
