bipedalwalk/Pendulum-v0/lr_0.0002/coeff_entropy_0.0001/batch_size_64/horizon_2048/policy.pth (torch_old, 71478 bytes, 10 tensors)

act_fc1.weight f4 [64, 3]
0.31426206 0.40045953 0.2235114 0.024870098 -0.1412677 -0.4022308 0.31931797 -0.5519437
0.19203675 -0.3115457 0.06850095 0.30499542 0.18218671 0.16617082 -0.63181865 -0.21966879
0.30266047 -0.18558697 -0.5440509 -0.30416584 0.13151814 0.40090588 0.42423818 0.14310221
0.42015818 -0.14442441 -0.3564377 0.3587176 -0.36241987 -0.10779444 -0.3443119 -0.4580759
0.21952724 -0.307473 0.426273 -0.37448376 0.25652957 0.553851 0.06266613 -0.51610273
0.36964247 -0.10002081 -0.08474804 0.5794467 -0.065886505 -0.44786456 -0.53497785 0.42010704
0.25743845 0.47729012 0.24280201 0.5491819 0.2673628 -0.20429736 -0.4103665 0.32986793
-0.059448887 -0.19949542 -0.54832876 -0.3054988 0.51056767 -0.5669759 -0.43878272 0.038016014
-0.30498335 0.36100617 0.30653647 0.2779338 0.096556336 -0.16779071 0.08435674 -0.6614302
0.4414745 0.47432193 -0.18518497 -0.52221996 -0.24703485 0.51660585 0.042903118 0.12851149
-0.121043794 0.10251923 0.048829813 0.07106222 -0.4207746 0.19827028 -0.20571637 -0.3919924
-0.6495141 -0.42888576 -0.06552909 -0.12607981 -0.2188774 0.5856204 0.24505787 -0.3448328
-0.34597957 0.044780876 0.28704327 -0.015811922 0.028303323 0.6198401 0.43601853 -0.6144682
0.13170981 0.028812056 -0.15460949 0.045691155 -0.42967594 -0.29924446 -0.58257353 -0.18016881
-0.47947663 -0.3553682 -0.3324891 0.582133 0.32402316 -0.39628014 0.11155955 0.23756263
-0.22832142 0.5554901 0.16175394 0.44581798 0.27730656 -0.15988918 0.39895067 -0.27782196
0.6565389 -0.27548382 0.15183604 -0.6067908 -0.53800565 -0.006158417 -0.5895629 0.39247042
0.3425144 -0.5648799 0.4370279 -0.5011622 0.45003542 -0.13002335 0.21438129 -0.52603346
0.21106572 -0.44172075 -0.13659821 -0.37070194 -0.57218665 0.26674932 0.059816908 0.55218387
0.1505071 -0.4366911 0.21487164 -0.60927016 -0.07295962 0.1641452 0.42376265 -0.19980365
-0.27360255 -0.4775338 -0.15529656 0.07997965 0.14509033 -0.11630473 -0.07890347 0.52750003
-0.49555227 -0.12811957 0.26357725 0.48267493 0.34363478 0.29934338 0.03996535 -0.03394789
-0.20147397 -0.5822397 -0.09394047 -0.28869614 0.37389702 -0.12152834 -0.46836966 0.32168287
-0.18092604 0.58384657 -0.47154894 0.15179019 -0.34428734 0.51994956 -0.015677106 0.16562553
00000000: f5e6 a03e 0809 cd3e 2ce0 643e 60bc cb3c
00000010: 7ba8 10be 32f1 cdbe a57d a33e 2f4c 0dbf
00000020: 48a5 443e eb82 9fbe 3a4a 8c3d 5c28 9c3e
00000030: 278f 3a3e af28 2a3e debe 21bf dbf0 60be
00000040: 50f6 9a3e 830a 3ebe eb46 0bbf a0bb 9bbe
00000050: b1ac 063e 8943 cd3e bf35 d93e 6389 123e
00000060: f91e d73e fee3 13be 017f b6be d5a9 b73e
00000070: 198f b9be 55c3 dcbd a649 b0be ed88 eabe
00000080: c0cb 603e 1a6d 9dbe 7440 da3e 56bc bfbe
00000090: d857 833e 2ec9 0d3f 1a57 803d 4f1f 04bf
000000a0: c741 bd3e b6d7 ccbd 6190 adbd 9e56 143f
000000b0: 81ef 86bd 814e e5be 4ff4 08bf 4518 d73e
000000c0: f9ce 833e 5f5f f43e 17a1 783e 2f97 0c3f
000000d0: c7e3 883e 5433 51be 8f1b d2be 73e4 a83e
000000e0: ad80 73bd 8748 4cbe 465f 0cbf 576a 9cbe
000000f0: 90b4 023f 5525 11bf 21a8 e0be aeb6 1b3d
00000100: c726 9cbe cdd5 b83e 59f2 9c3e 574d 8e3e
00000110: 54bf c53d 54d1 2bbe 3ac3 ac3d 7d53 29bf
00000120: f208 e23e 53da f23e 21a1 3dbe 35b0 05bf
00000130: b4f6 7cbe 4840 043f 2ebb 2f3d 8498 033e
00000140: cfe5 f7bd 9af5 d13d c501 483d 1289 913d
00000150: c56f d7be 5d07 4b3e 50a7 52be 3ab3 c8be
00000160: 8e46 26bf ea96 dbbe 1e34 86bd 111b 01be
00000170: 6621 60be 38eb 153f 73f0 7a3e ed8d b0be
00000180: 3c24 b1be 276c 373d 56f7 923e 0188 81bc
00000190: 5fdc e73c d7ad 1e3f d23d df3e ca4d 1dbf
000001a0: f0de 063e 4307 ec3c f351 1ebe a626 3b3d
000001b0: 7cfe dbbe 9236 99be 8a23 15bf 2c7e 38be
000001c0: f67d f5be d2f2 b5be 033c aabe ab06 153f
000001d0: 5de6 a53e 3be5 cabe 5579 e43d 9e43 733e
000001e0: 17cd 69be 9934 0e3f d3a2 253e 4142 e43e
000001f0: 20fb 8d3e fdb9 23be 4343 cc3e ae3e 8ebe
00000200: ef12 283f 370c 8dbe e87a 1b3e a456 1bbf
00000210: bdba 09bf 8ccc c9bb 98ed 16bf e2f1 c83e
00000220: 0c5e af3e f89b 10bf 1fc2 df3e 2a4c 00bf
00000230: 0b6b e63e d724 05be c586 5b3e 21aa 06bf
00000240: 9d21 583e 3929 e2be 67e0 0bbe a5cc bdbe
00000250: d37a 12bf 5e93 883e 9302 753d ec5b 0d3f
00000260: 891e 1a3e fa95 dfbe 5007 5c3e 21f9 1bbf
00000270: da6b 95bd ae15 283e 6bf7 d83e 5499 4cbe
00000280: a215 8cbe 4f7f f4be 1006 1fbe 5fcc a33d
00000290: 8f92 143e 2d31 eebd 2498 a1bd 3e0a 073f
000002a0: 07b9 fdbe c731 03be 99f3 863e 2b21 f73e
000002b0: e6f0 af3e 8943 993e b5b2 233d f10c 0bbd
000002c0: 314f 4ebe a90d 15bf dc63 c0bd fbcf 93be
000002d0: 6e6f bf3e dae3 f8bd 26ce efbe 9eb3 a43e
000002e0: ad44 39be f876 153f dd6e f1be e36e 1b3e
000002f0: 6e46 b0be 6a1b 053f 466d 80bc bd99 293e

act_fc1.bias f4 [64]
-0.40132678 -0.47530338 0.19618985 0.012720602 -0.042163152 -0.02599786 0.31865922 -0.13447353
0.5227714 0.5056346 -0.24532688 0.5172744 0.4919555 0.26263046 -0.068581164 -0.508935
-0.23934965 -0.5478547 -0.4408518 -0.37111405 -0.5311772 0.47189355 0.38676757 -0.20520876
0.18155886 -0.3473526 -0.4299195 -0.21424307 0.5512176 -0.3069769 -0.47032443 0.34621984
0.5970685 0.32187244 0.3412412 0.2663945 -0.26271108 -0.48066747 0.18937479 0.5458918
0.13530153 -0.07357132 0.035614304 -0.01426833 -0.20220491 0.41405392 -0.35398543 0.12582602
-0.06341759 -0.13526018 -0.4225227 -0.46938866 0.5020611 -0.32280794 -0.065561935 -0.44031098
-0.19763045 -0.38879555 0.1786404 -0.14576724 -0.4468363 0.34593886 -0.54939216 0.047591068
00000000: b47a cdbe f75a f3be fee5 483e 126a 503c
00000010: 45b3 2cbd 77f9 d4bc 4d27 a33e 6eb3 09be
00000020: 59d4 053f 4571 013f f836 7bbe 186c 043f
00000030: 97e1 fb3e 8077 863e 4874 8cbd 9049 02bf
00000040: 1318 75be 3540 0cbf 54b7 e1be a902 bebe
00000050: 3bfb 07bf 089c f13e 6606 c63e 3f22 52be
00000060: 91ea 393e 33d8 b1be 691e dcbe 8962 5bbe
00000070: 991c 0d3f 142c 9dbe 5dce f0be ba43 b13e
00000080: 7bd9 183f 77cc a43e 2bb7 ae3e dc64 883e
00000090: 1182 86be 0c1a f6be 77eb 413e 91bf 0b3f
000000a0: 7c8c 0a3e 8fac 96bd 4ee0 113d b7c5 69bc
000000b0: ce0e 4fbe e0fe d33e 943d b5be 89d8 003e
000000c0: 15e1 81bd a581 0abe e554 d8be b653 f0be
000000d0: 1487 003f 1547 a5be 5645 86bd 7170 e1be
000000e0: a35f 4abe 3610 c7be 82ed 363e 0244 15be
000000f0: bac7 e4be e61e b13e f7a4 0cbf daee 423d

act_fc2.weight f4 [128, 64]
0.03285101 -0.03311954 0.04379971 -0.11471189 0.2377159 0.063606955 -0.057149462 -0.021808017
-0.054802667 0.092494875 -0.18880002 0.057777945 -0.01234598 0.057288133 0.14622772 -0.14169665
-0.046527203 0.15431961 -0.022165248 0.08738611 0.078386754 -0.20086002 -0.06358097 0.23143896
-0.037735555 -0.02098105 0.016538516 0.09545486 0.09879599 0.10893094 0.092109546 0.14918905
-0.110561214 -0.23606464 -0.1730924 -0.026888201 0.1931802 0.021462372 -0.16600251 -0.12809967
0.096320555 -0.020972801 -0.06332316 0.19070405 -0.012816493 0.08972076 -0.11965909 -0.031577326
-0.045074113 0.01576683 -0.00032143138 0.21649319 -0.06713766 0.17878845 -0.107078455 -0.11964389
0.028193148 0.00773635 0.12849098 0.038823474 0.11497244 -0.13828711 0.21730517 -0.06169184
-0.021302192 0.10978087 0.11835395 -0.022705868 0.043906633 -0.029132916 0.0958485 0.012435618
0.017718498 -0.035017528 -0.054017626 0.043907218 -0.056097697 -0.16190632 -0.009691571 -0.11780205
0.060029093 0.053525116 -0.045034625 0.009173078 -0.0011314884 -0.037635494 -0.11785926 0.115173645
-0.0034986471 -0.10193778 -0.0905012 0.050113145 0.053833768 0.096664466 -0.11659166 -0.06584969
0.09080905 0.034339678 0.054180365 0.04308405 0.091045216 0.07722353 0.038419764 0.024105063
0.021549908 0.008991716 -0.045109585 -0.079881825 -0.024396962 0.08731309 -0.09268632 -0.08241899
0.05842871 -0.078786656 -0.035075285 -0.065177776 0.12551446 -0.05660159 -0.06726438 -0.07314169
0.035948396 0.06665565 0.039925773 0.060090967 -0.06278131 0.09682846 -0.116088994 0.09546313
-0.013186786 0.015424043 0.057229254 -0.059599426 -0.0056285956 -0.07609984 0.007947936 -0.11070714
0.04055586 0.07327734 0.087419264 0.09015941 0.08130253 0.060261436 0.032052536 0.056512263
-0.04608342 -0.083391085 -0.06453128 -0.073764004 0.1416856 0.03146385 -0.0013530769 0.059791677
0.0018595569 0.09526477 -0.06826589 -0.12582228 0.06815292 0.07421996 -0.02754134 -0.019301465
-0.055348158 0.12877537 0.022729712 -0.08121329 -0.027985126 0.021420782 0.033298697 -0.15827534
-0.13568024 0.09552235 0.012339989 0.058216553 0.024323262 -0.11950781 0.07429872 0.032882616
-0.0019886454 0.015359029 -0.08264611 0.08960972 0.07209435 0.10307828 0.0065557235 0.030183056
0.08073901 -0.023504041 0.02908209 -0.033733398 -0.101211525 0.069305405 -0.13658221 -0.08947931
0.18126304 -0.06728238 -0.06421789 -0.037703846 -0.04406587 -0.11228462 -0.115082845 0.19242541
-0.019012706 -0.031457037 0.033389576 0.050772972 0.037100196 -0.16700442 -0.09320862 -0.077045314
0.009371748 -0.035207737 -0.10637212 0.0842483 -0.10048568 0.0038339575 -0.07345313 0.12255616
0.09093925 -0.05125107 -0.009646695 0.13384423 -0.011615508 0.070086375 0.086675525 0.13376813
0.094016604 0.09434919 0.12712999 0.0057985047 -0.030125432 0.049883056 0.02088054 0.07450617
0.010794299 0.09452622 -0.11206126 0.07373687 -0.05319079 -0.05468917 0.055369113 0.11433745
-0.13486788 0.11034214 0.013441293 0.096228495 -0.111634105 -0.11450681 -0.04983812 0.0038392483
0.015775213 0.17476395 0.028572207 0.09628858 0.08922425 -0.05717017 0.016732428 0.10970544
00000000: c88e 063d 5ba8 07bd 5367 333d 11ee eabd
00000010: cc6b 733e 5d44 823d 8e15 6abd baa6 b2bc
00000020: c378 60bd f46d bd3d cb54 41be 91a8 6c3d
00000030: cb46 4abc f6a6 6a3d b8bc 153e ed18 11be
00000040: 4f93 3ebd f605 1e3e e593 b5bc 7df7 b23d
00000050: 3c89 a03d 40ae 4dbe bd36 82bd 56fe 6c3e
00000060: 9990 1abd 73e0 abbc c87b 873c d67d c33d
00000070: 8d55 ca3d 2f17 df3d eea3 bc3d 04c5 183e
00000080: eb6d e2bd eeba 71be 223f 31be a544 dcbc
00000090: 08d1 453e dbd1 af3c 90fc 29be 8f2c 03be
000000a0: b643 c53d 27cf abbc 93af 81bd ec47 433e
000000b0: 45fc 51bc 85bf b73d d30f f5bd 3a57 01bd
000000c0: a29f 38bd 7029 813c ca85 a8b9 64b0 5d3e
000000d0: 787f 89bd 5214 373e f34b dbbd db07 f5bd
000000e0: 51f5 e63c 3581 fd3b 2493 033e 5d05 1f3d
000000f0: ac76 eb3d 239b 0dbe 3f85 5e3e 95b0 7cbd
00000100: ef81 aebc cbd4 e03d 8e63 f23d a801 babc
00000110: 71d7 333d 27a8 eebc 384c c43d c3be 4b3c
00000120: 6226 913c 8a6e 0fbd 9641 5dbd 0ed8 333d
00000130: b3c6 65bd c5ca 25be 65c9 1ebc 3442 f1bd
00000140: 11e1 753d 273d 5b3d 3a76 38bd ae4a 163c
00000150: 734e 94ba ad27 1abd 3260 f1bd 29e0 eb3d
00000160: 8f49 65bb c1c4 d0bd b158 b9bd 7143 4d3d
00000170: cc80 5c3d 05f8 c53d 9cc7 eebd 34dc 86bd
00000180: 18fa b93d c3a7 0c3d 3bec 5d3d e778 303d
00000190: ea75 ba3d 5f27 9e3d 0b5e 1d3d fb77 c53c
000001a0: 6f89 b03c fe51 133c d4c4 38bd 1599 a3bd
000001b0: 23dc c7bc 35d1 b23d 53d2 bdbd 4acb a8bd
000001c0: f152 6f3d e65a a1bd 1aab 0fbd ed7b 85bd
000001d0: dd86 003e 12d7 67bd e8c1 89bd 4fcb 95bd
000001e0: a03e 133d c282 883d 3589 233d f221 763d
000001f0: 7d93 80bd 004e c63d 11c0 edbd 2c82 c33d
00000200: 640d 58bc 20b5 7c3c 3969 6a3d 871e 74bd
00000210: 1570 b8bb 3cda 9bbd 0f38 023c 6dba e2bd
00000220: e71d 263d 6e12 963d df08 b33d 7fa5 b83d
00000230: f181 a63d b2d4 763d 8549 033d 6779 673d
00000240: f8c1 3cbd f2c8 aabd fa28 84bd 9511 97bd
00000250: 0816 113e 3de0 003d ba59 b1ba 1ee8 743d
00000260: 60bc f33a 2d1a c33d fdce 8bbd 8ed7 00be
00000270: c293 8b3d a200 983d 609e e1bc 1b1e 9ebc
00000280: c0b4 62bd b1dd 033e a933 ba3c 2753 a6bd
00000290: 1041 e5bc a37a af3c 3764 083d ee12 22be
000002a0: c3ef 0abe 39a1 c33d aa2d 4a3c 7b74 6e3d
000002b0: 9441 c73c 83c0 f4bd ed29 983d ecaf 063d
000002c0: ef53 02bb 70a4 7b3c 5d42 a9bd 4d85 b73d
000002d0: 34a6 933d b51a d33d 65d1 d63b 7542 f73c
000002e0: 7e5a a53d 8c8b c0bc 903d ee3c 082c 0abd
000002f0: fd47 cfbd feef 8d3d 35dc 0bbe ee40 b7bd
00000300: 059d 393e 58cb 89bd ab84 83bd 596f 1abd
00000310: 6a7e 34bd 7bf5 e5bd 8eb0 ebbd 2b0b 453e
00000320: 89c0 9bbc 18d9 00bd 82c3 083d 52f7 4f3d
00000330: 60f6 173d 3503 2bbe 29e4 bebd efc9 9dbd
00000340: f68b 193c fd35 10bd a0d9 d9bd 5f8a ac3d
00000350: 70cb cdbd 2243 7b3b 986e 96bd b9fe fa3d
00000360: 5c3e ba3d a4ec 51bd 2c0d 1ebc 760e 093e
00000370: f94e 3ebc 7289 8f3d f082 b13d 83fa 083e
00000380: c78b c03d 263a c13d 5d2e 023e 6201 be3b
00000390: 9cc9 f6bc 2d52 4c3d ab0d ab3c b196 983d
000003a0: 92da 303c f696 c13d 6080 e5bd 5b03 973d
000003b0: 96de 59bd c001 60bd b9ca 623d c129 ea3d
000003c0: ce1a 0abe 0ffb e13d de38 5c3c 7213 c53d
000003d0: 6ca0 e4bd 8c82 eabd 0e23 4cbd e69b 7b3b
000003e0: 053b 813c 52f5 323e 4310 ea3c f232 c53d
000003f0: 34bb b63d 452b 6abd 7212 893c 3fad e03d

act_fc2.bias f4 [128]
-0.12971707 -0.04555661 -0.06089766 0.08248142 -0.04979016 -0.09100863 0.004063229 -0.086303376
-0.0507901 0.13880429 0.12161028 -0.08537986 0.032086298 0.002760747 -0.0027686511 0.077178486
0.00296016 0.07478208 -0.010215853 0.005551039 -0.0032054381 -0.03582697 -0.12850924 0.051914252
-0.07417144 -0.0072590006 0.13769837 0.0018770801 -0.042762164 -0.123695865 0.102854244 -0.08538037
0.11642298 -0.10322242 -0.08285823 0.020033197 0.06844237 -0.0053993734 0.0024519379 0.07359991
0.08433309 0.060390834 0.07175107 0.028879689 -0.10976664 -0.08102177 0.13676602 -0.13611878
-0.036960226 -0.07633255 -0.011904392 0.027618509 0.064491056 0.067845285 0.076308146 -0.0779052
-0.019382017 -0.0673975 -0.111694366 0.096473135 -0.108025745 0.007852883 -0.11917765 0.12986784
0.12043996 0.1311222 -0.03159558 0.10579065 0.051051762 0.022870963 -0.13466828 0.05994044
-0.13487485 -0.01945737 0.10842115 -0.07575288 0.048221257 -0.081498034 0.002961288 0.08356215
-0.054164305 0.0012177231 0.11078236 -0.081392236 0.10486722 -0.100940935 -0.095841266 -0.12677307
0.115417294 -0.0775481 -0.020115983 0.028642317 -0.031275965 0.07440934 0.08592045 0.07572245
0.062959634 0.09593026 0.0685209 0.050453726 0.1321518 0.027739337 0.020545045 -0.048284203
-0.054163747 -0.08477427 0.023688154 0.034081064 0.074024454 0.10352309 -0.13719015 0.0044739954
0.034015886 0.07708448 0.10844505 -0.020537449 -0.07560035 -0.071448125 -0.043037653 -0.06480181
-0.048511554 0.04236042 0.099875525 0.14951864 0.07423624 0.028384522 0.1087353 0.11085654
00000000: 8dd4 04be 9199 3abd d36f 79bd 05ec a83d
00000010: c4f0 4bbd bc62 babd d624 853b d3bf b0bd
00000020: 4809 50bd b622 0e3e cf0e f93d a3db aebd
00000030: ec6c 033d a6ed 343b 4272 35bb c10f 9e3d
00000040: 3eff 413b 5927 993d 6560 27bc 7de5 b53b
00000050: 5412 52bb 4dbf 12bd ed97 03be 0aa4 543d
00000060: 32e7 97bd e9dc edbb cd00 0d3e 5b08 f63a
00000070: 6127 2fbd 4254 fdbd 3fa5 d23d e7db aebd
00000080: 2c6f ee3d 4766 d3bd 93b1 a9bd a91c a43c
00000090: 832b 8c3d 3aed b0bb b1b0 203b 8dbb 963d
000000a0: d4b6 ac3d 615c 773d 3af2 923d 1995 ec3c
000000b0: 55cd e0bd beee a5bd 640c 0c3e b962 0bbe
000000c0: 9b63 17bd 3d54 9cbd a40a 43bc 3640 e23c
000000d0: e313 843d 78f2 8a3d 7247 9c3d c38c 9fbd
000000e0: 09c7 9ebc b307 8abd 04c0 e4bd b593 c53d
000000f0: 9a3c ddbd 61a9 003c 6913 f4bd 13fc 043e
00000100: 3aa9 f63d e644 063e 5e6a 01bd c5a8 d83d
00000110: a71b 513d e35b bb3c 7be6 09be 1b84 753d
00000120: a21c 0abe 1065 9fbc e80b de3d 5324 9bbd
00000130: a783 453d 71e8 a6bd 2b12 423b a222 ab3d
00000140: 64db 5dbd 029c 9f3a dde1 e23d f9b0 a6bd
00000150: a0c4 d63d 1fba cebd 6d48 c4bd cdd0 01be
00000160: e75f ec3d 8ad1 9ebd 46ca a4bc 4ba3 ea3c
00000170: 3a1b 00bd ed63 983d 10f7 af3d 5f14 9b3d
00000180: fbf0 803d 1677 c43d b054 8c3d 91a8 4e3d
00000190: cd52 073e 9b3d e33c 154e a83c a8c5 45bd
000001a0: ceda 5dbd 229e adbd a90d c23c 9698 0b3d
000001b0: 229a 973d ea03 d43d 937b 0cbe 989a 923b
000001c0: 3e54 0b3d 78de 9d3d 7018 de3d 273e a8bc
000001d0: 5bd4 9abd 6553 92bd 4048 30bd d0b6 84bd
000001e0: 0db4 46bd 1f82 2d3d 8a8b cc3d 6a1b 193e
000001f0: 2b09 983d a886 e83c 9db0 de3d c108 e33d

mu.weight f4 [1, 128]
-0.05167429 -0.008897679 0.029985435 -0.05818894 -0.00012711695 0.020610249 0.039434776 0.017235175
0.016454473 -0.015059974 -0.034554284 0.016985605 -0.047221437 -0.024418576 -0.012762412 0.04565083
0.0061012255 0.060762372 -0.018849608 -0.00045338235 0.029554792 0.040063214 -0.036635656 -0.014185394
-0.0126241995 -0.0017049769 0.07661039 0.009941757 0.05289297 -0.01861774 0.036634218 0.0016550199
0.049474426 0.008897965 0.053289127 -0.0010359874 0.05077807 0.011252923 0.0006017382 0.03135535
0.008986499 -0.00896273 0.0020376223 0.0015802026 0.043287832 0.04068563 -0.0026412834 -0.012124078
-0.002403776 0.040943317 -0.023224669 0.032145415 -0.007738593 0.0014565226 -0.003339748 -0.010699859
-0.04495442 0.04566317 -0.010755873 0.013153232 -0.005679054 -0.029562423 -0.031925227 0.004070131
0.047893558 0.013135084 -0.017878234 0.039491706 -0.021056546 0.003010458 -0.10601818 0.038585644
-0.02597954 -0.034806844 -0.031034745 -0.0014156384 0.016256709 0.0018711378 0.014067278 0.0042782864
-0.07197442 0.0010388998 0.009283484 0.013684793 0.03221289 -0.0055000028 -0.004687081 -0.055940177
0.05040242 -0.018067876 0.04084797 0.0024475527 -0.041043304 0.0071698837 0.01914856 -0.0290129
0.0141574275 0.0029782676 0.0058126193 0.042203896 -0.0015649156 0.09033111 0.02422422 0.05099808
0.0003758466 -0.07288945 -0.01751307 0.027696127 -0.062393345 -0.030036954 -0.043739807 -0.052660983
0.032963533 0.0075458926 -0.037258 -0.023015512 0.03982837 -0.03988297 -0.010574424 0.02597017
-0.002011683 0.011694618 0.018281275 -0.035096396 0.010038014 0.034734216 0.06435536 -0.0066225887
00000000: 6ca8 53bd 92c7 11bc 04a4 f53c 8757 6ebd
00000010: b24a 05b9 d3d6 a83c 5c86 213d c830 8d3c
00000020: 88cb 863c 1cbe 76bc cb88 0dbd 6525 8b3c
00000030: 446b 41bd 7709 c8bc 7019 51bc 5dfc 3a3d
00000040: caec c73b f7e1 783d 7e6a 9abc f3b3 edb9
00000050: e41c f23c 5319 243d 450f 16bd db69 68bc
00000060: bbd5 4ebc 8879 dfba e8e5 9c3d c0e2 223c
00000070: 4da6 583d 3b84 98bc c30d 163d 41ed d83a
00000080: b2a5 4a3d c5c8 113c b345 5a3d f8c9 87ba
00000090: aafc 4f3d 2e5e 383c f8bd 1d3a 786e 003d
000000a0: 1c3c 133c 6ad8 12bc a189 053b cd1e cf3a
000000b0: 954e 313d faa5 263d 6219 2dbb 12a4 46bc
000000c0: ab88 1dbb 2eb4 273d a941 bebc e9aa 033d
000000d0: 0694 fdbb cae8 be3a acdf 5abb 764e 2fbc
000000e0: 2022 38bd 4e09 3b3d 6739 30bc a780 573c
000000f0: 5c17 babb e52c f2bc 07c4 02bd bc5e 853b
00000100: 092c 443d 8934 573c 6075 92bc 0ec2 213d
00000110: c77e acbc 1b4b 453b 0f20 d9bd fb0b 1e3d
00000120: 0bd3 d4bc 9f91 0ebd 943c febc f18c b9ba
00000130: ca2c 853c f740 f53a 717a 663c de30 8c3b
00000140: 5367 93bd b12b 883a c119 183c 2f36 603c
00000150: aaf1 033d 5e39 b4bb 1696 99bb 8721 65bd
00000160: c572 4e3d 1503 94bc 3350 273d 1f67 203b
00000170: 061d 28bd 58f1 ea3b 71dd 9c3c 76ac edbc
00000180: 8ef4 673c 0a2f 433b c977 be3b fedd 2c3d
00000190: db1d cdba 84ff b83d df71 c63c 5de3 503d
000001a0: 470d c539 1047 95bd 9277 8fbc fde2 e23c
000001b0: 2a90 7fbd 0f10 f6bc 8328 33bd 0bb3 57bd
000001c0: c504 073d 8943 f73b d89b 18bd 078b bcbc
000001d0: 1323 233d 535c 23bd 5940 2dbc 65bf d43c
000001e0: 71d6 03bb c89a 3f3c 9dc2 953c 3dc1 0fbd
000001f0: 7b76 243c 7745 0e3d becc 833d 4d02 d9bb

value_fc1.weight f4 [64, 3]
0.19339392 0.0037577166 0.14389698 0.05192766 0.032255374 0.13255957 -0.068655364 0.2970819
-0.112732045 -0.00060568145 -0.056534804 -0.07973888 0.34130833 0.17673227 0.010341669 0.52047247
-0.05586656 0.054837618 0.08193053 -0.3796284 -0.17595087 -0.38936457 -0.09469841 -0.018443758
0.35890907 0.14106622 0.059214383 -0.3834665 -0.13642389 0.09073522 -0.05637416 0.13903806
-0.07791513 -0.10088213 -0.24687468 0.24228689 -0.2537007 -0.11356068 0.2200363 0.015233519
-0.03496653 0.095011786 0.51181334 0.17503014 0.035766978 0.55379003 -0.18486574 0.17244096
0.20003635 -0.1143069 -0.015892979 -0.080133475 -0.24238345 0.19569501 0.5467544 0.09907598
0.025968775 -0.31652948 -0.08555268 -0.06946284 0.75618607 -0.1695174 -0.009658521 0.1748315
0.41725472 -0.23023538 -0.8118124 0.38206553 0.27137798 -0.7073125 0.3009826 -0.02387129
0.030213311 -0.21711034 0.12899347 0.73504025 -0.116049886 0.034486424 -0.41303104 -0.19546853
-0.09883983 0.40001374 0.12821259 -0.27895886 0.7893764 -0.21134917 -0.2661696 -0.09550266
-0.101431794 0.15653048 0.05868437 0.12992965 -0.16006252 0.19767508 -0.07073239 -0.072376095
-0.18355893 0.06959685 0.5558278 0.49039283 0.04138548 0.06072461 -0.34724474 -0.17983995
0.101448484 -0.13603784 -0.13340557 -0.058362007 0.07908986 -0.2761082 0.0060921926 0.55901784
0.009772314 0.036727563 -0.14985545 0.1887291 0.13194183 -0.12687372 -0.0005733771 0.059049916
0.43453848 -0.10242758 -0.19569279 0.02704915 -0.036018707 0.07926826 -0.042901397 -0.33655295
0.11368134 -0.42475903 0.22403014 -0.28514475 -0.3987668 0.014655301 -0.07947104 0.71154714
0.47977215 -0.19586638 -0.5020446 -0.35545248 -0.012933458 0.09854086 0.07221718 -0.13296817
-0.15793428 0.28365922 -0.16221693 0.1455834 0.31010252 0.16854686 0.39141577 -0.13277626
0.19032106 -0.3017641 0.24949864 0.14724413 0.18674947 -0.18608698 0.09668549 0.50716376
0.067318305 0.029336583 0.115880445 -0.017479211 0.13395849 -0.19507931 -0.2098904 0.120093465
-0.48429936 0.075569734 -0.051138047 0.13195214 -0.34551522 0.20028251 0.6385142 -0.2658854
-0.018328102 -0.37653068 0.25590727 -0.16830018 0.50855064 0.027468303 0.054715455 -0.17225392
-0.034475073 0.06482063 -0.11161732 -0.32230386 0.10216955 -0.29519382 -0.060929146 -0.072433844
00000000: 0e09 463e 0644 763b bb59 133e 19b2 543d
00000010: 361e 043d b2bd 073e 2f9b 8cbd 1e1b 983e
00000020: 0fe0 e6bd 98c6 1eba 0a91 67bd 234e a3bd
00000030: f7bf ae3e 4ef9 343e 1b70 293c af3d 053f
00000040: 56d4 64bd 699d 603d 32cb a73d a75e c2be
00000050: 772c 34be cb5a c7be 3df1 c1bd 5d17 97bc
00000060: eec2 b73e aa73 103e c88a 723d b955 c4be
00000070: b4b2 0bbe 63d3 b93d 97e8 66bd fe5f 0e3e
00000080: f891 9fbd 4a9b cebd b7cc 7cbe 0e1a 783e
00000090: 0fe5 81be 8092 e8bd 3251 613e 0296 793c
000000a0: 1039 0fbd 8a95 c23d 3306 033f 1a3b 333e
000000b0: 6580 123d 2fc5 0d3f 724d 3dbe 5d94 303e
000000c0: 54d6 4c3e bc19 eabd fe31 82bc 051d a4bd
000000d0: 5e33 78be 4664 483e 19f8 0b3f 59e8 ca3d
000000e0: 78bc d43c 2710 a2be 3e36 afbd 8942 8ebd
000000f0: 6995 413f f895 2dbe c63e 1ebc 0707 333e
00000100: 69a2 d53e d3c2 6bbe f0d2 4fbf 189e c33e
00000110: 0ef2 8a3e 6f12 35bf 641a 9a3e b98d c3bc
00000120: e881 f73c 2c52 5ebe dd16 043e 992b 3c3f
00000130: 90ab edbd a341 0d3d ce78 d3be e728 48be
00000140: 896c cabd 9ace cc3e 294a 033e b2d3 8ebe
00000150: 9214 4a3f eb6b 58be 6247 88be e696 c3bd
00000160: 79bb cfbd 8749 203e 065f 703d 470c 053e
00000170: 6ee7 23be 566b 4a3e 25dc 90bd eb39 94bd
00000180: dff6 3bbe cb88 8e3d bb4a 0e3f c514 fb3e
00000190: d283 293d 5eba 783d 10ca b1be f727 38be
000001a0: 39c4 cf3d 814d 0bbe 789b 08be 000d 6fbd
000001b0: ddf9 a13d 0e5e 8dbe 04a1 c73b cb1b 0f3f
000001c0: 0e1c 203c a46f 163d b573 19be 3442 413e
000001d0: c21b 073e 2feb 01be b04e 16ba 53de 713d
000001e0: d47b de3e 8dc5 d1bd b163 48be 2e96 dd3c
000001f0: 5a88 13bd 6657 a23d 60b9 2fbd ab50 acbe
00000200: c3d1 e83d 047a d9be 2868 653e 7efe 91be
00000210: 292b ccbe ca1c 703c b6c1 a2bd f427 363f
00000220: b2a4 f53e 3291 48be ff85 00bf defd b5be
00000230: dbe6 53bc cacf c93d 9ae6 933d cf28 08be
00000240: 86b9 21be c83b 913e 321c 26be d113 153e
00000250: c2c5 9e3e 8c97 2c3e a667 c83e 80f6 07be
00000260: 86e3 423e d380 9abe 927c 7f3e 2ac7 163e
00000270: 413b 3f3e 968d 3ebe 0b03 c63d 7cd5 013f
00000280: 2ede 893d 4653 f03c ba52 ed3d 9030 8fbc
00000290: 6a2c 093e dfc2 47be 82ed 56be 90f3 f53d
000002a0: 16f6 f7be 4ec4 9a3d 2176 51bd 761e 073e
000002b0: 5fe7 b0be dc16 4d3e ab75 233f 2222 88be
000002c0: d124 96bc a1c8 c0be 4706 833e e256 2cbe
000002d0: 6030 023f 3505 e13c 501d 603d 5563 30be
000002e0: bc35 0dbd aec0 843d 9f97 e4bd 0305 a5be
000002f0: 453e d13d a523 97be d790 79bd 3258 94bd

value_fc1.bias f4 [64]
-0.32075733 -0.64515877 0.55718195 0.5501294 0.86457974 -0.6314565 0.84565425 0.42573884
-0.49098822 -0.6400968 0.53633016 -0.4514289 0.76458937 -0.7444036 -0.5102131 -0.2954639
-0.8050118 -0.63028514 -0.50279397 0.5398375 -0.3927248 0.55721635 0.2854956 0.115656845
-0.50963134 -0.3288695 -0.73308635 -0.8723788 -0.40425843 -0.5835987 0.5074624 0.59289664
0.23720178 -0.35888976 0.57347316 0.72310007 0.53147024 -0.32202366 -0.73354584 -0.5420724
-0.7051968 -0.7145209 -0.56038 0.1917463 0.6452069 -0.22377308 0.2534956 0.6403577
0.62757456 -0.49819204 -0.7106768 0.72563595 -0.7673034 -0.123190716 -0.5272216 -0.53852934
0.2818133 0.8372528 -0.7142518 0.6128888 -0.7745249 -0.83530635 0.5881787 0.70905596
00000000: 4e3a a4be 2029 25bf 7aa3 0e3f 48d5 0c3f
00000010: 1955 5d3f 22a7 21bf cc7c 583f 71fa d93e
00000020: cf62 fbbe 62dd 23bf ef4c 093f b021 e7be
00000030: 21bc 433f 3c91 3ebf 539d 02bf 0b47 97be
00000040: 4115 4ebf 5e5a 21bf 1bb7 00bf ca32 0a3f
00000050: 3a13 c9be bba5 0e3f 7b2c 923e 7fdd ec3d
00000060: 3377 02bf 9561 a8be 8cab 3bbf 3854 5fbf
00000070: f6fa cebe b966 15bf 0ee9 013f 13c8 173f
00000080: 06e5 723e 66c0 b7be 23cf 123f 161d 393f
00000090: 6f0e 083f 49e0 a4be a9c9 3bbf 42c5 0abf
000000a0: c787 34bf d7ea 36bf 1075 0fbf 2459 443e
000000b0: 482c 253f c524 65be 2dca 813e 7bee 233f
000000c0: baa8 203f 0713 ffbe eaee 35bf 47c3 393f
000000d0: ff6d 44bf 6a4b fcbd fff7 06bf 0fdd 09bf
000000e0: d549 903e 3356 563f 35d9 36bf 48e6 1c3f
000000f0: 4447 46bf a3d6 55bf e192 163f b184 353f

value_fc2.weight f4 [128, 64]
-0.20528363 -0.16710255 0.049301118 0.1304414 0.21277648 -0.116301395 0.3644498 0.04794236
-0.116758116 -0.1651882 0.104436755 -0.112508975 0.23563358 -0.2675845 -0.2105939 -0.013770811
-0.13756013 -0.23283444 -0.06401402 0.1952204 -0.14264397 0.2503956 -0.0044920603 -0.018192627
-0.21242492 -0.07136526 -0.082524166 -0.15178628 -0.046203207 -0.12638265 0.20732509 0.23949386
0.066253394 -0.17300817 0.21436961 0.20021886 0.23300092 -0.12231388 -0.26897106 -0.30181208
-0.20445508 -0.1257373 -0.23078491 0.10362753 0.12833448 -0.16889454 0.11949185 0.29755038
0.086494826 -0.24676841 -0.112801015 0.10457399 -0.21614137 -0.1830233 -0.21847138 -0.33859962
0.2206616 0.14266619 -0.11094339 0.036639865 -0.19086581 -0.10932158 0.19555238 0.13301569
0.1463499 0.26411048 -0.1382287 -0.18055412 -0.13009395 0.08193576 -0.31385285 -0.18067963
0.04330917 0.2897137 -0.123627074 0.15082672 -0.13457388 0.2586026 -0.001082791 0.2223812
0.27878773 0.22457825 0.14878024 -0.1154546 0.091787495 -0.04871318 -0.01778967 0.03171407
0.33956882 0.030045886 0.04603727 0.14588131 -0.08915185 0.13148642 -0.22768055 -0.35041273
0.011837888 0.027070843 -0.103562504 -0.17189717 -0.14150365 0.105684355 0.4467764 0.2878206
0.060558777 0.21640989 0.27337983 0.033404026 -0.16323768 -0.05958067 -0.18991552 -0.40830147
-0.2880997 0.14730172 0.32541665 -0.09522038 0.1284009 0.08402374 0.1556684 0.35406587
-0.030934894 -0.14660333 0.048813134 -0.2743319 0.091128685 0.3370912 -0.22454639 -0.17311035
-0.08747176 -0.12008655 0.14018285 0.13068378 0.030571807 0.030911425 0.064901 -0.04143253
-0.13884999 -0.097527824 0.16356495 -0.27774727 0.1909263 -0.07389061 -0.092914805 -0.13153599
-0.03671684 -0.24397421 -0.15388231 0.07880789 -0.27606034 0.18359539 0.13564852 0.17290811
-0.15650965 -0.31423825 0.017181156 -0.07606018 -0.03390632 -0.057316206 0.1879083 0.06731907
-0.13459663 -0.2887856 -0.015922202 0.032452654 0.16586666 -0.21861221 -0.007736854 -0.19039372
-0.20960718 0.040367268 -0.21392389 0.24702218 0.16384715 -0.009488514 0.16767071 0.0010243517
0.22126304 -0.24002467 -0.17828333 -0.0049663493 0.01467246 -0.25255862 -0.22225472 -0.17616385
0.33765516 0.08687496 -0.044844966 0.24845006 0.031405386 0.0075269393 -0.027922373 0.19027038
-0.13056941 -0.27260453 0.1819735 0.17466885 0.1758505 -0.07234822 0.33643395 0.079064064
-0.20352367 -0.18989402 0.142523 -0.055289432 0.1667942 -0.30909246 -0.1909016 -0.06651316
-0.19788381 -0.23633376 -0.25566235 0.039967548 0.016028108 0.15524186 -0.03320663 -0.0032969427
-0.10431968 -0.018598882 0.00854896 -0.2303257 -0.18017112 -0.29995224 0.09419166 0.30150563
0.068088286 -0.045473155 0.25776938 0.33487982 0.38741735 -0.21558216 -0.36059347 -0.33811066
-0.20404015 -0.29885575 -0.018114647 0.08300027 0.16882597 -0.03768653 0.2426873 0.23092462
0.1296253 -0.19135189 -0.111016594 0.21134758 -0.16533364 -0.1689071 -0.14250669 -0.14285558
0.009042427 0.28009006 -0.23854564 0.04213746 -0.19176395 -0.29866046 0.18834771 0.27932534
00000000: df35 52be ee1c 2bbe f8ef 493d 6e92 053e
00000010: 14e2 593e 6d2f eebd 2a99 ba3e 355f 443d
00000020: e11e efbd 1827 29be f0e2 d53d 1b6b e6bd
00000030: ee49 713e d600 89be eda5 57be f89e 61bc
00000040: 90dc 0cbe 276c 6ebe c819 83bd dbe7 473e
00000050: 4311 12be da33 803e 2232 93bb b408 95bc
00000060: eb85 59be f327 92bd 6e02 a9bd dd6d 1bbe
00000070: 933f 3dbd 746a 01be 074d 543e e13d 753e
00000080: dcaf 873d 0e29 31be b583 5b3e 2c06 4d3e
00000090: cb97 6e3e b37f fabd 93b6 89be 1d87 9abe
000000a0: ac5c 51be 47c1 00be e152 6cbe ac3a d43d
000000b0: 1d6a 033e b1f2 2cbe 25b8 f43d 8658 983e
000000c0: 3324 b13d dcb0 7cbe 3804 e7bd e32a d63d
000000d0: 2a54 5dbe 766a 3bbe f6b6 5fbe ee5c adbe
000000e0: 1df5 613e 1617 123e 4a36 e3bd af13 163d
000000f0: 5472 43be fee3 dfbd e23e 483e 4435 083e
00000100: c0dc 153e 7d39 873e d38b 0dbe 2ee3 38be
00000110: 5937 05be f0cd a73d 52b1 a0be 1504 39be
00000120: f564 313d 5b55 943e 3130 fdbd 5272 1a3e
00000130: bccd 09be 8f67 843e 70ec 8dba e6b7 633e
00000140: 44bd 8e3e d7f7 653e d959 183e 7673 ecbd
00000150: 15fb bb3d 7987 47bd a4bb 91bc 9de6 013d
00000160: f7db ad3e ca22 f63c 9491 3c3d e961 153e
00000170: 3f95 b6bd 60a4 063e 1725 69be 4c69 b3be
00000180: b3f3 413c acc3 dd3c 9418 d4bd d005 30be
00000190: 55e6 10be 0a71 d83d e0bf e43e 395d 933e
000001a0: 7b0c 783d 8e9a 5d3e 71f8 8b3e a9d2 083d
000001b0: c727 27be dc0a 74bd 3779 42be e40c d1be
000001c0: ce81 93be 43d6 163e 039d a63e e702 c3bd
000001d0: 877b 033e a314 ac3d 8967 1f3e 1f48 b53e
000001e0: 2d6b fdbc 2f1f 16be 48f0 473d 3b75 8cbe
000001f0: ada1 ba3d 3897 ac3e 7def 65be d743 31be
00000200: 6524 b3bd f0ef f5bd 188c 0f3e f8d1 053e
00000210: ba71 fa3c f539 fd3c d1ea 843d 28b5 29bd
00000220: b12e 0ebe abbc c7bd 927d 273e e434 8ebe
00000230: 2f82 433e f653 97bd 1e4a bebd 5fb1 06be
00000240: 6664 16bd 60d4 79be 5393 1dbe 0866 a13d
00000250: c857 8dbe 6e00 3c3e 72e7 0a3e d30e 313e
00000260: 1144 20be d6e3 a0be 7fbf 8c3c 71c5 9bbd
00000270: 5ae1 0abd 66c4 6abd 096b 403e 95de 893d
00000280: b3d3 09be b5db 93be 476f 82bc 13ed 043d
00000290: f3d8 293e e1db 5fbe 6f85 fdbb 92f6 42be
000002a0: 44a3 56be 2658 253d dd0e 5bbe 62f3 7c3e
000002b0: 8cc7 273e b675 1bbc dfb1 2b3e 8a43 863a
000002c0: c792 623e 07c9 75be e88f 36be c2bc a2bb
000002d0: c264 703c 5d4f 81be be96 63be 4c64 34be
000002e0: 23e1 ac3e 80eb b13d 5baf 37bd b169 7e3e
000002f0: efa2 003d 8ba4 f63b 76bd e4bc 3dd6 423e
00000300: fdb3 05be d292 8bbe 4357 3a3e 64dc 323e
00000310: 2712 343e 4e2b 94bd 1241 ac3e 57ec a13d
00000320: 8268 50be 9473 42be 8df1 113e 2c77 62bd
00000330: 19cc 2a3e 5e41 9ebe b67b 43be 0d38 88bd
00000340: 0ea2 4abe 7a01 72be 2de6 82be 03b5 233d
00000350: 614d 833c b9f7 1e3e ad03 08bd 8511 58bb
00000360: 8ea5 d5bd af5c 98bc f010 0c3c 80da 6bbe
00000370: c77e 38be 5793 99be 8fe7 c03d f25e 9a3e
00000380: df71 8b3d 0f42 3abd 59fa 833e 5e75 ab3e
00000390: 915b c63e 92c1 5cbe b59f b8be d71c adbe
000003a0: e7ef 50be 9f03 99be 2b65 94bc 0cfc a93d
000003b0: b7e0 2c3e 315d 1abd 0583 783e 8177 6c3e
000003c0: 7fbc 043e c0f1 43be ab5c e3bd 806b 583e
000003d0: 394d 29be fcf5 2cbe 46ed 11be bc48 12be
000003e0: b026 143c f767 8f3e 4f45 74be 5498 2c3d
000003f0: c55d 44be 06ea 98be 39de 403e bb03 8f3e

value_fc2.bias f4 [128]
0.21885507 -0.05100298 0.13549049 0.21324834 0.011974363 -0.02357009 0.26354465 -0.27424008
-0.22328985 -0.18027192 0.2435079 -0.03775007 0.3071749 -0.012205319 0.18120013 -0.1473425
0.049589004 0.079010576 0.2597436 -0.15655623 -0.16303138 -0.14833738 -0.024471838 -0.09118524
-0.21572258 -0.28672352 -0.055439815 0.19360997 0.24667951 0.29688564 -0.15118097 -0.15321137
0.066260025 -0.13287295 -0.25478196 -0.15600699 0.101280175 0.09758287 0.26773652 -0.07002899
0.22785427 0.17711249 0.1292375 0.21547644 -0.015155668 -0.055901766 -0.2312887 0.2238243
-0.23180103 0.17976256 0.13186598 -0.26005214 0.005584707 0.21817203 -0.110008545 -0.15022874
0.18679014 0.11303771 -0.22349986 0.25074923 -0.14445873 -0.10345326 -0.15182357 0.15728691
0.2970552 -0.08352609 -0.19941142 0.033242375 0.11522978 -0.28910917 0.2664992 0.06773931
0.054532204 0.23860125 0.009488324 0.28071627 -0.11953017 -0.16395411 -0.088515565 -0.17498404
0.16099213 -0.05377818 0.10658987 0.03196364 -0.058310986 -0.18318187 -0.16279571 -0.10196188
-0.24694328 -0.12842266 -0.02728559 0.22682129 -0.016555838 0.13806343 0.05766419 0.057254512
0.049472354 0.111162685 -0.14985745 0.12785593 0.14334396 0.16884378 0.010911654 0.27402076
-0.13004982 0.2204872 -0.08335443 0.17546147 0.042816684 0.09958636 -0.11535006 0.27251017
0.06921057 0.078769915 0.16124499 -0.15097137 -0.034859404 -0.12429957 0.07014293 0.10321218
-0.05411219 -0.15645567 -0.04454044 0.20917913 0.004063199 -0.27240846 0.09379156 -0.24503821
00000000: 8b1b 603e 80e8 50bd 05be 0a3e c65d 5a3e
00000010: 1e30 443c 1016 c1bc 53ef 863e 3269 8cbe
00000020: 18a6 64be 3499 38be 235a 793e d19f 1abd
00000030: 0746 9d3e d1f8 47bc 878c 393e f4e0 16be
00000040: d71d 4b3d 4cd0 a13d 1dfd 843e 4750 20be
00000050: b3f1 26be c1e5 17be 2a79 c8bc 54bf babd
00000060: 61e6 5cbe 6dcd 92be dc14 63bd b141 463e
00000070: 8e99 7c3e 6501 983e 2fcf 1abe 71e3 1cbe
00000080: 56b3 873d d90f 08be c872 82be 4cc0 1fbe
00000090: fb6b cf3d 87d9 c73d c314 893e 5c6b 8fbd
000000a0: a152 693e fa5c 353e d656 043e dba5 5c3e
000000b0: 7b4f 78bc 40f9 64bd f2d6 6cbe 3332 653e
000000c0: 405d 6dbe ad13 383e e007 073e 8e25 85be
000000d0: ebff b63b 7d68 5f3e 294c e1bd 90d5 19be
000000e0: ea45 3f3e 5180 e73d 26dd 64be 3462 803e
000000f0: fdec 13be 4edf d3bd a377 1bbe d20f 213e
00000100: 9f17 983e ba0f abbd 8232 4cbe 2829 083d
00000110: 97fd eb3d 1e06 94be 9572 883e e8ba 8a3d
00000120: 295d 5f3d e353 743e ea74 1b3c 0bba 8f3e
00000130: 3ccc f4bd 96e3 27be a647 b5bd 042f 33be
00000140: 1fdb 243e 8246 5cbd ca4b da3d 4eec 023d
00000150: 80d7 6ebd 0794 3bbe ebb3 26be 64d1 d0bd
00000160: b3de 7cbe 3b81 03be 0886 dfbc d743 683e
00000170: 1ca0 87bc 8060 0d3e 4931 6c3d b583 6a3d
00000180: 86a3 4a3d 43a9 e33d 3b74 19be aaec 023e
00000190: c2c8 123e 62e5 2c3e cbc6 323c 734c 8c3e
000001a0: c82b 05be 66c7 613e bab5 aabd 2cac 333e
000001b0: 8c60 2f3d eff3 cb3d a73c ecbd 7486 8b3e
000001c0: 45be 8d3d 1f52 a13d 681d 253e 3d98 1abe
000001d0: bcc8 0ebd c690 febd 19a7 8f3d e860 d33d
000001e0: bea4 5dbd ea35 20be 0970 36bd 0e33 563e
000001f0: 9524 853b 1f79 8bbe ca15 c03d 4ceb 7abe

value_fc3.weight f4 [1, 128]
-2.475135 2.4604666 -2.529947 -2.4211814 -2.5804193 -2.516157 -2.4728153 2.4116838
2.4789095 2.4171216 -2.4938388 2.5185993 -2.434278 -2.4924808 -2.5173945 2.5158324
-2.4517262 -2.491594 -2.4799795 2.4572198 2.5211315 -2.562418 -2.5500934 2.511944
2.4185903 2.4364297 -2.594159 -2.4475677 -2.4389925 -2.4602268 2.471503 2.641727
-2.513732 -2.5131545 2.4436955 2.4934967 -2.4561563 -2.4512255 -2.420202 2.4576166
-2.4311442 -2.6503026 2.5669122 -2.5257638 2.4678261 2.5005846 2.4796152 -2.7057621
2.465287 -2.485078 -2.4385788 2.4342067 -2.449778 -2.5031693 2.4924152 -2.574126
-2.4978218 -2.4258573 2.4857771 -2.5156953 2.6828346 2.4754052 2.456932 -2.527257
-2.4889374 2.4547982 2.4680922 -2.6118805 -2.4822617 2.5027163 -2.439421 -2.5346587
2.5104613 -2.5126224 -2.6144884 -2.4756334 2.489022 2.5032368 2.531045 2.436453
-2.5082645 -2.550316 2.5300648 2.4849656 -2.5378356 2.4367692 2.4868045 2.4283082
2.4304504 2.4587219 2.4982836 -2.4623332 -2.5168777 -2.4867392 -2.4478886 -2.5036645
2.484018 -2.5037613 2.500713 -2.6435318 -2.4480069 -2.4997556 -2.4777603 -2.4589822
2.430753 -2.4405122 2.4848337 -2.4653337 -2.4299915 2.6234133 2.5073273 -2.4782772
-2.5019727 -2.4772635 -2.522205 2.4818628 2.53471 2.4423447 -2.4843168 -2.4409697
2.5806417 2.5118988 2.443657 -2.4906921 2.4874191 2.5136418 -2.5001428 2.5044398
00000000: 9d68 1ec0 4978 1d40 a7ea 21c0 a3f4 1ac0
00000010: 9725 25c0 b708 21c0 9b42 1ec0 0759 1a40
00000020: 74a6 1e40 1fb2 1a40 0e9b 1fc0 bb30 2140
00000030: 36cb 1bc0 ce84 1fc0 fe1c 21c0 6603 2140
00000040: 15e9 1cc0 4776 1fc0 fcb7 1ec0 1743 1d40
00000050: 385a 2140 a8fe 23c0 bb34 23c0 b1c3 2040
00000060: 2fca 1a40 77ee 1b40 b306 26c0 f3a4 1cc0
00000070: 7418 1cc0 5b74 1dc0 1b2d 1e40 0e12 2940
00000080: fce0 20c0 86d7 20c0 8265 1c40 7395 1f40
00000090: aa31 1dc0 e1e0 1cc0 97e4 1ac0 9749 1d40
000000a0: de97 1bc0 8f9e 29c0 4a48 2440 1da6 21c0
000000b0: ddf0 1d40 9409 2040 04b2 1e40 352b 2dc0
000000c0: 43c7 1d40 850b 1fc0 ad11 1cc0 0bca 1b40
000000d0: 2ac9 1cc0 ed33 20c0 bb83 1f40 7bbe 24c0
000000e0: 50dc 1fc0 3f41 1bc0 f916 1f40 2701 21c0
000000f0: 90b3 2b40 0a6d 1e40 603e 1d40 94be 21c0
00000100: c04a 1fc0 6a1b 1d40 39f5 1d40 0d29 27c0
00000110: 60dd 1ec0 812c 2040 791f 1cc0 d937 22c0
00000120: 66ab 2040 cece 20c0 c753 27c0 c770 1ec0
00000130: 234c 1f40 0835 2040 a4fc 2140 d9ee 1b40
00000140: 6887 20c0 6138 23c0 95ec 2140 ad09 1f40
00000150: e66b 22c0 07f4 1b40 ce27 1f40 6769 1b40
00000160: 808c 1b40 b35b 1d40 e1e3 1f40 de96 1dc0
00000170: 8614 21c0 bc26 1fc0 35aa 1cc0 0a3c 20c0
00000180: 27fa 1e40 a03d 20c0 af0b 2040 a02f 29c0
00000190: 25ac 1cc0 fffb 1fc0 a093 1ec0 f75f 1dc0
000001a0: 7591 1b40 5a31 1cc0 8407 1f40 07c8 1dc0
000001b0: fb84 1bc0 01e6 2740 0d78 2040 189c 1ec0
000001c0: 5220 20c0 7c8b 1ec0 cf6b 21c0 d7d6 1e40
000001d0: b038 2240 604f 1c40 0cff 1ec0 d938 1cc0
000001e0: 3c29 2540 f3c2 2040 e064 1c40 8067 1fc0
000001f0: e031 1f40 82df 2040 5702 20c0 be48 2040
