CartPole/ppo/CartPole-v0/lr_0.0002/coeff_entropy_0.0002/batch_size_32/horizon_2048/policy.pth (torch_old, 8159 bytes, 9 tensors)

act_fc1.weight f4 [32, 4]
-0.16727026 0.0072281244 0.54768634 0.27559933 0.3081233 -0.4759624 0.10021602 0.19613314
0.27297047 0.36073378 -0.47167128 -0.007732784 0.060013834 -0.21437056 -0.42867327 -0.25121275
0.35919002 -0.28591344 -0.78557616 -0.45114625 0.489608 -0.39035806 -0.22498262 0.057990335
-0.47348043 0.4907385 -0.07708479 -0.17619117 0.09731304 0.3292174 -0.15944904 -0.17823678
0.031513877 -0.2975252 -0.542658 -0.54281044 0.14602597 -0.06867571 -0.40642565 -0.19451584
-0.36317092 -0.43880188 -0.2968179 -0.41767883 -0.33682746 -0.3866224 -0.15890843 0.44719055
-0.12264127 -0.0963266 -0.24337542 -0.14761366 -0.46783176 -0.31564263 0.18629818 -0.16380183
-0.1484785 0.015010048 -0.4383915 -0.17654967 0.121741556 -0.38697505 -0.30606166 -0.14425367
-0.26587045 -0.43627042 0.2346421 0.024583302 0.17930666 0.4807414 -0.31129983 0.011863734
0.33616894 -0.3575549 -0.04147399 -0.123120956 0.313802 -0.084167086 -0.19731043 0.12557839
0.318165 -0.3748396 -0.09913617 -0.21964616 -0.16831326 0.40179467 -0.39842337 -0.2331416
-0.60026264 -0.2231456 0.9093151 -0.006029074 0.34962732 -0.34049156 -0.25031477 -0.07716783
-0.0344863 -0.14217329 -0.3738012 -0.065721884 -0.018780662 0.30155382 -0.2523993 -0.48515362
-0.12547688 -0.2341161 -0.39565045 -0.03269404 0.09521443 -0.4501791 0.108790554 0.4169682
-0.14110278 0.03418241 0.31015822 0.1802185 0.044657968 0.061188806 0.69145375 0.4255521
0.012235448 0.10963632 0.3223299 0.48475978 0.186323 0.40261495 -0.014953587 0.47773564
00000000: e548 2bbe e7d9 ec3b 2c35 0c3f 5b1b 8d3e
00000010: 56c2 9d3e 58b1 f3be 0f3e cd3d 20d7 483e
00000020: c9c2 8b3e 19b2 b83e e67e f1be 4b63 fdbb
00000030: 11d1 753d f583 5bbe 107b dbbe f59e 80be
00000040: c1e7 b73e 3f63 92be 851b 49bf a4fc e6be
00000050: e6ad fa3e 03dd c7be d861 66be 4687 6d3d
00000060: 076c f2be 1442 fb3e a1de 9dbd 756b 34be
00000070: 0f4c c73d 2f8f a83e 9c46 23be b483 36be
00000080: b214 013d 3955 98be a2eb 0abf a0f5 0abf
00000090: d587 153e daa5 8cbd 0617 d0be 292f 47be
000000a0: 8af1 b9be a4aa e0be 84f8 97be 00da d5be
000000b0: a674 acbe 5ff3 c5be e4b8 22be 29f6 e43e
000000c0: 592b fbbd e146 c5bd 6837 79be 0928 17be
000000d0: a587 efbe e99b a1be f3c4 3e3e abbb 27be
000000e0: bf0a 18be b4ec 753c da74 e0be 70c9 34be
000000f0: a353 f93d 9821 c6be 1db4 9cbe 3cb7 13be
00000100: 2c20 88be d65e dfbe 0546 703e ec62 c93c
00000110: 2a9c 373e bd23 f63e b162 9fbe 1b60 423c
00000120: 561e ac3e 7011 b7be a1e0 29bd d726 fcbd
00000130: a8aa a03e cb5f acbd bf0b 4abe 9f97 003e
00000140: 86e6 a23e faea bfbe e807 cbbd ecea 60be
00000150: 505a 2cbe 08b8 cd3e 26fe cbbe acbc 6ebe
00000160: d0aa 19bf 4880 64be e0c8 683f 8a8f c5bb
00000170: 5a02 b33e e954 aebe 4229 80be 2b0a 9ebd
00000180: 8241 0dbd e095 11be df62 bfbe 3299 86bd
00000190: e7d9 99bc 4365 9a3e 7b3a 81be 0e66 f8be
000001a0: 037d 00be 22bc 6fbe b292 cabe 30ea 05bd
000001b0: c8ff c23d e07d e6be 95cd de3d db7c d53e
000001c0: 3f7d 10be db02 0c3d 0fcd 9e3e 338b 383e
000001d0: 46eb 363d 1da1 7a3d 1d03 313f f7e1 d93e
000001e0: 3077 483c 0289 e03d 6d08 a53e 6f32 f83e
000001f0: 75cb 3e3e 8c23 ce3e e4ff 74bc c499 f43e

act_fc1.bias f4 [32]
0.054757956 -0.24203055 -0.15525995 0.4285332 0.25576133 -0.15177631 -0.48542592 -0.36532938
0.09074597 -0.11940707 0.26522535 -0.43265778 -0.42536303 0.23667783 0.26051706 -0.37431312
0.23448062 0.3258509 0.03297332 -0.26584488 -0.47963297 0.3000686 0.13677919 -0.3183164
-0.33214638 0.023764858 -0.35099205 0.112184845 -0.53239906 0.39671054 -0.3073933 0.3308208
00000000: e149 603d dbd6 77be 77fc 1ebe b468 db3e
00000010: 26f3 823e 406b 1bbe bf89 f8be 740c bbbe
00000020: 06d9 b93d b28b f4bd 9ecb 873e 5285 ddbe
00000030: 2fc9 d9be ac5b 723e 7e62 853e f8a5 bfbe
00000040: b01b 703e eed5 a63e 080f 073d d21c 88be
00000050: 7492 f5be 97a2 993e d80f 0c3e 5efa a2be
00000060: 170f aabe 85ae c23c 3bb5 b3be 2bc1 e53d
00000070: 4e4b 08bf a51d cb3e a862 9dbe 5861 a93e

act_fc2.weight f4 [32, 32]
0.14280167 0.047202468 0.14541923 -0.0030406348 0.06463725 0.07306792 -0.12317707 0.13731633
0.013824195 0.21186547 -0.10949642 0.05500123 -0.042419285 0.09453043 -8.353134e-06 0.028139275
-0.16509926 -0.02570049 -0.16198352 -0.17638186 -0.048903197 0.068916984 0.032002855 0.10987036
-0.015837507 0.08896908 0.11281604 0.16783436 -0.10688052 -0.05394669 -0.24799396 0.036006097
-0.30253318 -0.10982342 -0.17176305 -0.058950707 -0.12073359 0.03750208 -0.0028074742 -0.063786514
-0.010045834 -0.25166523 -0.001834097 -0.11769639 -0.12907259 0.14648362 -0.032991488 -0.022130065
-0.0836928 0.16077977 0.17454562 0.15196714 0.016202107 0.13519116 0.05060859 0.1430964
0.12702087 0.13999555 -0.014982325 0.08439839 0.0042360276 -0.17062664 0.03858897 -0.003428197
-0.33272922 0.028277699 0.016660986 -0.025727924 0.22287221 0.18505564 0.039772756 0.036488198
-0.08065825 -0.21170288 0.114044055 -0.08133251 0.025417628 -0.10631697 0.10029398 0.1092925
-0.041373186 0.12255143 0.2656312 -0.021614209 -0.14216308 -0.024666604 -0.19544932 -0.07212957
0.1137036 0.011644727 -0.041322537 -0.0012762987 -0.1143001 -0.12926081 -0.03205511 -0.12703498
-0.09807564 -0.062192935 0.12294758 0.03985583 0.16675559 -0.10836616 0.18167728 0.11659639
-0.025954995 0.03967003 -0.005005145 0.057750996 0.10214415 -0.15327026 0.14816627 -0.1424591
0.124139674 0.012010814 -0.07982661 0.0950491 -0.0059295595 -0.15671003 -0.07375233 -0.078414515
0.13487312 0.10018099 0.05802989 0.13268189 0.0012807252 -0.2282633 -0.03063788 0.036176946
-0.17640911 0.006654332 0.1328275 0.077098235 -0.12868932 0.017574629 -0.09084645 0.017762093
0.011650254 -0.14846352 0.08789506 0.15162887 0.03262496 -0.18059161 -0.05903118 0.0572447
0.09627431 0.05596603 -0.11172404 -0.11777092 0.14796518 -0.032211337 -0.014811799 -0.024376722
0.075783804 0.16023627 -0.045263544 0.037404492 -0.12803653 0.07457373 0.058467768 0.15863305
-0.10212695 0.02724519 -0.07343407 -0.058872044 -0.12913175 -0.03525706 -0.0087789595 0.040307805
0.024132252 -0.14020255 0.03882889 0.07151382 0.10746808 -0.119433336 -0.09486343 -0.1483111
0.113570094 0.1096052 0.025896508 0.07346036 0.15758644 -0.1304616 -0.19120781 -0.010057256
-0.08897018 0.12662913 0.05216826 -0.013076076 0.1459173 0.081996344 0.02623816 -0.025819845
-0.061464366 0.10119966 -0.106863305 0.057949897 0.10173687 0.049420808 0.039006818 -0.06312976
0.006419678 -0.1922838 0.16841632 0.05365231 -0.073077604 -0.069030106 0.17216218 0.18817541
0.03116738 0.13233109 0.19490896 -0.112567306 0.098887786 0.11907847 -0.2399413 0.13435158
0.037044477 -0.06437919 0.12270694 -0.015985293 -0.11129843 0.031634882 0.14351377 -0.15559322
-0.17809981 -0.03692302 -0.08450327 0.05713124 -0.038298894 0.017955866 0.07875109 -0.033711873
-0.33096826 0.029220352 0.11142309 0.08496684 -0.14256626 0.1620387 -0.10296887 -0.0011030814
0.16551839 -0.14333597 0.020730052 -0.044636145 0.020813271 -0.046834953 -0.06757168 -0.19809085
-0.17742674 -0.12475595 -0.17558181 0.023578728 0.09256599 0.06295466 -0.0067722006 0.17381084
00000000: 9a3a 123e 6057 413d c7e8 143e 6345 47bb
00000010: 8960 843d a2a4 953d 4244 fcbd a79c 0c3e
00000020: e07e 623c 43f3 583e a93f e0bd f848 613d
00000030: d8bf 2dbd 2c99 c13d 7024 0cb7 5684 e63c
00000040: c80f 29be d689 d2bc 02df 25be 729d 34be
00000050: b84e 48bd 5924 8d3d 6d15 033d b603 e13d
00000060: a9bd 81bc 6c35 b63d 190c e73d c5dc 2b3e
00000070: 2de4 dabd 34f7 5cbd 21f2 7dbe 217b 133d
00000080: a1e5 9abe 1aeb e0bd a7e2 2fbe 4c76 71bd
00000090: 2c43 f7bd c89b 193d 9afd 37bb 81a2 82bd
000000a0: 4897 24bc 44da 80be 1566 f0ba ce0a f1bd
000000b0: 9b2b 04be cdff 153e 1522 07bd 1c4a b5bc
000000c0: 2167 abbd 74a3 243e 16bc 323e 469d 1b3e
000000d0: 48ba 843c 8d6f 0a3e f44a 4f3d dd87 123e
000000e0: c211 023e fe5a 0f3e 6d78 75bc 10d9 ac3d
000000f0: 60ce 8a3b c0b8 2ebe 780f 1e3d 9aab 60bb
00000100: 7c5b aabe a2a6 e73c 9f7c 883c 5ec3 d2bc
00000110: 9d38 643e 3a7f 3d3e c2e8 223d a674 153d
00000120: 2730 a5bd a4c8 58be ee8f e93d a991 a6bd
00000130: a138 d03c b6bc d9bd ee66 cd3d bfd4 df3d
00000140: ee76 29bd 3efc fa3d d000 883e 4810 b1bc
00000150: 3393 11be 9e11 cabc de23 48be abb8 93bd
00000160: 6fdd e83d 86c9 3e3c d241 29bd 7a49 a7ba
00000170: 2c16 eabd f25c 04be 384c 03bd 7515 02be
00000180: e2db c8bd 05be 7ebd f1cb fb3d de3f 233d
00000190: fac1 2a3e 14ef ddbd 9c09 3a3e 17ca ee3d
000001a0: 929f d4bc 0b7d 223d 3302 a4bb 4f8c 6c3d
000001b0: f430 d13d e1f2 1cbe e6b8 173e cce0 11be
000001c0: f13c fe3d 01c9 443c 227c a3bd 1aa9 c23d
000001d0: c04c c2bb 9878 20be 760b 97bd ca97 a0bd
000001e0: 2e1c 0a3e b12b cd3d c0b0 6d3d c3dd 073e
000001f0: 02de a73a dbbd 69be 4bfc fabc 472e 143d
00000200: 97a4 34be 950c da3b ef03 083e aee5 9d3d
00000210: 22c7 03be abf8 8f3c b40d babd cf81 913c
00000220: b5e0 3e3c d206 18be 5302 b43d 9944 1b3e
00000230: c0a1 053d 02ed 38be aeca 71bd 6b79 6a3d
00000240: 772b c53d a33c 653d 93cf e4bd e131 f1bd
00000250: 2f84 173e 09f0 03bd 30ad 72bc b1b1 c7bc
00000260: 8a34 9b3d fa14 243e 4466 39bd 7435 193d
00000270: 021c 03be 1dba 983d e67b 6f3d b470 223e
00000280: ef27 d1bd 4e31 df3c 9a64 96bd d023 71bd
00000290: 1d3b 04be b569 10bd a0d5 0fbc cc19 253d
000002a0: 00b1 c53c 4291 0fbe 0b0b 1f3d d675 923d
000002b0: 3a18 dc3d 7799 f4bd c247 c2bd ddde 17be
000002c0: 7097 e83d b178 e03d ea24 d43c 6372 963d
000002d0: 575e 213e ba97 05be fbcb 43be 30c7 24bc
000002e0: ff35 b6bd 11ab 013e 63ae 553d 0a3d 56bc
000002f0: 586b 153e b3ed a73d 69f1 d63c 2484 d3bc
00000300: 0fc2 7bbd c441 cf3d 26db dabd df5c 6d3d
00000310: 6c5b d03d 796d 4a3d 9dc5 1f3d 2d4a 81bd
00000320: 2a5c d23b 0be6 44be 5475 2c3e 86c2 5b3d
00000330: b6a9 95bd a85f 8dbd 484b 303e 0eb1 403e
00000340: bc52 ff3c cd81 073e 3796 473e b089 e6bd
00000350: ae85 ca3d 6adf f33d 2cb3 75be 7693 093e
00000360: f3bb 173d 3dd9 83bd c74d fb3d 97f3 82bc
00000370: 6ef0 e3bd 9493 013d 46f5 123e d453 1fbe
00000380: cc5f 36be 983c 17bd 0d10 adbd 7202 6a3d
00000390: 4ddf 1cbd 2e18 933c 4048 a13d 7615 0abd
000003a0: ac74 a9be 855f ef3c ca31 e43d 1803 ae3d
000003b0: e4fc 11be 79ed 253e 58e1 d2bd 4595 90ba
000003c0: a77d 293e aac6 12be 12d2 a93c 64d4 36bd
000003d0: 9880 aa3c 02d6 3fbd 0563 8abd 54d8 4abe
000003e0: 5baf 35be 0c80 ffbd b8cb 33be 2d28 c13c
000003f0: 3d93 bd3d 5fee 803d 56e9 ddbb 78fb 313e

act_fc2.bias f4 [32]
0.078273736 -0.013914644 0.122098796 -0.16926956 0.15911208 -0.20018615 -0.06828314 -0.036588877
0.1354996 -0.12549296 0.10668386 -0.06640133 -0.13180023 0.055524457 0.16504914 0.024480548
-0.117701925 -0.065085754 0.00869491 0.1421261 -0.0038710677 -0.014160421 0.049699478 -0.08451045
0.067251146 0.053825703 -0.09481191 -0.035273697 -0.1154074 0.110739365 0.06535252 -0.03830338
00000000: fb4d a03d 3ffa 63bc ef0e fa3d 0055 2dbe
00000010: 47ee 223e 99fd 4cbe 08d8 8bbd 38de 15bd
00000020: 68c0 0a3e 3a81 00be 117d da3d 6cfd 87bd
00000030: a4f6 06be 9d6d 633d a402 293e 6e8b c83c
00000040: b50d f1bd ae4b 85bd 1975 0e3c 8189 113e
00000050: bdb1 7dbb 1c01 68bc ae91 4b3d d113 adbd
00000060: f8ba 893d 5778 5c3d bf2c c2bd 277b 10bd
00000070: b75a ecbd 52cb e23d 8bd7 853d 01e4 1cbd

mu.weight f4 [2, 32]
0.009711658 0.08464552 0.13883996 0.052740324 0.085735664 -0.060478903 0.10427232 0.057165466
0.05944327 -0.13558087 0.1098836 0.10513719 0.0040151365 0.009027196 -0.14088029 -0.22607356
-0.058500055 -0.20053889 0.1311415 0.018445406 0.024782928 0.011861407 -0.013318905 -0.1176293
0.18798615 0.020728309 -0.15136401 0.025341941 -0.07622638 0.11058167 0.013598104 -0.24378264
0.02364968 0.05728597 -0.13712856 0.14826356 -0.12439266 0.053151388 -0.1630573 0.14529204
0.18155997 0.05933991 -0.027884603 0.13656919 0.01539367 -0.1027164 0.12122577 0.10416326
0.008348976 -0.038153224 -0.02842613 0.17970464 0.1560925 -0.015177376 -0.011430589 -0.17103955
-0.22463277 0.038534246 -0.14263803 0.15202422 -0.049923114 0.11741091 0.17101133 0.09307803
00000000: a51d 1f3c a15a ad3d 102c 0e3e 3d06 583d
00000010: 2e96 af3d bab8 77bd ba8c d53d 5626 6a3d
00000020: c97a 733d b6d5 0abe a70a e13d 2b52 d73d
00000030: 6891 833b cee6 133c ec42 10be d47f 67be
00000040: c19d 6fbd 115a 4dbe f549 063e d21a 973c
00000050: 9105 cb3c 5956 423c 8937 5abc a1e7 f0bd
00000060: 717f 403e 6ace a93c 2bff 1abe e799 cf3c
00000070: 941c 9cbd a578 e23d 95ca 5e3c 28a2 79be
00000080: f9bc c13c b1a4 6a3d 6e6b 0cbe 67d2 173e
00000090: 94c1 febd 45b5 593d 7ef8 26be 70c7 143e
000000a0: dbea 393e 680e 733d 406e e4bc cbd8 0b3e
000000b0: bb35 7c3c fa5c d2bd 3745 f83d 8c53 d53d
000000c0: 25ca 083c 8e46 1cbd eadd e8bc 7e04 383e
000000d0: b6d6 1f3e 87aa 78bc 5d47 3bbc fe24 2fbe
000000e0: 2206 66be 16d6 1d3d b40f 12be 3dac 1b3e
000000f0: 2e7c 4cbd 2275 f03d 981d 2f3e b29f be3d

mu.bias f4 [2]
-0.0299081 0.012863216
00000000: d501 f5bc 3dc0 523c

value_fc1.weight f4 [64, 4]
-0.17112999 -0.209476 0.4085422 0.6072774 -1.5321938 -0.34500274 2.9105875 0.9883626
-0.9117552 0.45142153 2.5935206 1.3391587 0.18792498 0.09499819 1.0118681 0.6135114
-0.41879392 0.1226972 0.5681189 0.0055835904 -0.30801946 -0.04581285 0.5626517 0.6636443
0.27247527 0.045560636 1.3257456 -0.081610434 0.13756052 0.042836778 0.5660313 -0.1890685
-1.3250625 -0.24045503 2.4315534 1.1679212 -0.19221279 0.42206657 0.6640444 -0.0037766143
-0.37575045 1.0008993 1.2400677 -0.41948998 0.4072033 -0.04646832 0.45545468 -0.01529988
0.20295912 0.91717917 2.5702863 0.7111705 0.41569895 -0.24707578 1.0817025 0.5535598
0.23859742 0.58015126 1.0390708 0.2023886 0.088315696 0.03941031 0.60745966 0.63972276
0.932011 -0.26757056 -4.2642107 -1.2744503 -1.6306007 0.38629878 3.2616093 1.0756689
-0.26295155 0.90497863 3.5807903 1.1935953 0.1805745 0.1435548 1.3013495 -0.15563405
1.0772972 -0.55623305 -3.579997 -1.4161223 0.114253595 0.24458456 1.2822438 0.7108528
-0.12085337 0.42672896 0.8582994 0.016397199 -0.25758153 0.45416498 1.1160643 0.72071993
-1.3741059 0.37490842 3.6807837 1.2918607 -0.059272602 0.63818717 1.1109384 -0.4945998
-0.39995944 1.0345533 0.9946033 -0.3707287 0.7732709 -0.25162235 -4.349211 -1.2586144
0.20236921 0.36345348 0.8380857 0.20712548 -0.28966233 0.4485993 2.9666038 1.169682
-0.19005202 0.08958934 -0.013731343 0.42787257 0.42063394 -0.7032379 -0.75193375 0.34969738
0.02195074 -0.32009378 1.0824454 0.25622043 0.5885224 0.24932927 -0.20139149 -0.23868908
-0.5963035 -0.15498406 3.8025312 1.1752808 0.036721047 -0.22394195 0.48290804 0.2771255
0.20458876 -0.41446182 1.2862917 0.07177085 -0.37893063 -0.16941915 0.7159699 0.30807412
-0.08757815 -0.22085157 0.3089242 -0.058533978 0.12581936 -0.00034231556 0.94556665 0.4135773
-0.31182972 0.14615034 0.32962397 0.47733265 -0.5485456 0.4616595 0.4965684 0.72441083
0.038035955 0.3069369 0.25983423 -0.38901746 0.3655484 -0.10752076 -0.28889993 0.41852447
-0.98715454 0.051924307 3.4301822 1.1720458 -0.9190017 0.56257087 3.7758062 1.0426927
-0.13445993 0.36967084 1.3224541 -0.12652251 -0.16712736 0.4246194 0.5050128 0.7403142
0.3154822 0.18575831 1.07921 0.011020275 0.19829032 0.6027521 1.3191731 0.07504998
0.009781012 0.38688666 1.410253 0.15030323 -0.14544927 0.36315286 0.5825137 0.032822844
0.037412688 0.47961 0.9629579 0.013683842 0.08170917 0.20530233 0.30067235 0.17060402
-0.42224053 0.81727564 3.5690227 1.0337424 -0.14573203 0.20393524 1.0544262 0.2684024
1.5982133 -0.14402448 -3.5466669 -1.3103776 -0.29892883 0.10194127 0.47394347 0.66485626
-0.0024614793 0.449205 1.0215254 -0.0036852348 -0.031429943 -0.009570373 1.0313284 0.5382904
-0.16063806 0.021691652 0.94237906 0.46400002 -0.59959286 0.54744124 0.65017253 0.77677166
-0.29561922 -0.01279911 1.0101358 0.55079466 0.10888083 0.29002354 1.1267285 0.012055913
00000000: b33c 2fbe e080 56be 712c d13e 8876 1b3f
00000010: ed1e c4bf 33a4 b0be 1147 3a40 5505 7d3f
00000020: ca68 69bf b920 e73e 3efc 2540 8d69 ab3f
00000030: 686f 403e 698e c23d e584 813f 150f 1d3f
00000040: 286c d6be ab48 fb3d 3d70 113f 8df6 b63b
00000050: bab4 9dbe 41a6 3bbd f109 103f 98e4 293f
00000060: e181 8b3e ca9d 3a3d 08b2 a93f 5f23 a7bd
00000070: aadc 0c3e 9e75 2f3d 6de7 103f 2c9b 41be
00000080: a69b a9bf d839 76be 929e 1b40 717e 953f
00000090: 6ed3 44be 1c19 d83e d0fe 293f 1381 77bb
000000a0: 5d62 c0be 781d 803f 8aba 9e3f 64c7 d6be
000000b0: f37c d03e 9155 3ebd 5b31 e93e 59ac 7abc
000000c0: 84d4 4f3e 41cc 6a3f 927f 2440 450f 363f
000000d0: 7ed6 d43e 6f01 7dbe 3a75 8a3f 18b6 0d3f
000000e0: e252 743e cb84 143f 4600 853f f53e 4f3e
000000f0: dcde b43d b56c 213d 7a82 1b3f dfc4 233f
00000100: 4698 6e3f 02ff 88be 6a74 88c0 3021 a3bf
00000110: 86b7 d0bf f4c8 c53e 35be 5040 85af 893f
00000120: 96a1 86be aeac 673f ab2b 6540 bbc7 983f
00000130: 86e8 383e 0800 133e 9f92 a63f 885e 1fbe
00000140: e0e4 893f 4a65 0ebf ac1e 65c0 7f43 b5bf
00000150: cafd e93d 6074 7a3e 9120 a43f 73fa 353f
00000160: f981 f7bd 387c da3e 82b9 5b3f 6b53 863c
00000170: bae1 83be 5088 e83e 32db 8e3f 1a81 383f
00000180: b4e2 afbf fff3 bf3e f691 6b40 b15b a53f
00000190: d4c7 72bd 3c60 233f 3b33 8e3f 2f3c fdbe
000001a0: 7cc7 ccbe 3e6c 843f 529e 7e3f 27d0 bdbe
000001b0: 15f5 453f a5d4 80be bd2c 8bc0 471a a1bf
000001c0: e039 4f3e 9316 ba3e c98c 563f b418 543e
000001d0: 9f4e 94be cfae e53e d6dc 3d40 24b8 953f
000001e0: ff9c 42be 9e7a b73d 6df9 60bc 1d12 db3e
000001f0: 555d d73e 6607 34bf bb7e 40bf 890b b33e
00000200: 0ad2 b33c 55e3 a3be 928d 8a3f 532f 833e
00000210: 67a9 163f 2c50 7f3e 9239 4ebe e96a 74be
00000220: 59a7 18bf 24b4 1ebe ac5c 7340 9a6f 963f
00000230: cf68 163d 0a51 65be b93f f73e 65e3 8d3e
00000240: b77f 513e 5734 d4be 35a5 a43f 98fc 923d
00000250: 3203 c2be 377c 2dbe ce49 373f e4bb 9d3e
00000260: 2c5c b3bd ea26 62be 502b 9e3e 53c1 6fbd
00000270: cad6 003e d178 b3b9 a810 723f 67c0 d33e
00000280: 25a8 9fbe 6fa8 153e 79c4 a83e f264 f43e
00000290: 7c6d 0cbf a25e ec3e 373e fe3e fd72 393f
000002a0: 97cb 1b3d d526 9d3e fe08 853e 4c2d c7be
000002b0: 2929 bb3e d833 dcbd b1ea 93be d748 d63e
000002c0: 29b6 7cbf 95ae 543d 1b88 5b40 9905 963f
000002d0: b243 6bbf a504 103f cfa6 7140 f476 853f
000002e0: ddaf 09be 7f45 bd3e 2d46 a93f 1e8f 01be
000002f0: 6f23 2bbe b767 d93e 8548 013f 3b85 3d3f
00000300: e286 a13e 6d37 3e3e 8e23 8a3f 628e 343c
00000310: 9e0c 4b3e f64d 1a3f aada a83f ceb3 993d
00000320: 8a40 203c 0216 c63e 2c83 b43f 17e9 193e
00000330: a7f0 14be 2cef b93e 9e1f 153f 3f71 063d
00000340: 0c3e 193d 718f f53e 6984 763f 3132 603c
00000350: 2357 a73d c63a 523e baf1 993e d2b2 2e3e
00000360: e92f d8be fa38 513f de6a 6440 ac51 843f
00000370: c73a 15be 66d4 503e 70f7 863f 0a6c 893e
00000380: 4192 cc3f 277b 13be 97fc 62c0 74ba a7bf
00000390: 330d 99be 96c6 d03d b8a8 f23e 0534 2a3f
000003a0: c550 21bb 33fe e53e 58c1 823f fb83 71bb
000003b0: afbc 00bd 0ecd 1cbc 9202 843f 66cd 093f
000003c0: 4e7e 24be b1b2 b13c c13f 713f 6991 ed3e
000003d0: eb7e 19bf 1c25 0c3f b571 263f 82da 463f
000003e0: 675b 97be 5cb3 51bc 214c 813f e100 0d3f
000003f0: eafc de3d f77d 943e a438 903f 2a86 453c

value_fc1.bias f4 [64]
-0.7273667 -0.09603922 0.038740873 0.77363825 0.7748626 0.97531796 0.7949575 1.128643
0.059725787 0.70101106 0.15220304 0.7086584 -0.17795075 1.0087154 1.0594438 0.8313719
-0.23394977 -0.1632982 -0.11563874 0.8251891 -0.24149364 0.81630313 0.9976632 0.68430454
-0.20600997 -0.00082579535 0.09775929 -0.2127013 0.69775295 -0.032344166 0.47353607 -0.42456043
0.7603802 -0.16299336 -0.20389798 0.6161459 0.6275703 0.70403343 0.7342007 0.6179511
0.5346314 0.61610454 -0.48908082 0.5167944 -0.19202663 -0.18015862 0.84792113 0.6324106
0.742804 1.0568526 0.5261276 0.6433155 0.6540353 0.8183172 -0.16936336 1.104581
-0.30850947 0.8228866 0.52522165 0.8018424 0.6926887 0.6414701 0.8564338 0.91096747
00000000: b434 3abf 36b0 c4bd c0ae 1e3d 280d 463f
00000010: 655d 463f 70ae 793f 5682 4b3f 6077 903f
00000020: 07a3 743d 7675 333f 1ddb 1b3e a36a 353f
00000030: b938 36be 961d 813f db9b 873f cad4 543f
00000040: 8790 6fbe a537 27be 01d4 ecbd 983f 533f
00000050: 1c4a 77be 3ef9 503f db66 7f3f 952e 2f3f
00000060: 47f4 52be 307a 58ba 0636 c83d 5fce 59be
00000070: f09f 323f 517b 04bd 5273 f23e fc5f d9be
00000080: 47a8 423f bbe7 26be a2ca 50be bdbb 1d3f
00000090: 72a8 203f 893b 343f 94f4 3b3f 0b32 1e3f
000000a0: 9add 083f 07b9 1d3f cd68 fabe a34c 043f
000000b0: a1a2 44be 807b 38be 5c11 593f a9e5 213f
000000c0: 6728 3e3f f246 873f 4cb0 063f 53b0 243f
000000d0: db6e 273f 3c7d 513f 976d 2dbe e962 8d3f
000000e0: f4f4 9dbe b2a8 523f ed74 063f 8b45 4d3f
000000f0: 0c54 313f 6237 243f 3f3f 5b3f 2a35 693f

value_fc2.weight f4 [1, 64]
1.4118146 -1.5012987 -1.1661073 0.51825666 0.63584405 0.6288607 0.5749634 0.4716155
-0.76565814 0.5225689 0.8651068 0.5963627 -1.7505797 0.6488246 0.5229871 0.5034517
-2.113752 -1.9087964 -1.9547511 0.58986646 -2.104819 0.621347 0.5560695 0.5950502
-1.9275075 0.73531663 0.71200347 -1.9431324 0.61522955 -1.8188864 0.46474558 0.7403135
0.44995412 -0.45877802 -1.6186222 0.40612572 0.72799325 0.69952774 0.38446245 0.5435309
0.46637842 0.733313 0.68085694 0.27413416 -1.6497442 -2.0754232 0.5763262 0.54038525
0.6604452 0.527545 0.65116256 0.59763813 0.6657711 0.50756794 -2.0352168 0.53500074
-1.706008 0.63302696 0.6269972 0.6135832 0.4796825 0.7406889 0.5427866 0.631802
00000000: 57b6 b43f 8e2a c0bf 0143 95bf 78ac 043f
00000010: adc6 223f 04fd 203f cd30 133f 9677 f13e
00000020: 2c02 44bf 13c7 053f a477 5d3f 3aab 183f
00000030: ff12 e0bf 5e19 263f 7ce2 053f 36e2 003f
00000040: b647 07c0 7153 f4bf 4935 fabf 7d01 173f
00000050: 5bb5 06c0 9910 1f3f 925a 0e3f 3655 183f
00000060: 91b8 f6bf b63d 3c3f dc45 363f 90b8 f8bf
00000070: af7f 1d3f 45d1 e8bf 22f3 ed3e 2f85 3d3f
00000080: 6360 e63e f4e4 eabe 032f cfbf b6ef cf3e
00000090: c45d 3a3f 4014 333f 43d8 c43e d724 0b3f
000000a0: 27c9 ee3e 67ba 3b3f a44c 2e3f 505b 8c3e
000000b0: d12a d3bf bcd3 04c0 1d8a 133f b056 0a3f
000000c0: f012 293f 300d 073f 97b2 263f d0fe 183f
000000d0: fa6f 2a3f f9ef 013f fe40 02c0 cff5 083f
000000e0: 785e dabf 0e0e 223f e382 203f ca13 1d3f
000000f0: f298 f53e ca9d 3d3f 10f4 0a3f c7bd 213f
