CartPole/ppo/CartPole-v0/lr_0.0002/coeff_entropy_0.0001/batch_size_32/horizon_2048/policy.pth (torch_old, 6519 bytes, 7 tensors)

fc1.weight f4 [32, 4]
000000 7b 13 c1 bd 8c ad b0 3d ab 51 b5 bc ae f9 89 3e
       -0.09427544 0.086268514 -0.022133669 0.26948303
000010 ca 96 3b bf a9 ce 05 3f 84 18 08 be 24 b3 19 3f
       -0.7327696 0.52268463 -0.13290602 0.6003897
000020 f5 66 00 40 1e c5 49 bf f4 ec 16 40 7b 5c 17 bf
       2.006284 -0.788164 2.3582125 -0.5912549
000030 9d 9e c4 3f d2 48 06 bf 49 27 a6 3f d9 18 a2 be
       1.5360905 -0.52454865 1.2980739 -0.31659582
000040 ce 57 77 bf ca d4 6f 3e 42 51 1b 3f 7c 73 9b 3e
       -0.96618354 0.23421016 0.60670865 0.30361545
000050 f6 87 bd 3e c2 97 5a 3e bd 53 80 3e 0d 31 6b 3d
       0.37017792 0.21346954 0.25063887 0.057419825
000060 17 85 90 3f 54 37 f3 3e ba 72 bf 3f 27 dd c7 3e
       1.1290616 0.4750315 1.4956887 0.39035913
000070 dc 2d e9 3d ab 82 8b 3c 3e 56 80 3e 16 82 0e 3e
       0.113857 0.01703008 0.25065798 0.13916811
000080 e9 4a 8c bf ef 81 8c bf 6f e3 e9 be c3 02 33 bf
       -1.0960361 -1.0977153 -0.4568133 -0.6992609
000090 9a 7a b6 bf c9 07 15 bf 04 ac 02 c0 ce 91 00 bf
       -1.4256165 -0.58215004 -2.041749 -0.5022248
0000a0 99 3a ad bf c4 b7 23 bf c8 b8 57 bf 46 26 e9 be
       -1.3533508 -0.6395228 -0.8426633 -0.45537013
0000b0 00 a8 69 bf 35 e1 af 3e a8 85 a4 be cb 12 a2 3e
       -0.9127197 0.34351507 -0.32133222 0.31654963
0000c0 0a 31 42 bf 71 d1 65 3e c8 34 89 3f 6a c9 ca bd
       -0.7585608 0.22443177 1.0719233 -0.09901698
0000d0 80 c7 3e 3f bf d0 97 3e 83 8a 07 3e 36 6e 3c 3e
       0.7452316 0.29651448 0.13236432 0.18401417
0000e0 60 d9 94 bf d6 44 a3 bf 65 87 88 3f 1c b6 74 bf
       -1.1628838 -1.2755382 1.0666319 -0.95590377
0000f0 c9 b6 52 bf 32 7d c7 3e 46 f2 81 bf 40 19 2e 3e
       -0.8231016 0.38962704 -1.0152061 0.1700182
000100 58 b4 6b bf 74 41 a4 3e de b8 e6 3e 2f c4 b2 3e
       -0.9207206 0.32081187 0.45062917 0.349153
000110 a7 f5 98 be dc f2 8e 3e 0c 02 ed 3f f4 df 1b 3f
       -0.29874918 0.27919662 1.851625 0.608886
000120 d7 91 02 40 3e f6 6e 3e 69 da e2 3f 90 77 71 3e
       2.0401514 0.23336121 1.7722903 0.23580766
000130 e4 ef cf bf 10 c3 8a 3e fd 54 0b c0 c8 cf 29 3e
       -1.6245084 0.27101946 -2.1770623 0.16583169
000140 ec 1a f3 3e cc f3 4d bf 65 39 8b 3f c7 a4 04 bf
       0.47481477 -0.8045013 1.087689 -0.5181393
000150 02 8d d8 be 3e cb cb 3d 23 73 e0 3e 68 80 d2 3d
       -0.4229508 0.09950875 0.43837842 0.10278398
000160 89 b3 d9 3e 1f 0b 37 3d c8 7a 29 c0 17 98 4b be
       0.42519787 0.04468834 -2.648119 -0.19882236
000170 e9 87 03 3f 10 d9 66 bf e5 b0 97 3f 6c 21 0d bf
       0.5137926 -0.9017496 1.1850859 -0.5512912
000180 b2 be 5f 40 10 ee d1 be 62 64 01 3f 3b c5 ae be
       3.496014 -0.4100194 0.50543797 -0.3413485
000190 39 92 4c c0 d3 77 0a be 2d dc 7b bf a6 f6 32 be
       -3.1964247 -0.13522272 -0.98382837 -0.17476901
0001a0 24 16 01 bf 18 c3 e4 3e a6 1d 3e 3f 33 d8 85 3e
       -0.5042441 0.44680095 0.7426399 0.2614151
0001b0 8e 45 e5 3e 6d 50 42 bf 8a 66 92 3f de 9e 3b bf
       0.4477963 -0.7590397 1.1437542 -0.7328929
0001c0 2c 09 53 3f 99 af 65 bf 64 af 45 be bd 9b 19 bf
       0.8243587 -0.89721066 -0.19305187 -0.6000326
0001d0 02 65 de be d7 cd ea 3e cf ff 3f be 2f 99 0e 3f
       -0.43436438 0.45860168 -0.18749927 0.5570249
0001e0 40 7c 52 3f 9d bd d8 bf 3f 26 a1 3f 1f 4b 97 bf
       0.8222084 -1.6932865 1.2589797 -1.18198
0001f0 e3 50 74 3e 18 a9 c6 bd 50 dc 82 3f 41 55 54 3b
       0.23858981 -0.09700221 1.0223484 0.0032399448

fc1.bias f4 [32]
000000 5b d7 c6 3e 25 ea 1c 3f 54 34 00 3e db b7 90 3e
       0.38836178 0.61294776 0.12519962 0.2826527
000010 0e 84 2f 3f 49 e0 8d 3f a5 52 de be 24 35 a2 3e
       0.68560874 1.1084071 -0.43422428 0.31681168
000020 f4 14 c7 3e ec e7 a1 be e3 c0 24 3f 96 e5 e0 3e
       0.38883173 -0.31622255 0.6435682 0.4392516
000030 55 8f 06 3f 07 eb 97 3e 9b 7e 7f 3c 93 19 39 3f
       0.5256246 0.296715 0.01559415 0.7230465
000040 84 3c fd 3e 37 2b 31 3f 9f 68 8f 3e ca 2c 1a bd
       0.49460232 0.69206566 0.28009507 -0.03764037
000050 2c be 19 3f ef b2 a4 3e b1 12 26 bf 48 94 3d 3d
       0.60055804 0.32167765 -0.6487227 0.04628399
000060 ff 4a 2d 3d 34 2e ef 3e c6 aa 98 3e 32 60 b8 3e
       0.04230785 0.46714938 0.2981779 0.3601089
000070 6e 39 28 3f 78 42 00 3f fc 1d 81 bc fd 1e 64 3e
       0.6571263 0.50101423 -0.015761368 0.22277446

fc2.weight f4 [32, 32]
000000 a0 b4 77 3e 95 8e 75 3e 17 64 11 c0 2c 78 ac 3f
       0.24189997 0.23980172 -2.271734 1.3474174
000010 53 c8 01 3f 2e 81 3d 3e f8 01 92 c0 48 f8 9c 3e
       0.50696295 0.1850631 -4.5627403 0.30658174
000020 fa 29 96 3f 1c 1b 07 bf 11 61 67 3f 0d 65 d0 3d
       1.173156 -0.5277574 0.90382487 0.10175524
000030 74 0b 6f be 17 98 a4 bd 20 95 80 bf 9a d3 39 3e
       -0.23344213 -0.08036821 -1.0045509 0.18147126
000040 9b f6 08 3f 7e 56 ee bf 2b f8 0d 40 f9 e3 44 c0
       0.5350129 -1.8620145 2.218272 -3.0764143
000050 2e b3 29 3f 83 f8 1f 3f 91 15 c0 c0 ed a8 4e 3f
       0.6628903 0.62488574 -6.0026326 0.8072651
000060 e1 34 41 be fe a5 26 3e 4f 85 8f 3e 58 14 41 3f
       -0.18867828 0.16274258 0.28031394 0.7542167
000070 b3 ed 98 3e 62 9e e8 3e 21 6e 45 bf 40 c0 db 3f
       0.2986885 0.45433336 -0.7712117 1.7168045
000080 fc 24 11 be 02 e1 9c 3e 0e d6 95 3f 56 05 8f 3f
       -0.14174265 0.30640417 1.1705949 1.1173503
000090 b5 52 6a 3d 9f fc d3 3e 92 4f 73 bf 19 9c 66 be
       0.05720778 0.41403672 -0.9504329 -0.22520484
0000a0 37 90 ed 3d c9 70 3c 3d b7 fe c8 bd 39 87 88 3e
       0.115997724 0.046005998 -0.09814208 0.26665667
0000b0 ae d8 fc 3e 1e 20 77 bc 55 e8 7e bf bf bd 28 3e
       0.49384063 -0.015083341 -0.9957326 0.16478632
0000c0 e6 a4 a9 3e 7f 7d 86 3f 23 30 c3 3f 1a 1c 71 3f
       0.3313362 1.0507048 1.5249065 0.94183505
0000d0 09 2f f3 bd 64 5e 7d be c5 90 85 3f 01 df 81 bf
       -0.118742056 -0.24743038 1.0434805 -1.014618
0000e0 84 e4 76 3e 44 1b 0f 3f 67 12 d9 3d 62 f3 c4 be
       0.2411061 0.5590098 0.10599213 -0.38466936
0000f0 0c 69 bc be d2 30 45 3e 84 84 81 bf cc 08 5c 3f
       -0.36798894 0.19256905 -1.0118566 0.8595092
000100 4d de ac 3e 22 97 0d 3f b6 77 a1 bf 49 38 c7 3f
       0.33763352 0.55308735 -1.2614658 1.5564052
000110 54 2c 2b 3f 17 2e 0e 3f 1a 2d 71 c0 3e fe ec 3e
       0.66864514 0.5553908 -3.7683778 0.4628772
000120 dc 47 c5 3f 4c 6f 57 bc a7 68 aa 3f 62 3a c4 3e
       1.5412555 -0.013149094 1.3313187 0.38325793
000130 8c 70 e3 be 52 27 d3 3e ec 6a fb be 09 1f 0c 3f
       -0.44421804 0.41240937 -0.49105012 0.54734856
000140 dc 88 2d 3f 21 45 12 bf 2e 91 02 40 e6 2e 01 c0
       0.67786956 -0.5713673 2.040111 -2.0184875
000150 d5 08 68 3f ca 05 0e 3f ba 0c 62 c0 79 15 65 3f
       0.90638477 0.55477583 -3.5320268 0.8948589
000160 61 68 40 3e 7b 22 76 3f c6 32 ba 3e a2 c3 77 3f
       0.18789817 0.96146363 0.36366862 0.96782887
000170 b3 00 6d 3f 76 64 04 3f 41 3f 79 be ed 5d ab 3f
       0.9257919 0.5171579 -0.24340536 1.3388039
000180 4a 24 ef be 15 2b 24 bf bb 8b c5 3f ba c5 23 bf
       -0.46707374 -0.6412824 1.5433267 -0.6397358
000190 56 b1 a2 be 8f 69 f2 be cb 55 ed 3f e0 45 47 bf
       -0.31775922 -0.4734616 1.8541807 -0.77840996
0001a0 7b 7f 19 be 35 d4 3a 3f 54 59 ee be 43 48 d9 bd
       -0.14990036 0.7298005 -0.46552527 -0.10609486
0001b0 1e 45 a8 bd 4c ba b0 be 0c 48 f7 3e 0b 98 88 bd
       -0.08216308 -0.34517133 0.48297155 -0.06669625
0001c0 45 54 87 bf 35 f6 90 be cb a8 9e bf e5 b0 fc 3f
       -1.0572592 -0.2831284 -1.2395262 1.9741484
0001d0 a0 f6 ff be 86 f0 28 bf bb e8 02 40 79 d0 9d bd
       -0.49992847 -0.6599201 2.0454547 -0.07705779
0001e0 5a 79 0a bf b5 d1 21 bf 03 21 91 bf 47 18 af be
       -0.5409142 -0.6321061 -1.1338199 -0.3419821
0001f0 54 8a cf be a5 93 8b bf 95 bb 49 3f 04 0d 99 bf
       -0.40535223 -1.0904433 0.7880185 -1.1957097
000200 68 f8 b1 3e 48 7d ad 3e 87 c3 c1 bf 8a 30 53 3f
       0.3475983 0.33884645 -1.5137795 0.8249594
000210 cd 2a 1b 3f 3a 0a 27 3e ce b9 96 c0 1c 0a ad 3e
       0.60612184 0.16312495 -4.710181 0.33796775
000220 dc af ca 3f 20 81 e3 bd 4c ae 98 3f f2 65 18 3f
       1.5834918 -0.11108613 1.1928191 0.59530556
000230 9f 48 d9 be e7 9a fa 3d 8e 7a ed be f6 d6 ad 3e
       -0.42438218 0.122365765 -0.46382564 0.33953065
000240 84 20 d7 3e c4 16 2e bf fa f8 a8 3f 2f a9 02 c0
       0.42016995 -0.6800349 1.3200982 -2.0415761
000250 76 fa 2d 3f 51 32 04 3f 0e 48 0b c1 d1 82 5c 3f
       0.679603 0.51639277 -8.705091 0.8613711
000260 3c 1e f8 be bf e3 6b 3f 29 26 d5 bb 77 ed 5e 3f
       -0.48460567 0.9214439 -0.006504793 0.8708109
000270 00 35 0d 3f d7 1b 8d 3e cd 43 d7 be f3 92 47 3f
       0.55158997 0.27560303 -0.42043915 0.779586
000280 92 2e c2 3e f5 8c 8d 3e 50 13 a2 bf e7 75 b9 3f
       0.37926155 0.27646604 -1.2662144 1.4489106
000290 10 e1 fa 3e 51 3e 1e 3f f0 ae 72 c0 b4 df be 3e
       0.48999834 0.6181384 -3.7919273 0.37280047
0002a0 64 74 b3 3f a3 95 16 be bf ed 96 3f 9c a3 19 3f
       1.4019895 -0.1470552 1.1791304 0.60015273
0002b0 76 59 26 be 60 9e 74 3e ac 5f 16 bf 00 00 1a 3f
       -0.16245064 0.2388854 -0.58739734 0.6015625
0002c0 e1 98 24 3f 6e 5f 28 bf d3 33 ef 3f 7d 48 e5 bf
       0.64295775 -0.65770614 1.868769 -1.7912747
0002d0 e5 1b 6b 3f 8c 54 0f 3f 32 45 6b c0 4b 94 70 3f
       0.9183944 0.55988383 -3.6760983 0.9397628
0002e0 d4 ea ba 3d cb c2 3b 3f 9b af aa 3c 7b be 84 3f
       0.09126821 0.73344105 0.020835688 1.037063
0002f0 2d 0e 52 3f 31 c5 ad 3e b0 a0 54 be ad df 9b 3f
       0.8205288 0.33939508 -0.20764422 1.2177635
000300 b6 2e e6 3e 17 ad 34 3f 04 69 a7 be 5c 24 51 c0
       0.44957513 0.70576614 -0.32697308 -3.2678442
000310 27 55 b3 3e 77 cd 63 3e ef 1e 98 40 3e 73 04 3f
       0.35025904 0.22246347 4.753776 0.51738346
000320 50 b9 28 bf d7 66 a3 3e 6e 81 a2 be 64 60 25 3f
       -0.65907764 0.31914398 -0.31739372 0.64600205
000330 9b 14 1e 3e 20 e5 83 3f 16 ee 43 bf 88 e8 5c 3f
       0.15437548 1.0304298 -0.76535165 0.86292315
000340 78 77 27 3e ca ec 7c 3f 19 cf 2f c0 bc 44 46 40
       0.16354167 0.9879881 -2.7470152 3.0979452
000350 9f 8b 59 bf a1 2a ee 3e 1e 30 88 40 23 38 76 be
       -0.8497867 0.46516898 4.2558737 -0.24044852
000360 58 1c 58 be 84 87 9e be a6 22 ae 3e 0b e7 88 bf
       -0.21104562 -0.30962765 0.3401081 -1.0695509
000370 90 20 f9 be 31 ff 35 3f ce 76 51 c0 28 a8 c7 bf
       -0.48657656 0.71092516 -3.2728763 -1.5598192
000380 8f d8 c7 3e d4 58 06 3f b7 d0 47 c0 6b 2f 9c 3f
       0.3903241 0.5247929 -3.122114 1.2201971
000390 36 f6 de 3e 60 86 b1 3e 0c 9e a2 c0 6e a4 16 3f
       0.4354722 0.34672832 -5.081793 0.5884465
0003a0 2c 97 a9 3f a0 76 9d bf a4 44 88 3f 7f 91 99 3e
       1.3249259 -1.2301826 1.0645947 0.29993817
0003b0 f1 c0 e8 bc fd 1d 30 bc e3 bf 20 bf 23 b2 02 3f
       -0.028412314 -0.010749337 -0.62792796 0.51053065
0003c0 3a 26 86 3e 74 a1 1d c0 0c f6 be 3f 92 13 82 c0
       0.2620104 -2.4629793 1.4918838 -4.064889
0003d0 1a 07 6f 3f 5c c5 10 3f 97 ee f7 c0 03 f0 81 3f
       0.9337021 0.56551147 -7.7478747 1.0151371
0003e0 a7 85 78 bf 83 70 18 3d 64 76 0d 3f 68 f3 55 3f
       -0.9707894 0.037216675 0.55258775 0.83574533
0003f0 5f 23 3f 3f 0f 7e 02 3f 9c 4e df be 71 f0 95 3f
       0.74663347 0.509736 -0.43614662 1.1714002

fc2.bias f4 [32]
000000 fa 77 ea 3e 36 61 8f 3e 06 48 12 3f c9 49 1c bf
       0.4579466 0.28003854 0.5714115 -0.6105009
000010 1c e0 6f 3e d3 bf 11 3f 70 b4 00 3f a2 e1 c9 3e
       0.23425335 0.56933326 0.50275326 0.39429957
000020 5c 31 81 3e 97 be b3 3e 65 e0 bc 3e 00 68 cd 3e
       0.2523297 0.35106346 0.3688995 0.40118408
000030 62 ac 1b be fa 46 57 3e 46 c9 71 be d7 21 95 3e
       -0.15202478 0.21023169 -0.23611936 0.2912738
000040 ef c3 1c 3f 71 2b 06 3f 4f eb 6c 3e 59 10 dd 3e
       0.6123647 0.52410036 0.23136638 0.43176535
000050 36 fb 1c 3d 03 12 01 bf 7e 8e 0b be c8 5e 31 3e
       0.03832551 -0.5041811 -0.13628575 0.17321312
000060 b6 40 a5 3e 66 9d 8d 3e d7 d2 d1 3d a8 46 ad be
       0.32275933 0.27659148 0.10245293 -0.3384297
000070 f3 1f 72 3e 9b ad 83 3e c3 18 7e be 98 c5 3b 3e
       0.23645 0.25718388 -0.24814133 0.18337095

dist.linear.weight f4 [2, 32]
000000 78 3d 17 3d 32 a1 c1 be b5 99 8b be d4 23 e5 3f
       0.036923856 -0.37818295 -0.27265707 1.7901559
000010 3b 04 a7 be 4e c3 aa bd 5e c5 6d 3e e0 0b 86 3e
       -0.32620415 -0.08338033 0.23219821 0.26180935
000020 ea b1 d8 be 75 c9 bb be 7f 03 29 3f f4 90 fc 3e
       -0.42323238 -0.36677137 0.6602096 0.4932934
000030 14 99 02 bd a1 5b 63 be ab 6a ed 3e b6 e2 a4 be
       -0.031884268 -0.22202922 0.46370444 -0.32204217
000040 dc 6d 20 3f 51 b3 5f be 86 65 c3 3d 05 bd be bc
       0.6266763 -0.21845748 0.095408484 -0.02328349
000050 9c 30 b9 3e ee 74 98 3f 0b 9e 00 3e 8c b7 1d bf
       0.361699 1.1910684 0.12560289 -0.61608195
000060 30 14 01 3f d9 54 88 3c b3 96 e4 3b 4a ba 0f 3f
       0.5042143 0.016642021 0.0069759726 0.5614363
000070 1b 27 7b 39 9d ed 30 be 38 ab d4 3e 36 1c b8 3d
       0.00023951793 -0.17278142 0.4153688 0.08989756
000080 93 1e 60 be 31 a2 d5 3e bf 52 99 3e 09 38 c4 bf
       -0.21886663 0.41725305 0.29945943 -1.53296
000090 be 29 de 3c bf 02 ed 3c 19 fc 83 be fd aa 03 bf
       0.027119514 0.028931974 -0.25778273 -0.5143278
0000a0 34 1d 16 3f f1 05 a5 3e 26 5d 3f bf aa b4 01 bf
       0.5863831 0.32231095 -0.7475151 -0.50666296
0000b0 28 be be bc 51 4f 8f 3e 09 ea 34 bf 78 2a 62 3e
       -0.023284033 0.279902 -0.7066961 0.22086513
0000c0 02 67 cb be 96 5f 87 3e d5 c9 9c be 20 b3 f2 3d
       -0.39727026 0.26440114 -0.30622736 0.11850572
0000d0 cd 8f 58 be 9f ae 91 bf 3a 00 85 3d 05 37 01 3f
       -0.21148606 -1.1381415 0.06494184 0.5047458
0000e0 e5 9e 11 bf a2 02 03 bc 17 20 2a bd 9e 61 ed be
       -0.5688308 -0.007996233 -0.04153451 -0.46363539
0000f0 98 12 52 be 47 04 e1 3e 2b 21 c6 be ef 6c 53 3d
       -0.20514905 0.43948576 -0.3869718 0.05161756

dist.linear.bias f4 [2]
000000 f8 e0 60 3f 91 f3 88 bf
       0.87843275 -1.069933

critic.weight f4 [1, 32]
000000 36 7c 02 40 a4 cd 3a 40 03 4c 01 3f b2 b2 2d bf
       2.0388312 2.9188013 0.5050661 -0.6785079
000010 b5 6b 2d 3f 33 da fd 3e 60 01 8a c0 cb a3 1e 40
       0.6774247 0.49580535 -4.312668 2.4787471
000020 a9 03 29 3f c4 c1 03 3f 5c 77 53 3f 5f aa 2d 3f
       0.6602121 0.5146754 0.82604 0.6783809
000030 1e 4c 92 bc df db 25 3f 58 c6 99 c0 0b 6e 24 3f
       -0.017858561 0.6478862 -4.805462 0.6423041
000040 0d cc 11 3f a2 83 d2 bf 3a 10 a3 c0 fe bc 0d 3f
       0.5695198 -1.6446421 -5.095731 0.55366504
000050 bb 00 8c 3e f2 1b 3b bf d8 c1 93 bc e1 8d 10 c0
       0.27344307 -0.73089516 -0.018036768 -2.2586596
000060 32 15 1f 40 ba 4b 58 40 c0 08 92 40 a9 cb c6 bf
       2.4856687 3.379622 4.563568 -1.5530902
000070 c4 92 2c 3f dd 90 20 3f 93 13 33 c0 e3 4c 78 40
       0.67411447 0.62721044 -2.7980697 3.8796928
