CartPole/ppo/CartPole-v0/lr_0.0002/coeff_entropy_0.0001/batch_size_512/horizon_2048/policy.pth (torch_old, 11859 bytes, 11 tensors)

act_fc1.weight f4 [32, 4]
000000 71 33 b0 3e 4c 7e 64 3e 29 28 a4 3e 11 1d 80 3e
       0.34414247 0.22313803 0.3206189 0.25022176
000010 d3 61 8d bd 11 a8 89 3e 54 56 dd 3d b9 53 27 be
       -0.06903424 0.26886037 0.108074814 -0.16340531
000020 c6 92 70 3e 66 07 14 be 23 6d d3 3e 1c 77 d0 bc
       0.2349349 -0.14455947 0.41294202 -0.02544742
000030 74 c3 9d 3e 07 b0 cf 3e ef 3b 84 be 57 83 07 3e
       0.3081318 0.40563986 -0.25826976 0.13233696
000040 7a d6 25 be c4 45 d7 be ae 26 95 be 8f 2c dc 3e
       -0.16195098 -0.42045414 -0.29131073 0.43002746
000050 1d 61 cb 3e 7a 2b ba be 43 e9 c0 3e 08 10 de be
       0.3972253 -0.36361295 0.37677965 -0.43371606
000060 78 9e 32 be aa eb 96 be 7d 72 ff be 8a 0f a5 3c
       -0.17443264 -0.29476672 -0.49892035 0.020149011
000070 32 78 ab 3e ad d0 fd be e5 a9 b9 be bc 98 12 3d
       0.3349014 -0.4957327 -0.36262432 0.03579019
000080 11 bb b9 be fc 93 97 3e fd 72 9f 3d ad 13 d1 bc
       -0.36275533 0.2960509 0.07785604 -0.025522077
000090 a5 b7 86 be 57 50 bf 3e e0 5f d2 3e 64 0c 70 3e
       -0.26311985 0.37365982 0.41088772 0.23442227
0000a0 0c c9 19 3e f2 5d e8 3e 75 5f f4 be f0 ff 5f be
       0.150181 0.45384175 -0.47729078 -0.21874976
0000b0 47 e4 a8 3c a0 37 70 bd b3 71 5b 3e 83 b4 59 3d
       0.020616664 -0.058646798 0.21430092 0.053150665
0000c0 01 95 03 3e 51 a4 ad be 8b 1d f5 be 66 41 8e be
       0.12849809 -0.33914426 -0.47874102 -0.2778427
0000d0 12 89 81 3e 79 28 f7 bd 5b 00 ae 3e 8c 6c 33 3e
       0.2529989 -0.120682664 0.33984646 0.17521876
0000e0 54 95 f5 3e 8c 4a a6 be 3f 6d 81 3e a5 14 ef 3d
       0.4796549 -0.3247875 0.2527866 0.116738595
0000f0 4c 45 44 be 97 da 43 bc 1a 23 c5 3e 21 51 35 3e
       -0.1916706 -0.011953971 0.38503343 0.1770673
000100 8c 50 4c be c2 33 25 be f2 ce 92 3e 1f 51 6c be
       -0.19952601 -0.16133025 0.28673512 -0.2307782
000110 e8 2e 94 3e f7 98 bc 3e d3 05 a2 3d c4 6f ae 3e
       0.28942037 0.36835453 0.07911267 0.34069645
000120 34 f5 d0 3e 6e d6 a1 be 9a df a7 3d f4 30 57 be
       0.40812075 -0.3160891 0.081969455 -0.21014768
000130 66 21 dc be 09 61 13 3e 2e c8 81 be 72 db fa 3e
       -0.4299423 0.14392485 -0.25348037 0.48995548
000140 d9 4f ef be c4 55 96 3e dd 88 c1 3d 12 68 ca 3e
       -0.46740606 0.2936231 0.09449933 0.39532524
000150 92 39 e9 3e 5c b1 40 be 1b a3 21 bd 77 74 b1 3e
       0.45551735 -0.18817657 -0.03946219 0.34659168
000160 bc c6 51 be a6 cb e4 be 87 10 de 3e a1 6a 9b be
       -0.20485967 -0.4468662 0.43371984 -0.3035479
000170 4f 84 dc 3e f1 15 d2 3e d1 43 09 3e f9 49 c5 be
       0.43069693 0.41032365 0.13404776 -0.38533
000180 3c a2 51 3e f1 34 d8 be 65 b5 84 3e 05 e3 77 be
       0.20472044 -0.4222789 0.25919643 -0.24207695
000190 f1 87 e3 3e c0 ca f1 bd 3a 68 2f be f5 e9 09 3e
       0.44439653 -0.118062496 -0.17129603 0.13468154
0001a0 06 f7 e8 bd bd d0 f6 3d 32 65 c6 be 3a a4 32 3e
       -0.11375241 0.120515324 -0.3874908 0.1744546
0001b0 91 c6 d0 3c 59 01 50 be 00 e4 f0 3d d0 15 3e 3e
       0.025485309 -0.20313014 0.117622375 0.18563008
0001c0 0d 66 c4 3d d6 b4 2d 3e 04 9f b2 be 89 f5 7d 3e
       0.09589777 0.16963515 -0.34886944 0.24800695
0001d0 62 da 6f bb b0 ea b5 3e 4a 49 5d be 40 e7 e3 3c
       -0.0036598672 0.35530615 -0.21609989 0.02782023
0001e0 f9 69 c8 bd 48 48 57 3e 5e 8b 90 3e 64 b4 8a bc
       -0.09785838 0.21023667 0.2823133 -0.01693172
0001f0 87 21 f5 bd c5 6c e2 bd e1 30 a4 3e c1 d9 9b 3e
       -0.119692855 -0.110559024 0.32068542 0.3043957

act_fc1.bias f4 [32]
000000 db 39 1e 3e 71 e2 c5 3e 4c 2a 12 3c 61 c9 f2 bc
       0.15451758 0.38649324 0.008921217 -0.02963704
000010 20 59 89 be c9 cb af 3d 59 9d 48 be 27 bd 26 3e
       -0.2682581 0.08583791 -0.19591273 0.16283093
000020 78 eb b7 bd 5f 1b e4 3e d9 06 3a 3e 27 b5 d5 3e
       -0.08980459 0.44552132 0.18166675 0.4173977
000030 85 93 0d 3e e6 ce d1 3e 2d 6d 93 3e ea f0 b0 bc
       0.13825805 0.40978163 0.28794232 -0.021599252
000040 02 f5 91 3e eb 42 41 be 86 12 1c be db 0f 5a 3e
       0.2850724 -0.18873183 -0.15241441 0.21295111
000050 3f f7 32 3e 35 07 51 3e ed 47 72 be 14 34 7b be
       0.1747713 0.20412906 -0.2366025 -0.24531585
000060 3a 1c 93 3e 61 b9 f8 bd b2 a3 17 3d e6 f7 ce 3e
       0.28732473 -0.12144733 0.037021346 0.40423506
000070 10 a5 68 be fc cf 7f 3c 5c e8 12 bd 23 8c fe 3e
       -0.22719216 0.015613552 -0.035866126 0.4971629

act_fc2.weight f4 [32, 32]
000000 f6 80 1f be 2d 31 35 be ff 81 1f bd c7 9a 36 be
       -0.15576538 -0.1769454 -0.038942333 -0.1783248
000010 9e be 18 3e 66 44 27 bd 1f 95 e0 bd e1 62 31 3e
       0.14916465 -0.040836714 -0.109659426 0.17322876
000020 f9 62 8b 3d 68 2d cc bd b4 e0 82 3d 8c f8 33 3e
       0.06805987 -0.09969598 0.06390515 0.17575282
000030 55 29 8e 3c 79 3e 0f bd af 50 cd 3d 72 8e 9f bd
       0.017353693 -0.034971688 0.10025155 -0.07790841
000040 7b a1 db bd 51 57 af 3c 2a a9 af 3d b4 ff 21 3e
       -0.10724159 0.02140394 0.08577187 0.15820199
000050 ef 25 df 3d 0e d2 5a 3d e7 ea da bd ad c9 fe bd
       0.10895907 0.05342298 -0.10689335 -0.1244081
000060 84 ca 8c bd 43 54 f8 bd be bb 86 3d 99 80 d2 3c
       -0.06874564 -0.12125447 0.06578778 0.025696086
000070 b2 7f ef bd cd 1f 5f bd 0c 56 b6 bd 1e 2a 31 be
       -0.11694278 -0.054473687 -0.08903131 -0.17301223
000080 07 8d 77 3d df 25 85 bc d6 71 0a bd 62 2e 0c be
       0.06043723 -0.01625341 -0.03379997 -0.13689569
000090 15 3a cb bd 8b 96 2b be d4 6c 1f be 17 6f aa 3d
       -0.09923188 -0.16756646 -0.15568858 0.0832197
0000a0 57 ba 18 bb 6e bf d0 3d 4f 7f 71 3d a6 9a 21 3d
       -0.0023304427 0.10192762 0.0589593 0.039454125
0000b0 71 77 a0 bd d1 b3 bf bd 30 c9 ac 3d df 58 0a 3e
       -0.07835282 -0.09360469 0.08436811 0.13510464
0000c0 e4 34 de bd 74 9e 69 3d d0 7b aa 3c 72 34 10 be
       -0.10849932 0.05703588 0.020810992 -0.14082506
0000d0 1d 07 2a 3e fb 21 29 bc 17 fc e1 bc 59 91 1c 3c
       0.16604276 -0.010323043 -0.027586026 0.009556138
0000e0 74 9a 9a 3c 6f 73 a7 bd 6a 7b 30 3e 09 e5 be bd
       0.018872477 -0.08176314 0.17234579 -0.09321029
0000f0 60 40 2d be a1 8b 4b bb da 67 2e 3e a2 1b a8 3d
       -0.16919088 -0.0031058567 0.17031804 0.082083955
000100 41 86 d1 bd d2 30 c1 bd 92 f6 a1 3d 59 13 08 3e
       -0.10230685 -0.0943314 0.07908358 0.1328863
000110 05 37 09 be 20 a2 fa 3d 09 9c d3 bd 7c d6 c5 bb
       -0.13399895 0.12237954 -0.10332496 -0.0060375314
000120 80 7f b7 bd a3 31 5f bd 88 f8 b3 3d cd f3 b5 3d
       -0.089598656 -0.054490697 0.08787638 0.08884392
000130 ba 02 88 3d ad 20 27 bd 26 28 26 3c bf f6 e2 3d
       0.06641145 -0.040802646 0.010141408 0.11082219
000140 d5 8b 21 be ed f2 93 3d 00 ee b9 bd e3 4b 1a be
       -0.15775998 0.07224069 -0.09078598 -0.15068011
000150 df ad ae 3c 8d 6b 8c 3d 81 53 ed 3d 81 36 2a be
       0.021323143 0.06856451 0.11588193 -0.16622354
000160 50 4f 41 bd 19 54 9b bd 9e 69 b5 3d d9 c9 f8 3d
       -0.04719478 -0.075844 0.088580355 0.121478744
000170 11 bb 1f 3e d5 82 06 3e 99 49 10 be d2 dc 47 bd
       0.15598704 0.13135846 -0.14090575 -0.048794575
000180 e7 70 1d be 2b ce 0e 3e 2f f9 c1 3d 5b e3 e3 bd
       -0.153751 0.13945834 0.09471356 -0.11127349
000190 3b a5 94 3d b0 9a 3b bc ce e0 06 3e 24 ab ba 3b
       0.07258078 -0.011450455 0.13171694 0.005696671
0001a0 bc 0b 16 be 54 cc 17 be c6 09 29 3e 6e b9 d7 bd
       -0.14652914 -0.14824039 0.16507635 -0.10533415
0001b0 b5 ae e1 3d 6e ba 21 3e d4 72 26 be 99 8c 17 bc
       0.11019651 0.15793774 -0.16254741 -0.00924983
0001c0 c1 b9 bc bd 37 bf c9 3c db 59 04 be b1 f3 d5 3d
       -0.09215117 0.024627311 -0.12924902 0.10446871
0001d0 14 9e 68 3b be 66 8b bd 39 44 05 bc 44 41 26 3e
       0.0035494613 -0.06806706 -0.008133941 0.16235834
0001e0 1b 2b f1 ba 97 60 2f bd d9 15 2c 3e e9 8d 0c be
       -0.0018399687 -0.042816725 0.16805209 -0.1372601
0001f0 59 28 50 bc 87 7a 5f 3d 5d 86 0c 3e 00 c5 04 3e
       -0.012704932 0.05456021 0.1372313 0.12965775
000200 81 6a 24 bd bf fb 2b 3e 5d 64 e4 3c eb 74 bb bd
       -0.040140633 0.16795252 0.027879888 -0.0915316
000210 10 ef f6 bd 44 68 0e 3e 08 c4 92 bd cf 1a ba bd
       -0.12057316 0.13906962 -0.07166296 -0.090871446
000220 69 56 ca bd bf 9a 05 3e 04 d8 46 3c f1 0e 05 3e
       -0.09879763 0.13047312 0.012136463 0.12993981
000230 d8 b9 af bd d7 de 92 3b e8 b8 88 3d ca e8 25 be
       -0.08580369 0.004482131 0.06675893 -0.16202083
000240 40 8c 2c bc b7 a0 1c 3d f2 14 df bd 1d 1e 2e be
       -0.010531485 0.038239207 -0.10892667 -0.17003675
000250 79 bb 8a 3d 24 64 2d 3e ca d2 35 be 85 68 85 3d
       0.06774039 0.16932732 -0.17756191 0.06514076
000260 60 ec 1e be b0 1e 93 3d 08 7a 2f 3e 5e 39 be bd
       -0.15519857 0.071835876 0.17136395 -0.09288286
000270 77 12 02 be 41 4f ac 3d 89 42 52 bd c7 b6 85 bd
       -0.12702356 0.08413554 -0.051332984 -0.06529003
000280 c8 eb aa 3c 47 9b 50 3d 09 ac 2c be 2b 28 1e 3e
       0.020864382 0.050929334 -0.16862501 0.1544501
000290 4a a9 14 3e 35 f7 88 3d 3d 0f cb bd 5b 1c 25 bd
       0.14517704 0.06687776 -0.09915016 -0.040310245
0002a0 5e d7 83 3c a8 9e 76 3d fc 61 96 bd c7 c0 81 bd
       0.016093906 0.0602099 -0.07342908 -0.063355975
0002b0 a3 40 15 be 40 ea 60 bd 4a 5f 7a 3d b1 49 fd bd
       -0.14575438 -0.0549109 0.06112603 -0.12367571
0002c0 04 ce e5 bd 1f e3 dd bd 42 2e 4d 3d f4 b1 e2 bd
       -0.11220935 -0.108343355 0.050092943 -0.11069098
0002d0 14 b5 04 be 46 13 28 be 48 9c 1a 3e c9 2b 05 3e
       -0.12959701 -0.16413602 0.15098679 0.13004984
0002e0 1c 8a fa 3a dd a2 e9 bd 5b a5 d2 bd 9c 63 0a be
       0.0019114646 -0.11408017 -0.10285445 -0.1351456
0002f0 0f f2 ba bd 2a 72 e3 3d 3e e2 9f bd 82 4e b5 bd
       -0.091282 0.111057594 -0.07806824 -0.08852865
000300 91 67 fc 3d 25 56 02 3d 3f a5 9f bd 65 eb 1e be
       0.12324441 0.031820435 -0.0779519 -0.15519483
000310 46 3a 53 3d a6 20 22 be f6 4d 8c 3b 3e 4e 33 be
       0.051569246 -0.15832767 0.0042817546 -0.17510316
000320 21 a7 2d 3c f3 8f b1 bd 13 e1 8b 3c d5 da 59 3d
       0.010598929 -0.08670034 0.017075097 0.05318721
000330 1e d2 33 be a7 8a 2f be 79 5b 87 3c c8 83 b4 3d
       -0.17560622 -0.17142735 0.01652311 0.08814198
000340 a3 5f ca 3d 18 33 ef 3c 34 db bc bd 49 86 52 3b
       0.098815225 0.029199168 -0.09221497 0.0032123497
000350 a2 09 02 be b2 da 78 bd 8c c9 f1 bd 92 4e 05 bc
       -0.12698987 -0.06075544 -0.1180602 -0.008136408
000360 43 0c d2 3d 11 57 07 bd 88 56 2d 3e a8 f7 e8 3c
       0.10256245 -0.033042017 0.1692754 0.028438404
000370 54 ef 43 bd e5 c5 08 bd 84 b3 24 3d 5a 0c 6e bd
       -0.047835663 -0.033391852 0.040210262 -0.058117248
000380 38 bb 89 bd 2c 1b cc 3d de 28 76 bd 8d dc 09 3e
       -0.06725162 0.0996612 -0.060097568 0.1346304
000390 46 7a 71 bd 2e 61 30 3e 3f 29 28 be 77 c5 0f 3e
       -0.0589545 0.17224571 -0.16421984 0.1404017
0003a0 67 29 d3 3d 2c f1 5a 3d 7f 5c 77 bd 09 fd 62 ba
       0.10310631 0.053452656 -0.060390946 -0.0008658921
0003b0 ae e8 18 3e 8d 09 18 3e eb df 6a 3d 41 2a b5 bd
       0.1493251 0.14847393 0.05734245 -0.0884595
0003c0 30 4a 28 3e 37 d0 b8 bd 74 19 6f 3d 16 40 10 bb
       0.1643455 -0.09024089 0.058373883 -0.0022010854
0003d0 11 fa 3b 3c f1 ca 9e 3d 94 b3 1c 3d d5 0e 12 3e
       0.011473195 0.07753552 0.038257197 0.1426347
0003e0 e6 56 19 3c d1 46 56 bc f7 36 32 3e 2c 99 86 bc
       0.009359097 -0.013078407 0.1740378 -0.01643046
0003f0 b5 4c ae 3d d8 7b 31 be 89 1e 0c be 32 b6 15 3d
       0.085107245 -0.17332399 -0.13683523 0.036550708

act_fc2.bias f4 [32]
000000 90 62 3f bd 81 6d 14 be 72 18 14 be 23 86 11 be
       -0.046724856 -0.14494897 -0.1446245 -0.14211325
000010 22 83 9d 3c 6d b4 32 be e7 a1 33 3e a1 0e 87 3c
       0.019227568 -0.1745164 0.1754223 0.016486468
000020 f5 17 26 be f3 01 97 bd 19 3c b4 3d b0 4b 4f bd
       -0.16220076 -0.07373419 0.08800525 -0.05060929
000030 70 7e 1f 3e 50 1d d7 3d de 0d c6 3d b8 63 a6 3d
       0.15575576 0.10503638 0.09670614 0.081244886
000040 a8 28 1c 3e ad 3a 1e be 5e ae 07 3e 2d 96 fc bc
       0.15249884 -0.1545207 0.1325011 -0.030833328
000050 88 7e d2 bd 57 21 00 be 61 e4 30 bd 3d c2 80 3d
       -0.1027804 -0.12512718 -0.04318655 0.06287048
000060 e4 65 76 bd a6 38 b6 bd c9 6b 17 3c 8b 9d 1f be
       -0.060155764 -0.088975236 0.009242007 -0.15587442
000070 57 4b ce bb 9e 03 1d be 62 e3 8f 3b bc 77 12 be
       -0.0062956023 -0.15333411 0.00439112 -0.14303488

mu.weight f4 [2, 32]
000000 9e 1e 57 3d 27 ae ba bc b7 96 4a bd 88 77 d2 bd
       0.052519433 -0.02278812 -0.04946014 -0.10276705
000010 af d4 85 bb 6b 6c 36 be 6d 25 c3 bd bc a5 8d 3d
       -0.0040841918 -0.17814796 -0.09528623 0.06916377
000020 50 db 44 bd 17 33 39 bd fb b6 fb 3d 42 b5 f1 3c
       -0.048060715 -0.04521474 0.1229076 0.029505376
000030 29 35 01 be 3a 48 c6 3d fc 99 16 3e a6 ea 87 3d
       -0.12617935 0.09681745 0.14707178 0.066365525
000040 e7 0d 69 bc 21 14 42 bd 70 96 5b 3d b1 d8 ee 3d
       -0.014224506 -0.047382478 0.053610265 0.11662424
000050 98 27 84 3d 65 8d 0b 3e 67 b8 ff bd 48 e0 90 3d
       0.064528644 0.13628156 -0.12486344 0.07074028
000060 ab 4c 53 ba 4f 2e 02 be a5 2f 2e bc 52 bc 5f bd
       -0.00080604356 -0.12712978 -0.0106314765 -0.054622956
000070 66 3d 7e 3d a2 ac 08 3e df 4b d9 bd 04 2b 61 3d
       0.062070273 0.13347104 -0.106101744 0.054972664
000080 f7 2a c9 3c 87 a9 11 bc 6f b7 0e be d4 41 0a 3e
       0.02455662 -0.008890516 -0.13937162 0.13501674
000090 98 7e 93 3d d9 93 00 be 87 51 d3 3b 92 37 be 3c
       0.0720188 -0.125564 0.006448928 0.023219857
0000a0 22 2d 31 be 81 81 44 bd df 2e f9 bc db dd 01 3d
       -0.17302373 -0.047975067 -0.030417858 0.03170572
0000b0 79 d7 e5 bd 85 9a 07 3e 88 3d e6 bd 5e f8 09 be
       -0.11222739 0.13242538 -0.11242205 -0.13473651
0000c0 eb 80 2d be 5b 2b b2 bc e8 d7 08 bd 01 67 15 3e
       -0.1694371 -0.02174919 -0.03340903 0.14590074
0000d0 f7 a4 b1 bd 15 ca 50 bd 44 ba b4 3d c0 05 c2 3d
       -0.08674043 -0.05097397 0.0882459 0.09473753
0000e0 4d 29 cb 3d 79 05 8d bd fb de 18 3e 8b c3 01 be
       0.09919987 -0.068858095 0.1492881 -0.1267225
0000f0 ed 55 64 3c b7 d9 0e bd 76 28 c1 bd cc ba 48 3d
       0.013936502 -0.034875598 -0.094315454 0.04900627

mu.bias f4 [2]
000000 e2 2b 31 3e d0 79 00 3d
       0.17301896 0.03136617

value_fc1.weight f4 [32, 4]
000000 c4 0c d6 3e 7d 37 f7 be 25 d9 9f be e7 39 a8 be
       0.41806614 -0.48284522 -0.31220356 -0.32856676
000010 85 7d 5f 3e 1c 6b 2b be 3b 57 ee be 1e 88 3f be
       0.21825226 -0.16740078 -0.46550927 -0.18704268
000020 95 ac 39 3e 51 98 7a 3d d9 d6 e1 3e 04 e5 9b be
       0.18132241 0.061180416 0.44109228 -0.30448163
000030 55 c5 09 3e 89 d6 45 3e 65 bd ad be 89 dc 83 be
       0.13454182 0.1932012 -0.3393356 -0.25754192
000040 6b 6d a3 3e b4 f3 2b bd 7e dc e0 be 6b 09 84 3e
       0.31919417 -0.04198046 -0.43918222 0.25788435
000050 95 88 08 be 00 fd 36 3e 36 52 29 be 2d 7c 8a 3e
       -0.13333352 0.1786995 -0.16535267 0.27047864
000060 56 d1 22 3d c1 60 c8 be a1 a9 af 3d 1b bd 7c bd
       0.03975042 -0.39136317 0.08577276 -0.061703783
000070 a1 42 54 3e 25 a2 46 3e 33 73 95 be 6e fd e7 3d
       0.20728542 0.1939779 -0.29189453 0.11327635
000080 6c 5a c2 be 75 bf c5 3e 57 dd 00 bf bb cd f9 3e
       -0.3795961 0.38622633 -0.5033774 0.48789772
000090 bf a4 ed 3e b1 52 21 3e 9e e1 ca be ec bd 13 3e
       0.46414754 0.157542 -0.39625257 0.14427918
0000a0 3c 02 ac 3e 23 27 13 3e 1b 91 15 be b3 4a b9 bd
       0.33595455 0.14370398 -0.14606135 -0.09047451
0000b0 33 a9 df 3e 30 5a 9b be c5 6c 7c bd 8b 1f a3 3e
       0.43683776 -0.30342245 -0.06162717 0.31860003
0000c0 4e 77 d3 3d 24 56 35 3e c0 f2 0b bd 84 4e 6b be
       0.1032549 0.17708641 -0.03416705 -0.2297917
0000d0 29 b5 96 3e 6b 42 c3 3d 03 7c af be 42 d1 60 be
       0.2943509 0.095341526 -0.342743 -0.21954826
0000e0 8b c3 68 be 78 6f bb be 9e 62 9c be 66 9b d4 be
       -0.22730844 -0.3660848 -0.3054399 -0.4152481
0000f0 1a f1 2a 3e ac 16 87 be cd 5c 17 3c d8 75 cd be
       0.16693535 -0.26384485 0.009238434 -0.4012897
000100 9a fa 5a be 89 af 91 bc 45 4e 8b 3d 57 9f 32 be
       -0.2138466 -0.017783897 0.06802038 -0.17443596
000110 ab 45 03 be fd ac ac bb 81 79 bf be 8c 1d e1 bd
       -0.12819545 -0.0052696452 -0.37397388 -0.10991964
000120 01 90 2e be 0b 0a 7c be be ff a7 3e c0 a9 9a be
       -0.1704712 -0.24613206 0.32812303 -0.30207634
000130 fd d6 c5 3d 50 41 a4 be 91 0c 5a 3e 53 98 5f 3e
       0.096601464 -0.3208108 0.21293856 0.21835451
000140 d7 a6 32 be 01 05 ff 3e 07 18 6e 3e 4a fc 5c 3d
       -0.17446457 0.49808505 0.23251353 0.05395154
000150 62 cf 25 3e 04 b2 cd bd b9 7b 81 3e ba ce bb 3e
       0.16192392 -0.100437194 0.25289705 0.36681157
000160 02 63 d8 3e c8 e5 c4 3e 51 9e d2 be 33 da af 3d
       0.42263037 0.3845656 -0.4113641 0.0858654
000170 0c de a5 3d 1d 1d aa be 77 a3 1b be fb 33 19 be
       0.08098993 -0.33225337 -0.15199076 -0.14961235
000180 b5 0b 3e 3c 44 f7 16 3e bb 2f f1 3e 60 a1 97 3e
       0.011599471 0.14742762 0.47106728 0.29615307
000190 0c ee 56 3e 36 20 89 3e b5 32 95 3d 8a f3 03 be
       0.20989245 0.26782387 0.07285062 -0.12885872
0001a0 94 0d d4 bd d8 d9 92 3e dd dd f2 3e e1 b8 aa bd
       -0.10354152 0.28681827 0.47434893 -0.08336044
0001b0 01 8f 94 be 01 65 b2 3e f7 1c 2f be 22 00 a9 3e
       -0.29015353 0.34842685 -0.17100893 0.33007914
0001c0 1a 69 f7 3d 09 20 bb be 11 0d 56 3e 7d 81 1d be
       0.120805934 -0.36547878 0.20903422 -0.15381427
0001d0 a5 d5 cd 3e 73 8a 48 be 91 48 ef 3e 23 c1 aa be
       0.4020206 -0.19584064 0.4673505 -0.33350477
0001e0 64 8d ef bc 1c 01 ba be 83 bd 7e bd 4a bb 3a be
       -0.029242225 -0.3632897 -0.06219245 -0.18235508
0001f0 a3 70 7b bd 54 6c b6 3e 5d 28 a4 3e e4 53 5e be
       -0.061386716 0.35629523 0.32062045 -0.21711689

value_fc1.bias f4 [32]
000000 14 1d 0d bf f9 10 27 3e 19 d9 b5 be 22 df 1e 3f
       -0.55122495 0.16315068 -0.35517195 0.62059224
000010 7b 9b 6e be 00 a4 70 be 2d b8 09 bf f0 18 12 3f
       -0.23301499 -0.23500061 -0.53796655 0.570693
000020 f0 75 83 be 20 d7 4c 3e 22 8e 1e be 8e 13 03 3f
       -0.25675917 0.20003939 -0.15483907 0.51201713
000030 44 de 08 bf e6 64 1c 3f 74 a7 98 3e 0c d3 9c 3e
       -0.5346415 0.6109146 0.29815257 0.30629766
000040 45 17 ec 3e 45 9c a2 be 42 80 d2 3e 69 be 55 3e
       0.46111503 -0.3175985 0.41113478 0.20873417
000050 43 42 22 3e af a8 92 be d6 a1 d5 3e f7 1e 0f 3f
       0.1584559 -0.2864432 0.41725034 0.55906624
000060 73 5b b1 be 03 88 9a be 0a 7c 19 bf ce 2f 9e be
       -0.34640083 -0.30181894 -0.59954894 -0.30895847
000070 d3 dd d2 3e 0f 27 3c 3e 9c ef db be 68 d4 b7 be
       0.41184863 0.18374275 -0.42956245 -0.3590424

value_fc2.weight f4 [32, 32]
000000 ee d6 e1 3a 27 b5 9d be 87 2a 64 3e 5f e5 ee bd
       0.0017230192 -0.3080227 0.22281848 -0.11664843
000010 8c 33 35 3e 1e f3 ea bc a0 81 9a 3b 1a 7f f0 bd
       0.17695445 -0.02868038 0.0047151595 -0.11742993
000020 76 c5 da 3d bd 43 51 3d 5b ff 0b 3e 60 7a 24 be
       0.10682194 0.05108999 0.13671629 -0.16062307
000030 72 c4 2b 3d 0e f9 65 bd 1e 60 41 be 53 4a 75 3d
       0.04193539 -0.05614572 -0.18884322 0.059885334
000040 27 f7 16 be 75 58 86 3e 5e f5 87 be 95 4b 27 be
       -0.14742719 0.26239362 -0.26554388 -0.16337426
000050 98 1a 99 be 30 d5 18 3d 39 aa ee 3c a4 84 82 be
       -0.29903102 0.037312686 0.029133903 -0.25491822
000060 ab 2c ab 3d e3 9f df 3d b1 38 07 3e fd 18 71 3e
       0.08358129 0.10919168 0.1320522 0.23544689
000070 16 6a 27 bc af 5e 8f bd cd d4 cf bc a4 90 cf 3c
       -0.010218164 -0.07000481 -0.025370026 0.025337525
000080 ee cf 2c 3b 45 46 88 3d 84 43 c1 bc 37 27 27 3e
       0.0026369053 0.06654028 -0.023591764 0.16323553
000090 0e db 29 be 2f 3b 42 be da 57 1a be c2 cd 98 3d
       -0.16587469 -0.18967889 -0.15072575 0.0746112
0000a0 d3 2c 64 be 18 3d 66 3c cb 60 69 be f2 9f 8d 3e
       -0.22282724 0.014052652 -0.2279083 0.2766109
0000b0 ff 0e 7c bd 31 fa 36 3e 55 c5 85 3e 3d d4 89 3e
       -0.06153774 0.17868878 0.26127115 0.26919737
0000c0 28 64 79 bd 49 43 23 bc 65 2f a9 3c 3b c8 a9 bc
       -0.060886532 -0.0099647725 0.020652482 -0.02072536
0000d0 4f ad 37 3e c8 5c d7 bc 5f 33 80 3e 92 bd 73 3e
       0.17937206 -0.026289359 0.25039193 0.23802784
0000e0 b8 73 7d be eb bd 66 3c 53 79 6f be 64 f5 83 be
       -0.24751174 0.014083366 -0.23386125 -0.25773156
0000f0 05 72 6c bd a4 a7 fd bc 18 dd c0 bd 4d 0b 36 be
       -0.057725925 -0.030963726 -0.0941717 -0.17777748
000100 e5 a3 0f be 0f 22 84 3d 05 2c fe bd 17 79 3c 3e
       -0.14027365 0.06451809 -0.1241074 0.18405567
000110 b4 01 a7 bd 06 7e 8d be dd dd e9 bd d1 fd 80 3e
       -0.08154622 -0.2763521 -0.1141927 0.25193647
000120 71 38 e6 bd b1 11 3e bc 64 00 3f be 29 76 be 3d
       -0.11241234 -0.011600898 -0.18652493 0.09299881
000130 dd 4f bd 3c 56 db 2e 3e a6 72 86 3e 49 80 82 3e
       0.02310937 0.17075858 0.26259345 0.254885
000140 49 c4 7e 3e bc 9b 31 3d 91 fa 8d 3d b8 4a 00 3e
       0.24879564 0.04336141 0.069325574 0.12528503
000150 89 70 0e 3e eb c2 2a be b2 3e 2e 3e a5 48 90 bc
       0.13910116 -0.16675918 0.17016104 -0.017612765
000160 e0 4d b7 bd ff 93 49 be ab ad 6f be 02 19 97 3d
       -0.089504 -0.19685362 -0.23406093 0.07377817
000170 69 6b 71 3e cf 20 6c 3e d2 4e 5b 3d 2d 4c 61 be
       0.2357613 0.2305939 0.053541966 -0.22001715
000180 41 22 ae bd 12 4d 7c 3e a4 e7 5d be 42 9f f2 bc
       -0.08502627 0.24638775 -0.21670395 -0.029616956
000190 e1 d2 fe bd 34 21 4b be 0c a6 b9 bd e3 5d 85 3e
       -0.12442566 -0.19836885 -0.09064874 0.26048192
0001a0 11 6c 45 be 06 31 96 3e 50 16 eb bd 0b 81 9c bb
       -0.19279505 0.29334277 -0.11478865 -0.0047761253
0001b0 ab 7a 9f bd 49 97 5c 3e 9b f6 2d bd 62 65 20 3e
       -0.07787069 0.21542086 -0.04247151 0.15663674
0001c0 38 13 15 3e 22 02 a3 bd 04 ca b6 3b 54 d9 d8 3d
       0.14558113 -0.07959391 0.0055782814 0.10588327
0001d0 50 8f 90 3e d8 35 1f 3d 08 ad 8d 3e b0 0b 4f 3e
       0.2823434 0.03886971 0.27671075 0.20219302
0001e0 11 f7 16 bd 01 89 ff bd 72 b3 bd bd 51 04 80 be
       -0.036856715 -0.12477303 -0.09262742 -0.25003293
0001f0 e1 eb 92 3e ec 6c 7c bc 15 ba 4f be d7 6b 25 be
       0.28695586 -0.015406828 -0.20285828 -0.16154419
000200 a6 53 4c bd 5d 6d 8d 3e aa 72 c2 bc 58 52 23 3e
       -0.04988446 0.276225 -0.023736317 0.1594938
000210 c7 75 b9 bd 7f e4 84 bd a9 72 6d be 08 df 23 3d
       -0.09055667 -0.06488895 -0.2318827 0.04000762
000220 11 d5 93 be 33 48 ec 3d c5 1a 86 be ee 7b 90 3e
       -0.28873494 0.115372084 -0.261923 0.2821955
000230 81 5c 85 be 10 af 1b bd 68 50 8f 3e 5a 58 51 3d
       -0.26047137 -0.03800875 0.27991033 0.05110965
000240 18 59 0e bc 73 3a 93 be ac ba a0 3d 16 56 7a bb
       -0.008688234 -0.2875553 0.07848105 -0.0038198284
000250 b8 a5 9d 3d 1e c7 48 bd 34 94 42 3c b5 fa 87 3e
       0.07697624 -0.049018018 0.011876155 0.26558462
000260 bc 1b 00 be 6c de 38 3d ef 0b 13 be ad a5 4a be
       -0.1251058 0.045133993 -0.14360021 -0.19789763
000270 d9 f3 e1 3c d4 6d 0e 3e 9a 7f 7a be 4e a9 d9 bd
       0.027582096 0.13909084 -0.24462739 -0.106279954
000280 62 76 0d be 09 ae 47 3e ee 11 0f 3d bf 3c 23 3e
       -0.1381469 0.19499983 0.03492921 0.15941142
000290 cd fb 93 be 23 a5 23 3c 89 c3 50 be 5f 1d 4e 3e
       -0.28903046 0.009988102 -0.2038709 0.20128392
0002a0 bd 95 c8 bd a2 06 73 3d a9 5e 6c be 0f b1 e7 bc
       -0.09794185 0.059332497 -0.23082985 -0.02828267
0002b0 99 94 06 be cf 53 0f 3e 6d fa 32 3e 84 aa ca 3d
       -0.13142623 0.13996814 0.17478342 0.098958045
0002c0 2b d8 72 3e 27 a1 31 3c b9 88 14 3d b8 f1 93 3e
       0.23715274 0.010841644 0.0362632 0.28895354
0002d0 2b f9 92 3e f9 e3 29 bc 4a e8 0e 3a f6 4b 8b 3e
       0.28705725 -0.010369294 0.0005451484 0.2720639
0002e0 2b 8c ac bc b0 0d 08 be c4 f8 07 bd 89 14 bd bc
       -0.021062931 -0.13286471 -0.033196226 -0.023081081
0002f0 c6 52 5e 3e 4c 21 d5 3d 48 c7 e0 3c ad 7a 38 be
       0.21711263 0.104067415 0.027438775 -0.18015547
000300 02 c9 a8 3d de c6 03 be d0 a2 15 3d 3e cd 17 be
       0.08241464 -0.1286883 0.036532223 -0.14824387
000310 5c 30 92 3e 5d 7a 52 3d ef c9 e4 3d 12 c0 11 3c
       0.2855252 0.051386226 0.11171328 0.008895891
000320 6b 83 57 bc f9 3e 74 be ef e8 f0 3d b4 f7 50 be
       -0.013153891 -0.23852147 0.117631786 -0.20406991
000330 d2 ba 52 3d 53 86 6f be 41 31 d3 3c 42 4b d1 bd
       0.051447697 -0.23391084 0.025780322 -0.102194324
000340 6c 7f 07 3c 10 8e b3 bb b4 c2 1e be 21 25 3b be
       0.008270126 -0.0054795817 -0.15503961 -0.18275882
000350 cd 26 30 bb fb 17 cc bb 79 e4 87 bc dc 2a 67 bd
       -0.0026878596 -0.0062284446 -0.016588436 -0.05643736
000360 2f f6 98 3e 5b b1 91 3d b0 c1 8d 3d ce 9c 15 3e
       0.29875323 0.07113906 0.069217086 0.14610597
000370 6c ca 61 be f4 d1 49 be 16 68 32 3e 5c 3e 88 3e
       -0.22049874 -0.19708997 0.17422518 0.26610076
000380 b1 54 87 3d ae bc 82 be 7e 95 15 bc 17 06 8b 3d
       0.066079505 -0.25534576 -0.00912988 0.06788271
000390 4a 41 99 3d d5 1d 65 3e e6 ea 62 3e fa cf 41 be
       0.07483156 0.22374661 0.22159919 -0.18926993
0003a0 a5 8e 79 3d 31 9e 88 be 2a ef 10 3d 45 57 39 be
       0.060927052 -0.2668319 0.035384335 -0.18099697
0003b0 4a c9 c9 3d 97 99 b2 bd 9f fe 10 be 17 c6 19 be
       0.09852846 -0.08720701 -0.1415963 -0.15016972
0003c0 ae 31 2a be a6 50 e8 bc 41 ec f6 bd 3a 1d 7d be
       -0.16620514 -0.028358769 -0.120567806 -0.2471818
0003d0 b9 2b 16 be 0c 0c 32 3e d6 53 cf bd f5 7d 32 be
       -0.14665116 0.17387408 -0.10123412 -0.17430861
0003e0 95 73 b2 3d 68 68 dc 3d 19 f0 68 bd 46 dc 5a 3d
       0.08713452 0.107621014 -0.0568696 0.053432725
0003f0 33 10 fb bc 71 c8 91 be 96 36 6d 3e 50 48 25 3e
       -0.030647373 -0.28473237 0.23165354 0.16140866

value_fc2.bias f4 [32]
000000 7d 5f 00 be 0f 2e 09 3c 2f c9 a1 bd ac e2 59 3e
       -0.12536426 0.008372798 -0.07899701 0.21277875
000010 6f 88 57 3e 07 b6 1b 3e 63 38 f0 bd 0c 5e 4d be
       0.21048139 0.15206157 -0.11729505 -0.20055407
000020 8d ff 2f be 3d c9 1a bd 69 3b 89 3e a3 d2 bf 3c
       -0.17187329 -0.037789572 0.2680314 0.02341587
000030 bc cf 41 3d 6d fb f8 bd 93 d6 6a 3d 67 93 17 3e
       0.04731725 -0.12157331 0.05733354 0.14802323
000040 34 d1 fe bd 7f da 93 3d b4 9c d6 3c dd dc 35 3c
       -0.12442246 0.07219409 0.026197769 0.011100021
000050 a8 c1 75 3d 35 20 49 3e c3 23 84 be 61 7e e8 bd
       0.059999138 0.19641192 -0.25808534 -0.1135223
000060 e4 92 d0 bd 3f ba 17 bd bc 2c 50 3e 00 93 06 3d
       -0.10184267 -0.037042852 0.20329565 0.032855034
000070 2a 18 62 3b 70 4f 74 bd bd 4f 3a bd 66 38 27 be
       0.0034499266 -0.05964607 -0.0454862 -0.16330108

value_fc3.weight f4 [1, 32]
000000 a9 93 89 be e1 f2 64 3e 11 a4 95 3e 24 bb 1c 3e
       -0.26870468 0.22358276 0.29226735 0.15305763
000010 d0 4e 25 3e 6d 74 38 3e 4a 1b 4d be 43 5b 7e be
       0.16143346 0.18013163 -0.20029941 -0.24839501
000020 49 0e 51 be 88 7a 4d be c2 99 86 3e 9a 52 56 be
       -0.20415606 -0.20066273 0.26289183 -0.20929947
000030 3e b4 39 3e 84 27 83 be bb 76 22 3e 21 cb 4d 3e
       0.18135163 -0.25616086 0.15865605 0.20097019
000040 eb 16 6f be 62 6d b7 bd 79 21 87 be 66 4b 54 be
       -0.23348586 -0.0895641 -0.26392725 -0.20731887
000050 79 e2 59 be 47 d2 84 3e 76 7c 55 be 14 81 8a be
       -0.21277799 0.2594168 -0.2084826 -0.27051604
000060 dc b4 49 be 01 c4 34 3e b3 ed 12 3e 43 cb 9c 3e
       -0.19697899 0.17652895 0.14348488 0.30623826
000070 50 9e 93 be a8 81 91 be 0e 54 2a 3e 0e 56 39 be
       -0.2883172 -0.28419232 0.16633627 -0.18099234
