Doom/1model-doom.pth (torch_old, 117160 bytes, 8 tensors)

weight f4 [8, 1, 6, 6]
0	0x3e954f20	0.2916193
1	0x3e32e61a	0.1747059
2	0x3d7f4bc2	0.062328108
3	0xbe2079d4	-0.15671474
4	0xbea04a65	-0.3130676
5	0x3dc50fd2	0.09622158
6	0x3e857a51	0.26069883
7	0x3e8b9aab	0.2726644
8	0x3efb77c2	0.49114805
9	0x3ec6448b	0.3872417
10	0xbd0b1558	-0.0339559
11	0x3e741a3b	0.23838131
12	0x3f35d2e8	0.7102494
13	0x3f1a8cb8	0.6037097
14	0x3f5f2d24	0.87178254
15	0x3f334c3e	0.7003821
16	0x3e15da25	0.14633997
17	0x3e957585	0.29191223
18	0x3f1f448e	0.6221398
19	0x3f089635	0.533542
20	0x3f10d80a	0.5657965
21	0x3f2ec061	0.68262297
22	0x3ee23d40	0.44187355
23	0x3db62feb	0.088958584
24	0x3efa8b0a	0.48934203
25	0x3f52c8ad	0.82337457
26	0x3f82a6f1	1.0207196
27	0x3f810d04	1.0082097
28	0x3f055683	0.5208513
29	0x3e9a5ea8	0.30150342
30	0x3d8a2e70	0.067471385
31	0x3e5e4cf7	0.21709047
32	0x3f310820	0.6915302
33	0x3e9996cb	0.29997858
34	0x3c4e4aef	0.012591108
35	0xbe11185c	-0.14169449
36	0xbd90b1dc	-0.07065174
37	0xbe04c74e	-0.12966654
38	0xbda7eb4c	-0.08199176
39	0x3e06b63b	0.13155453
40	0x3e16c375	0.14722998
41	0xbdbba10c	-0.09161577
42	0x3d07a9ca	0.033120908
43	0x3b857895	0.0040732124
44	0x3c45960b	0.012059699
45	0xbdfdbb5e	-0.12389253
46	0x3d986304	0.07440761
47	0xbd826fa8	-0.06368953
48	0xbe1eb1a3	-0.1549745
49	0x3d4fda9a	0.050745584
50	0xbd866b15	-0.06563393
51	0x3d6c9d3c	0.057767138
52	0x3c70b44b	0.014691423
53	0x3d086028	0.033294827
54	0xbd644683	-0.055731308
55	0x3c08d426	0.008351361
56	0xbd63350f	-0.055470522
57	0x3df73a0d	0.12071619
58	0x3d424388	0.047427684
59	0xbded464d	-0.115856744
60	0x3e30b197	0.17255245
61	0x3e237434	0.15962297
62	0xbdaf32a7	-0.08554583
63	0xbb5f62ff	-0.0034086106
64	0x3d79057f	0.060796257
65	0x3dc26a85	0.09492973
66	0xbd7b93b0	-0.061420143
67	0x3ce4a029	0.027908402
68	0x3e0b218e	0.13587019
69	0xbe17338b	-0.14765756
70	0x3e0709d1	0.13187338
71	0x3db6a88a	0.08918865
72	0xbd1e6a66	-0.03867569
73	0x3e0288ff	0.12747572
74	0x3cecc76a	0.028903682
75	0xbe1852b1	-0.14875294
76	0xbde47b48	-0.111563265
77	0xbd9865ed	-0.07441316
78	0xbdb392bc	-0.08768222
79	0x3b8a306a	0.004217197
80	0x3db2a13c	0.08722159
81	0xbda3f6de	-0.080060706
82	0x3bd1276b	0.006382873
83	0xbe0c88d9	-0.13724078
84	0xbd9a69d8	-0.07539719
85	0x3d91d4b7	0.0712065
86	0x3dd34ce2	0.103173986
87	0xbe133de3	-0.14379077
88	0xbd990582	-0.07471754
89	0xbdab3b8a	-0.083609655
90	0xbbbdf439	-0.005796936
91	0x3ddab67b	0.10679337
92	0x3da0960b	0.078411184
93	0xbe05cd22	-0.13066533
94	0xbd850f57	-0.064970665
95	0x3cd7d7a1	0.026347937
96	0xbd9fe4bc	-0.078072995
97	0xbdb03b5f	-0.08605074
98	0xbd2ea9ca	-0.042642392
99	0x3db8dd88	0.09026629
100	0x3dd68ef7	0.10476487
101	0xbd378cce	-0.044812016
102	0xbbfb6da4	-0.0076729823
103	0x3b1a6e2a	0.0023564198
104	0xbd246dfe	-0.04014396
105	0xbe0938b0	-0.13400531
106	0x3dc879bc	0.09788844
107	0x3cb68e5c	0.02228468
108	0xbdc925cc	-0.09821662
109	0x3cca78ac	0.024715744
110	0xbc83b733	-0.016078567
111	0xbdbcb1eb	-0.09213623
112	0xbd5b0b72	-0.053477712
113	0x3dc0d246	0.094151065
114	0xbdd43bd9	-0.103629775
115	0x3d8fc7fd	0.070205666
116	0xbd9a159c	-0.07523653
117	0x3e16d145	0.14728267
118	0x3e411775	0.18856604
119	0xbcc10980	-0.0235641
120	0x3e1cbb4b	0.15305822
121	0x3d246df6	0.04014393
122	0x3d917190	0.071017385
123	0x3e7f59b6	0.24936566
124	0xbd85af08	-0.06527525
125	0x3d5ed197	0.0543991
126	0x3df91ea7	0.121640496
127	0x3ddcd21c	0.10782263
128	0xbd1a7003	-0.03770448
129	0xbdc4acfe	-0.09603308
130	0xbd78f1a2	-0.060777314
131	0x3e0633d4	0.13105708
132	0xbe45e5f1	-0.19325997
133	0xbdb84d95	-0.089991726
134	0x3dd6c189	0.10486133
135	0x3e2c5c1c	0.16832012
136	0xbdf8386f	-0.12120139
137	0x3de4d266	0.11172943
138	0x3a8eb07e	0.0010886339
139	0x3d47f39d	0.048816312
140	0x3dab719e	0.0837128
141	0x3e6af901	0.2294655
142	0x3d517c6d	0.051144052
143	0x3e15f3e1	0.14643814
144	0x3e035eb6	0.12829098
145	0xbd34cab1	-0.044138614
146	0xbc5ff03a	-0.013668114
147	0xbe0461a9	-0.1292788
148	0xba9e3618	-0.0012070565
149	0x3e32896e	0.17435238
150	0x3e293341	0.16523458
151	0x3cd36dd5	0.025809208
152	0x3e8b7de2	0.27244478
153	0x3e8757c8	0.2643416
154	0x3df03ca3	0.117303155
155	0x3e232743	0.15932946
156	0x3ebcc344	0.36867726
157	0x3ebb5a0f	0.36592147
158	0x3ef5427d	0.4790229
159	0x3ec4d7b4	0.38445818
160	0x3dd83857	0.10557621
161	0x3d50c400	0.05096817
162	0x3c8af477	0.016962273
163	0x3e469575	0.19392951
164	0x3ec228e2	0.37921816
165	0x3e948dd0	0.29014444
166	0x3ec0c60a	0.37651092
167	0x3d13d1b7	0.03608867
168	0x3ea2929b	0.31752476
169	0x3eaffd8e	0.34373134
170	0x3f0a5809	0.5404058
171	0x3ef7ce28	0.48399472
172	0x3dc11eda	0.094297126
173	0x3e86d193	0.26331767
174	0xbe1c3ca0	-0.15257502
175	0xbe303170	-0.17206359
176	0x3e93a5f3	0.28837547
177	0x3da4b519	0.08042354
178	0xbe035548	-0.12825501
179	0xbca423dc	-0.02003663
180	0x3c06a700	0.008218527
181	0xbe45650a	-0.19276825
182	0xbd222cf0	-0.039593637
183	0xbd0408e9	-0.03223506
184	0x3df57f8f	0.119872205
185	0x3cdbd88a	0.026836652
186	0xbc0f8be3	-0.008761379
187	0xbd354c13	-0.044262003
188	0xbd82927e	-0.063755974
189	0x3a58cd68	0.0008270354
190	0x3d2a0945	0.041512746
191	0x3e074171	0.13208558
192	0xbe344619	-0.17604865
193	0x3d9223d0	0.07135737
194	0xbde2aee1	-0.11068512
195	0xbdf7b389	-0.120947905
196	0x3e29dc1a	0.16587868
197	0xbda188d3	-0.07887425
198	0xbb71f654	-0.0036920505
199	0x3a145520	0.00056584366
200	0x3d2b2d7a	0.041791417
201	0xbe58d641	-0.21175481
202	0xbe12fd79	-0.14354505
203	0x3d28a14b	0.041169446
204	0xbda783cb	-0.081794344
205	0xbd9bba31	-0.076038726
206	0x3e5031ff	0.20331572
207	0xbbbd2cff	-0.005773186
208	0xbcf4edc6	-0.029898535
209	0xbdefb796	-0.11704938
210	0xbc0d153e	-0.008611022
211	0x3caab654	0.020838894
212	0x3da5f12a	0.08102639
213	0x3df3481e	0.1187899
214	0x3cc4494d	0.023960734
215	0xbdc5fc2a	-0.09667237
216	0xbcd001fa	-0.025391567
217	0xbe814853	-0.25250491
218	0xbeab1866	-0.33417052
219	0xbed5f90a	-0.41791564
220	0xbf08d20a	-0.53445494
221	0xbdfe2c6e	-0.12410818
222	0xbebaffb6	-0.36523217
223	0xbd173272	-0.036913343
224	0xbe90ac5f	-0.2825651
225	0xbe9a2cb1	-0.30112222
226	0xbe736487	-0.23768817
227	0xbe2782a7	-0.16358434
228	0x3f179be4	0.59222245
229	0x3ec79e56	0.38987988
230	0x3e90a6c7	0.2825224
231	0x3f291bb6	0.6605791
232	0x3e239da8	0.1597811
233	0xbdaee9a2	-0.08540656
234	0x3f2bd429	0.67120606
235	0x3ea6ecc5	0.32602516
236	0x3f267ab3	0.65030974
237	0x3f3518ac	0.7074077
238	0x3e14a114	0.14514571
239	0x3ec88184	0.39161313
240	0x3f21b067	0.63159794
241	0x3f1d41b7	0.614284
242	0x3f75222f	0.95755285
243	0x3f670beb	0.9025256
244	0x3f0c5ba9	0.5482736
245	0x3f116eca	0.56809676
246	0x3e743bff	0.23851012
247	0x3eb0e746	0.34551448
248	0x3f25edf7	0.6481623
249	0x3ed2cbd1	0.41171125
250	0x3cc5dba4	0.024152584
251	0x3e54b02a	0.20770326
252	0xbd7c0188	-0.061524898
253	0xbd53caa0	-0.05170691
254	0x3d3f4c57	0.046703663
255	0x3d41dc74	0.04732938

bias f4 [8]
0	0xbf7affba	-0.9804646
1	0xbdd5b7c4	-0.10435441
2	0xbcad1284	-0.021126993
3	0xbe9935ec	-0.29923952
4	0xbf24be52	-0.64352906
5	0x3e1f72a1	0.15571071
6	0xbf126510	-0.5718546
7	0x3dcdd229	0.100498505

weight f4 [8, 8, 3, 3]
0	0xbe17cc8c	-0.14824122
1	0x3ddf79f3	0.10911932
2	0xbe25b7c1	-0.16183378
3	0x3deaf9db	0.114734374
4	0x3e24517b	0.16046707
5	0xbdfb94c5	-0.12284235
6	0x3e589c13	0.21153288
7	0x3e7eeaaa	0.24894205
8	0x3e909188	0.28236032
9	0xbd364492	-0.044498987
10	0xbd835855	-0.064133324
11	0xbdfe8611	-0.12427915
12	0xb8d87c33	-0.000103228165
13	0x3ce146f5	0.027499655
14	0xbc42ab69	-0.011881688
15	0x3d82f586	0.06394486
16	0xbdb5de71	-0.08880318
17	0xbc9476be	-0.018123027
18	0xbda64e9b	-0.081204616
19	0x3dc38f82	0.09548856
20	0x3d735fa9	0.0594174
21	0xbded8adb	-0.1159875
22	0x3c5f424e	0.013626648
23	0xbd2db1c9	-0.042405877
24	0xbd7cea81	-0.061747078
25	0xbdec6716	-0.115430996
26	0xbb9df2b2	-0.0048201913
27	0x3a89c153	0.0010509886
28	0xbd48407f	-0.048889633
29	0xbd81a1f8	-0.06329721
30	0xbc743a92	-0.014906542
31	0x3d8ab27a	0.06772323
32	0xbc7b83bc	-0.015351232
33	0xbda64a64	-0.08119658
34	0x3df23df9	0.118282266
35	0x3bf7ddd8	0.0075642876
36	0xbd09c612	-0.03363616
37	0xbd5b28a9	-0.053505573
38	0xbcbae01f	-0.022811947
39	0x3e007f5e	0.12548587
40	0x3d81b7a7	0.06333857
41	0xbdf050ea	-0.11734183
42	0x3e0c894c	0.1372425
43	0x3ab1cac7	0.0013564461
44	0x3e622841	0.22085668
45	0x3c29491c	0.010332372
46	0xbd56dda6	-0.052457474
47	0x3da44db1	0.08022631
48	0xbca7be18	-0.020476386
49	0x3d0acc01	0.03388596
50	0xbddb26c7	-0.107007556
51	0x3d84ef3a	0.06490941
52	0xbc4be814	-0.012445468
53	0xbc582a42	-0.013193669
54	0xbe06d1f2	-0.13166025
55	0xbd435cc5	-0.047695894
56	0xbe81a2ea	-0.25319606
57	0x3e0e5648	0.13900101
58	0x3ea95f3f	0.3308048
59	0x3d080fe3	0.033218276
60	0x3d2024b9	0.03909752
61	0x3dcd18c2	0.10014488
62	0x3e468a8f	0.19388793
63	0xbd0bbb0e	-0.034113936
64	0x3dedd09f	0.11612057
65	0xbd275049	-0.04084805
66	0xbdcc9256	-0.09988849
67	0xbdba52a2	-0.09097792
68	0xbd289b14	-0.04116352
69	0xbd9e350b	-0.07724961
70	0x3d82b2b1	0.06381739
71	0xbdc544e8	-0.096322834
72	0xbecf8b36	-0.40535897
73	0x3a93922e	0.0011258775
74	0xbf3c70b1	-0.73609453
75	0x3fa018a9	1.2507526
76	0x3fcc2888	1.5949869
77	0x3f578e2c	0.8420131
78	0x3f625981	0.8841782
79	0x3f479876	0.7796701
80	0x3f237f0f	0.6386575
81	0xbda5c57f	-0.0809431
82	0xbdfe3b81	-0.12413693
83	0xbd1b18f2	-0.037865587
84	0xbc95b46f	-0.018274514
85	0xbc2d756b	-0.010587077
86	0xbde32652	-0.110912934
87	0x3d58e4f3	0.052952718
88	0x3df63ba5	0.12023095
89	0x3d79458b	0.060857337
90	0x3d356e78	0.044294804
91	0x3caf869f	0.021426497
92	0xbdeaec1f	-0.11470818
93	0x3d97a574	0.074046046
94	0xbbdaf25e	-0.0066817245
95	0xbde112f4	-0.10989943
96	0x3d97b060	0.07406688
97	0x3ca5d7cb	0.0202445
98	0x3dc0aef5	0.094083704
99	0x3e614aa5	0.22001131
100	0x3e32b5e4	0.17452198
101	0x3d86e068	0.06585771
102	0x3e8839ea	0.26606685
103	0x3dd78b7d	0.10524652
104	0x3d873918	0.06602687
105	0x3dac9517	0.08426874
106	0x3e26ed01	0.16301347
107	0x3ddfd831	0.10929907
108	0xbe8173c4	-0.25283635
109	0x3b4456ed	0.0029959038
110	0xbebf4759	-0.3735912
111	0x3f292cd0	0.66084003
112	0x3f2eb5a6	0.68245924
113	0x3eae1e02	0.3400727
114	0x3f1e8ce5	0.6193374
115	0x3ed6d951	0.41962674
116	0x3eda06ef	0.42583415
117	0xbdaf0ae6	-0.085470006
118	0x3df7c7aa	0.1209863
119	0xb9bf739f	-0.00036516503
120	0xbe0927c5	-0.13394077
121	0xbd3b2cd4	-0.04569705
122	0xbde4eaec	-0.1117762
123	0x3d983579	0.07432074
124	0xbe6aee3d	-0.22942443
125	0xbe5053d5	-0.2034448
126	0xbea48751	-0.32134488
127	0xbe2d0cc6	-0.16899404
128	0xbed022ff	-0.406517
129	0x3fba5e4c	1.4560027
130	0x3fd6baa8	1.6775713
131	0x3f8598cd	1.0437256
132	0xbe414aa2	-0.18876126
133	0xbe2e2e3e	-0.17009827
134	0x3ddaa645	0.10676245
135	0xbd852b6d	-0.065024234
136	0x3dcc6e31	0.09981955
137	0x3d438727	0.047736313
138	0xbcac5ab8	-0.021039352
139	0xbd96ce88	-0.073636115
140	0xbde8a5e5	-0.11359767
141	0x3d703e31	0.05865306
142	0xbdaa9be5	-0.08330516
143	0xbc1913ed	-0.00934313
144	0x3d5ea1f9	0.054353688
145	0x3da6912f	0.0813316
146	0x3e2f43ac	0.17115659
147	0xbe9131ce	-0.2835831
148	0xbd8db72c	-0.06919703
149	0x3ecab164	0.39588463
150	0xbea776d4	-0.32707846
151	0xbdd86700	-0.10566521
152	0x3ea0bf3d	0.31395903
153	0xbcae968d	-0.021312023
154	0x3d45c57b	0.048284035
155	0xbd84c209	-0.06482322
156	0xbdc75ed1	-0.09734882
157	0xbd9d28ec	-0.07673821
158	0x3b4ba414	0.003107314
159	0xbb0c5367	-0.0021412016
160	0x3d782f90	0.060592234
161	0x3caf55f2	0.021403287
162	0x3def31b2	0.116794005
163	0x3d37451f	0.044743653
164	0x3ad6aecb	0.0016378997
165	0x3cd5c6da	0.026095796
166	0x3c92ee2d	0.017935837
167	0xbd4d2478	-0.050083607
168	0x3c82ec48	0.015981808
169	0x3cdb8358	0.026796028
170	0x3d09390d	0.033501673
171	0xbcebe292	-0.02879456
172	0xbca1ec27	-0.019765927
173	0x3def8673	0.11695566
174	0xbd868887	-0.06569009
175	0xbddd53e2	-0.10807015
176	0x3d7c1bea	0.06155006
177	0x3c4f6aa6	0.012659704
178	0x3d7d0a3d	0.061777342
179	0x3e04c589	0.12965979
180	0x3d5cb408	0.05388263
181	0x3c97792d	0.018490398
182	0x3da38700	0.079847336
183	0xbd7d431b	-0.061831575
184	0x3dd1e5ca	0.10248907
185	0x3e258765	0.1616493
186	0xbd564637	-0.052313056
187	0x3c48d8dc	0.012258735
188	0x3e076688	0.13222706
189	0xbc314466	-0.01081953
190	0x3c61f025	0.013790165
191	0x3dd669df	0.10469412
192	0x3c1a33f9	0.009411805
193	0xbbc1b40f	-0.0059113572
194	0x3d9d93fe	0.07694243
195	0xbd05d5cb	-0.032674592
196	0x3db05ffa	0.08612056
197	0xbdcebe53	-0.10094895
198	0xbd9e5752	-0.07731499
199	0x3d95bc82	0.07311346
200	0x3d9d4861	0.07679821
201	0xbea41cea	-0.3205331
202	0xbe025d63	-0.12730937
203	0x3eba5f9c	0.3640107
204	0xbd10b2dd	-0.035326827
205	0x3d730564	0.059331313
206	0x3e321a0d	0.1739275
207	0x3d461d58	0.048367828
208	0xbc5bcb97	-0.013415239
209	0xbdab3adf	-0.08360838
210	0xbdee910a	-0.11648758
211	0xbda50c6c	-0.0805901
212	0xbde33a47	-0.110951
213	0xbbcf70be	-0.0063305786
214	0x3d4e3eee	0.050352983
215	0x3d1ccef6	0.03828331
216	0x3e18ce77	0.1492251
217	0xbb3985e9	-0.0028308576
218	0x3dccc159	0.09997816
219	0x3e85d2a0	0.26137257
220	0x3bac6f1e	0.0052622696
221	0xbe96bdd3	-0.294417
222	0x3cba5f20	0.022750437
223	0x3d1c4caa	0.03815905
224	0xbe86acf1	-0.2630382
225	0xbd7eb19a	-0.062181093
226	0x3dad2845	0.084549464
227	0x3d9fc518	0.078012645
228	0xbde5fef0	-0.11230266
229	0xbd51c1c9	-0.0512102
230	0xbac35594	-0.0014902824
231	0xbdc95fc8	-0.09832722
232	0x3d18a3d9	0.037265632
233	0x3da3b317	0.07993143
234	0xbdcd3b52	-0.1002108
235	0xbc7fb9a3	-0.015608224
236	0x3d805f34	0.062681586
237	0xbd8fd693	-0.07023349
238	0x3db88b5d	0.090109564
239	0x3c4ae4ca	0.012383649
240	0x3da93a51	0.08263076
241	0x3deffa6d	0.11717687
242	0xbd85ae1d	-0.0652735
243	0x3d5f5a39	0.054529402
244	0xbc9d6967	-0.019215299
245	0x3da4fa8a	0.08055599
246	0x3d027c2e	0.03185671
247	0x3d5d898d	0.054086257
248	0xbcafab0c	-0.021443866
249	0x3ac3521e	0.0014901792
250	0x3d92496c	0.0714291
251	0xbc4c8994	-0.012483973
252	0x3dd71f4a	0.10504015
253	0x3d971af6	0.07378189
254	0xbdccf6c9	-0.10008008
255	0x3e13734c	0.14399451

bias f4 [8]
0	0x3daa7d19	0.08324642
1	0x3db9b7c6	0.09068255
2	0xbe050ca4	-0.12993103
3	0xbd925337	-0.07144778
4	0xbd7d965c	-0.061910972
5	0xbd172d34	-0.036908343
6	0xbdbe4f52	-0.09292473
7	0xbd5abdac	-0.05340354

weight f4 [128, 192]
0	0x3d79d2ac	0.060991928
1	0xbcdd8e10	-0.02704528
2	0xbb74b320	-0.0037338212
3	0x3ce06398	0.02739124
4	0x3c4cff60	0.012512058
5	0xbd80bbef	-0.062858455
6	0x3c3b5aa8	0.011435188
7	0xbcdb3c00	-0.026762009
8	0xbca5eabe	-0.020253535
9	0xbd84fad1	-0.06493152
10	0xbcf07e4a	-0.029357094
11	0x3cd2d32c	0.02573546
12	0x3d8c0ca8	0.068383515
13	0xbd487df1	-0.048948232
14	0x3d1592ba	0.036516882
15	0xbd677332	-0.056506343
16	0xbd1233f7	-0.03569409
17	0x3c44ab88	0.012003787
18	0xbd79f692	-0.061026163
19	0x3d22a5a0	0.039708734
20	0x3cc5564c	0.024089001
21	0xbd2c555d	-0.042073596
22	0x3cc0e348	0.023545876
23	0xbcdfaca0	-0.027303994
24	0x3c9afeb8	0.018920287
25	0x3d692704	0.056921974
26	0x3c2844a8	0.010270275
27	0xbd23acf6	-0.03995987
28	0xbd8b63f9	-0.06806178
29	0xbd4f4024	-0.05059828
30	0xbd88eba3	-0.06685569
31	0x3a8d0a40	0.0010760501
32	0xbcceb538	-0.025232896
33	0x3d90f1ba	0.07077356
34	0xbd7653e0	-0.060138583
35	0xbc9e044c	-0.019289158
36	0xbd4642d6	-0.048403583
37	0x3bfaa610	0.0076491907
38	0xbd213399	-0.039355848
39	0xbd900a09	-0.07033164
40	0x3cfb509c	0.030678086
41	0x3d362d2c	0.044476673
42	0xbd12b5c3	-0.035817873
43	0x3d72bb04	0.059260383
44	0x3d332418	0.043735594
45	0xbd3eae66	-0.046553038
46	0x3d49e6b4	0.04929228
47	0x3d567478	0.052357167
48	0x3d837506	0.06418805
49	0xbcc9aede	-0.024619516
50	0x3b2a3860	0.0025973544
51	0x3d8e46ae	0.06947075
52	0xbd2ff1a3	-0.042955052
53	0x3d4f6db8	0.050641745
54	0xbd264861	-0.04059637
55	0x3d4a2524	0.049351826
56	0xbcec5a18	-0.028851554
57	0x3b734ae0	0.0037123486
58	0xbd0efd0b	-0.03490929
59	0x3c583240	0.013195574
60	0x3cc13118	0.02358298
61	0x3d116a36	0.03550168
62	0x3c53a968	0.012918808
63	0x3d34f712	0.044180937
64	0x3c94eaa4	0.018178292
65	0x3d79bb64	0.060969725
66	0xbc79ebf8	-0.015254013
67	0xbd47b578	-0.048757046
68	0xbd2b7132	-0.041856
69	0x3d2d5240	0.042314768
70	0xbd651fb8	-0.055938452
71	0xbd3c8fb2	-0.046035476
72	0xbc0bacd0	-0.008525088
73	0xbd41cdc2	-0.047315367
74	0x3d913ae8	0.070913136
75	0xba92fa40	-0.0011213496
76	0x3ca6a74c	0.020343445
77	0xbd490854	-0.049080208
78	0xbd88f9cc	-0.0668827
79	0xbcd55f5c	-0.026046447
80	0xbb15cb60	-0.0022856817
81	0xbd846ca0	-0.06466031
82	0xbbaae310	-0.0052150562
83	0x3d2b5b0a	0.04183487
84	0xbcad451e	-0.021151122
85	0x3d09fc40	0.03368783
86	0xbd4a98b6	-0.049462043
87	0xbd62daa0	-0.05538428
88	0xbd889856	-0.06669681
89	0xbcc351d0	-0.023842722
90	0x3d092a22	0.033487447
91	0xbd8c52f7	-0.06851762
92	0x3ae236c0	0.0017258748
93	0x3d474e8e	0.0486589
94	0x3d058bb2	0.032603927
95	0x3d43f67a	0.04784248
96	0x38f36c00	0.000116072595
97	0xbd7fcb2d	-0.062449623
98	0x3d24c66c	0.040228292
99	0xbd5ddc0e	-0.05416494
100	0xbc805496	-0.015665334
101	0x3d8f6f60	0.07003665
102	0xbd2d3070	-0.04228252
103	0xbd8efeea	-0.06982215
104	0xbd7ebfb3	-0.062194537
105	0x3d892de0	0.06698203
106	0xbcecad12	-0.02889112
107	0x3d65a3e8	0.056064516
108	0x3d182378	0.0371432
109	0x3d902ef8	0.070402086
110	0x3d430772	0.047614522
111	0x3d871922	0.065965906
112	0x3d41b6f6	0.047293626
113	0xbc918c74	-0.017767169
114	0xbd24d027	-0.040237572
115	0x3cdcba04	0.026944168
116	0xbd6f6584	-0.058446422
117	0x3b9d4e20	0.004800573
118	0x3c85edac	0.016348682
119	0x3cca3884	0.024685152
120	0xbd0e1022	-0.034683354
121	0xbcd5518e	-0.026039865
122	0x3d8956e6	0.06706028
123	0xbd73eac7	-0.059550073
124	0xbd397138	-0.04527399
125	0x3d5b07bc	0.053474173
126	0x3d376588	0.044774562
127	0xbd1b80b7	-0.03796455
128	0x3c1d3038	0.009594016
129	0xbd51fd84	-0.051267162
130	0xbd7dba0d	-0.06194501
131	0xba46a600	-0.00075778365
132	0x3d78be18	0.060728163
133	0xbaa29f40	-0.0012407079
134	0x3cfba178	0.030716643
135	0xbbaf47b0	-0.005349122
136	0xbd7ad458	-0.061237663
137	0x3d45bbbc	0.04827474
138	0xbbf618d0	-0.007510282
139	0x3d228520	0.03967774
140	0x3ceef784	0.029170759
141	0xbd5061f2	-0.050874658
142	0xbd8c8a0d	-0.068622686
143	0xbcbff3d6	-0.0234317
144	0x3ced7578	0.028986678
145	0xbd24dad8	-0.04024777
146	0x3d1745ae	0.036931686
147	0x3d50de2a	0.050993122
148	0x3d243f4c	0.040099427
149	0xbd113bc0	-0.035457373
150	0x3cca908c	0.024727128
151	0xbcbf8622	-0.02337939
152	0x3c737de0	0.014861554
153	0xbd8e678e	-0.06953345
154	0xbca4b03a	-0.020103563
155	0xbd91ddba	-0.07122369
156	0x3d22ca8a	0.039743938
157	0xbd501d10	-0.050808966
158	0xbd444d4a	-0.04792527
159	0x3bd1e4a0	0.006405428
160	0xbcd3697c	-0.025807135
161	0x3d911768	0.070845425
162	0xbbb7d290	-0.005609818
163	0xbd60c1ce	-0.054872327
164	0xbc80aefe	-0.015708443
165	0xb9d68f00	-0.00040923804
166	0x3d6b90d8	0.05751118
167	0x3d03712c	0.03209035
168	0xbd89e803	-0.06733706
169	0xbcc5f584	-0.024164923
170	0x3d6dbcec	0.058041498
171	0x3d5fc5c8	0.05463198
172	0x3c320c68	0.010867216
173	0xbd2c61de	-0.04208552
174	0xbd21e66a	-0.03952638
175	0xbd0043be	-0.031314604
176	0x3c9da574	0.019243933
177	0xbd23bef5	-0.039977033
178	0xbd85a18a	-0.06524952
179	0x3acc5c40	0.0015591457
180	0xbd59d1b0	-0.05317849
181	0xbc42c3d4	-0.011887509
182	0xbcf60b94	-0.030034818
183	0xbd19b3eb	-0.0375251
184	0xbd8f0388	-0.069830954
185	0x3bca6200	0.0061762333
186	0xbcef1d9e	-0.029188927
187	0xbc8c997a	-0.017163027
188	0xbd1718c8	-0.036888868
189	0xbc05c490	-0.00816454
190	0x3c8a6b94	0.016897
191	0x3d209ea8	0.039213806
192	0x3d9046ab	0.07044729
193	0x3ccc3ad0	0.024930388
194	0x3d64748d	0.055775214
195	0xbd72df0d	-0.05929475
196	0xbcee7589	-0.02910878
197	0xbd7b2d01	-0.061322216
198	0xbc6cad55	-0.014445622
199	0xbc6c3478	-0.014416806
200	0x3ca48b8c	0.020086072
201	0x3d4f6c6f	0.05064052
202	0x3cb2561a	0.021769572
203	0xbcb39372	-0.021920893
204	0x3d203f6d	0.039122988
205	0x3b4e9308	0.0031520743
206	0xbd009dab	-0.031400364
207	0x3d346718	0.04404363
208	0xbd2de87b	-0.04245804
209	0x3c0d66f9	0.008630508
210	0x3d7309f3	0.05933566
211	0xbd084e2f	-0.033277687
212	0x3d66080f	0.05616003
213	0xbcb30e62	-0.021857444
214	0x3cf528b4	0.029926635
215	0x3d0ed6c3	0.03487278
216	0xbc6f8edb	-0.014621462
217	0xbd9268d5	-0.071489014
218	0x3ce729a2	0.028218094
219	0x3d90672b	0.07050928
220	0x3d8c4e44	0.068508655
221	0xbd5cfcd2	-0.053952046
222	0xbd3ff127	-0.04686084
223	0xbd3876dd	-0.04503523
224	0xbdbb30d2	-0.09140171
225	0x3d9a0aa9	0.075215645
226	0x3b7ccd29	0.0038574433
227	0x3d29c999	0.041452024
228	0xbd8d37be	-0.068953976
229	0xbbbf4066	-0.0058365343
230	0x3c44b0dc	0.012005057
231	0x3d3fef7a	0.046859242
232	0xbd258674	-0.040411428
233	0x3d330d20	0.04371369
234	0x3aed053d	0.0018083226
235	0xbcc7c6e5	-0.024386832
236	0xbb39c4eb	-0.0028346132
237	0x3d8938a3	0.06700256
238	0xbc903a65	-0.01760597
239	0xbd37ad91	-0.04484326
240	0x3d36db13	0.04464252
241	0x3bfed0d1	0.0077763577
242	0x3bbf7f15	0.005844007
243	0x3d84e917	0.06489771
244	0xbd4ae3c1	-0.04953361
245	0xbd7e4ef3	-0.06208701
246	0x3d69a13b	0.057038527
247	0x3d18412e	0.037171535
248	0x3d96af88	0.07357699
249	0xbd2e81ca	-0.042604245
250	0x3d81ff9d	0.063475825
251	0xba9b5673	-0.0011851325
252	0xbd87ecb6	-0.06636946
253	0x3d3cc1f4	0.046083406
254	0xbcba7cd1	-0.022764595
255	0xbd59eada	-0.053202488

bias f4 [128]
0	0xbcf4e8e6	-0.02989621
1	0xbcc5ea4f	-0.024159579
2	0x3dc43401	0.095802315
3	0xbd084cc6	-0.03327634
4	0x3d95aff6	0.073089525
5	0x3d21b16e	0.03947585
6	0x3c226be2	0.009913417
7	0x3d49556e	0.049153738
8	0xbd928be1	-0.07155586
9	0x3dd29711	0.1028272
10	0xbc500ed4	-0.012698848
11	0x3d81a383	0.063300155
12	0x3a597000	0.00082945824
13	0x3c8ad119	0.016945409
14	0x3d98fbc7	0.07469898
15	0x3d28be56	0.041197143
16	0x3cd8638a	0.026414651
17	0x3d624cf0	0.055249155
18	0x3dd481ff	0.10376357
19	0xbc63f867	-0.013914204
20	0xbce448cc	-0.027866744
21	0xbd8ae431	-0.06781805
22	0x3cae61e5	0.021286914
23	0x3d07fbf9	0.033199284
24	0x3d2c4354	0.042056397
25	0xbc2f7af5	-0.010710468
26	0xbd88c521	-0.06678224
27	0xbd5807f8	-0.052741975
28	0x3cd5653e	0.026049253
29	0x3d0bb582	0.034108646
30	0xbd6dff53	-0.058104824
31	0x3dc86575	0.097849764
32	0x3c880be0	0.016607225
33	0xbcc73e2c	-0.024321638
34	0x3d89b9e9	0.06724913
35	0x3bfdef5b	0.0077494807
36	0x3d7d0590	0.061772883
37	0x3d7a03be	0.061038725
38	0xbcd58ca8	-0.026068047
39	0xbd82ee6e	-0.06393133
40	0xbd8219e4	-0.063525945
41	0x3d48b457	0.04900011
42	0x3cc2c08c	0.023773454
43	0x3d77fcde	0.060543887
44	0x3db29166	0.08719139
45	0x3bdbb450	0.0067048445
46	0xbd2de4aa	-0.0424544
47	0x3d9fec1e	0.07808708
48	0xbca22dd0	-0.019797236
49	0x3d9b598f	0.07585441
50	0x3ccd486b	0.025058946
51	0x3d2654da	0.040608265
52	0xbd6a3d8e	-0.05718761
53	0x3c74b8a2	0.014936598
54	0xbc53fb86	-0.012938386
55	0xbbcd71af	-0.0062696557
56	0x3c8b60d0	0.017013937
57	0xbd6fafb4	-0.058517173
58	0x3d27122e	0.040788822
59	0x3c157367	0.009121752
60	0xbc4c2fd4	-0.012462575
61	0xbccbe1ee	-0.024888005
62	0xbd2c0301	-0.041995052
63	0x3dc28463	0.09497907
64	0x3c8352ac	0.016030632
65	0xbd845962	-0.06462361
66	0xbcab6716	-0.020923179
67	0x3cc0a876	0.023517828
68	0x3dfa1d6d	0.12212644
69	0xba9632c0	-0.0011459216
70	0xbd1a40c6	-0.03765943
71	0xbd0fc92c	-0.03510396
72	0x3d82834f	0.063727014
73	0xbd48cc6f	-0.049023088
74	0xbd3113f2	-0.043231912
75	0xbd6ad4fa	-0.057332017
76	0xbd38b249	-0.0450919
77	0xbd8e39b1	-0.069445975
78	0xbc43de9b	-0.011954929
79	0x3da940d7	0.0826432
80	0xbc3d0e4b	-0.011539052
81	0x3d973036	0.073822424
82	0xbc556266	-0.013023948
83	0x3ce55374	0.027993895
84	0x3d79b48f	0.06096321
85	0xbc8fb3f9	-0.017541872
86	0xbce02792	-0.027362619
87	0xbc76d5e7	-0.015065647
88	0xbc8a6b51	-0.016896876
89	0xbce09c9e	-0.02741843
90	0xbd3a0c33	-0.04542179
91	0xbbc0bb50	-0.0058817044
92	0xbd3ec1fb	-0.046571713
93	0xbd3e6024	-0.046478406
94	0xbd7bba41	-0.061456922
95	0x3b9f4217	0.0048601734
96	0xbd27eee4	-0.04099931
97	0xbc831429	-0.016000824
98	0x3d23a122	0.03994859
99	0x3ddc8d86	0.10769181
100	0xbc136f61	-0.008998723
101	0xbc681009	-0.014163979
102	0xbd1a9b38	-0.037745684
103	0x3ceb1147	0.028694762
104	0x3de79f0a	0.11309631
105	0xbd2cd5a2	-0.042195924
106	0x3c29507e	0.010334132
107	0x3c2214cc	0.009892654
108	0x3be8d5c8	0.007105563
109	0x3d22a546	0.0397084
110	0x3da2e6ea	0.079541996
111	0xbd259356	-0.040423714
112	0xbd544789	-0.051826034
113	0xbd92411d	-0.071413256
114	0xbd5d2b5f	-0.05399644
115	0x3c8dadd8	0.01729481
116	0xbd0f5f44	-0.03500296
117	0x399f49d0	0.00030381838
118	0xba8d8f9b	-0.0010800244
119	0xbc115645	-0.008870666
120	0x3c507f1d	0.012725619
121	0xbd84bdf7	-0.064815454
122	0xbd46569e	-0.04842245
123	0x3c21df50	0.009879902
124	0x3bfd4ccd	0.0077301026
125	0x3baaf327	0.0052169743
126	0x3d8c9f74	0.06866351
127	0x3ddf5f71	0.10906876

weight f4 [8, 128]
0	0xbd7b8694	-0.06140764
1	0x3d4334f0	0.047657907
2	0xbe3a8efa	-0.18218604
3	0x3e048b15	0.1294368
4	0xbe351096	-0.17682108
5	0xbe0acb67	-0.13554154
6	0xbde9ad16	-0.11409967
7	0xbe18276d	-0.1485879
8	0xbc25f560	-0.010129303
9	0xbe4c4fc2	-0.199523
10	0x3d81804d	0.063232996
11	0xbd87b18f	-0.066256635
12	0xbd67e75c	-0.056617126
13	0x3d07fb3c	0.03319858
14	0xbe44c535	-0.19215854
15	0xbd97c3c1	-0.07410384
16	0x3d747155	0.059678394
17	0xbbd4ca30	-0.006493829
18	0xbdddab2a	-0.108236626
19	0x3d866d17	0.06563776
20	0xbdce488d	-0.10072432
21	0x3d704336	0.058657847
22	0x3c919ac0	0.017773986
23	0x3d934927	0.07191687
24	0xbdb0574a	-0.08610399
25	0x3e4c9127	0.19977246
26	0x3d5259bb	0.051355105
27	0xbe59922e	-0.2124717
28	0xbe8a6a26	-0.2703411
29	0xbd79cf44	-0.06098868
30	0xbb6acb72	-0.003582683
31	0xbe29a355	-0.16566212
32	0xbd206822	-0.03916181
33	0xbd5107eb	-0.05103294
34	0xbe158f80	-0.14605522
35	0xbc03acc6	-0.008036798
36	0xbde87f73	-0.11352434
37	0xbdb71246	-0.08939032
38	0x3daf9e56	0.08575122
39	0xbd0f7668	-0.03502503
40	0x3d87f5d9	0.066386886
41	0x3db09cf0	0.086236835
42	0x3c8209f9	0.015873896
43	0x3ca3a4a7	0.019975973
44	0xbe25ddd2	-0.16197899
45	0xbbf48740	-0.007462412
46	0x3ce646a8	0.028109863
47	0x3d7cb8dd	0.061699737
48	0xbdc6bbaf	-0.097037666
49	0xbe08fc46	-0.13377485
50	0x3e9943fd	0.29934683
51	0xb95b1200	-0.00020892173
52	0x3d961407	0.07328039
53	0xbd9ac1ee	-0.075565204
54	0x3dbc8fb2	0.09207095
55	0x3bcaf6c0	0.0061939657
56	0x3b423240	0.0029632002
57	0x3d3ca33e	0.046054117
58	0xbe085c53	-0.13316469
59	0x3ce3f71b	0.02782779
60	0xbcd4e46e	-0.02598783
61	0xbd046840	-0.032325983
62	0x3e1c8cdf	0.15288113
63	0xbe16cf75	-0.14727576
64	0x3e4a1eeb	0.19738357
65	0xbd9cc79e	-0.076552615
66	0xbda2bf9f	-0.07946705
67	0xbd54d4f6	-0.051960908
68	0xbe45c11d	-0.19311948
69	0x3b98a5a0	0.004658416
70	0x3d3a458f	0.045476492
71	0x3d5df6a2	0.054190286
72	0x3d806f53	0.062712334
73	0x3da29dcd	0.07940254
74	0xbc565800	-0.013082504
75	0x3d82aef2	0.063810244
76	0x3dbd4235	0.092411436
77	0xbc964481	-0.018343212
78	0xbddcb00c	-0.10775766
79	0xbeb495fb	-0.35270676
80	0xbb8876bc	-0.004164545
81	0x3e47e05d	0.19519182
82	0xbd29d6ed	-0.041464735
83	0xbd818e34	-0.06325951
84	0x3c4d27ec	0.012521725
85	0xbe5b332d	-0.21406241
86	0xbc6c7b6c	-0.014433723
87	0xbd4a092b	-0.04932515
88	0xbe226465	-0.1585861
89	0xbdb387ab	-0.08766111
90	0x3d23374d	0.03984766
91	0xbb200ca8	-0.0024421606
92	0xbc2595db	-0.010106529
93	0x3d9a9d7b	0.07549568
94	0x3d4842d9	0.048891876
95	0x3d7073c5	0.058704156
96	0x3d0c8a58	0.034311622
97	0xbdadc6d7	-0.08485191
98	0xbcc12f94	-0.023582257
99	0xbcdc7f07	-0.02691604
100	0x3d6d1a9a	0.057886697
101	0x3dc4a621	0.09601999
102	0xbd2e11cb	-0.042497437
103	0xbdb98b06	-0.0905972
104	0xbe6a5463	-0.22883753
105	0x3d815f03	0.0631695
106	0xbd9cfa34	-0.0766491
107	0x3eae31fb	0.34022507
108	0xbc967262	-0.018365089
109	0x3dbd0704	0.09229854
110	0xbead0399	-0.33791807
111	0xbd8f996c	-0.07011685
112	0xbe130268	-0.14356387
113	0x3d98acc3	0.07454827
114	0x3e7e5c75	0.24839957
115	0x3d9d8d45	0.07692961
116	0x3d6c8c0e	0.057750754
117	0xbd5486ea	-0.051886477
118	0x3e2bc66f	0.16774915
119	0x3d058570	0.03259796
120	0xbde15c5f	-0.110039465
121	0xbbda2496	-0.0066571934
122	0xbd29d050	-0.041458428
123	0x3daaff8d	0.08349524
124	0xbe0d7a09	-0.13816084
125	0xbe826a02	-0.25471503
126	0xbd2796e6	-0.040915392
127	0xbe86d73e	-0.26336092
128	0x3d814d65	0.0631359
129	0xbd7769da	-0.060403682
130	0xbe75cea7	-0.24004613
131	0x3d198bd9	0.037486885
132	0xbdcf6d90	-0.10128319
133	0xbe366a50	-0.17813993
134	0xbe181083	-0.14850049
135	0xbeaa5afb	-0.33272538
136	0x3d02c8fa	0.031929947
137	0xbe92d68b	-0.28679308
138	0xbcefc1b0	-0.029267162
139	0xbcfe9730	-0.031077951
140	0xbcdfa232	-0.02729902
141	0xbcde6fbd	-0.02715289
142	0xbde4f36a	-0.1117924
143	0x3cd8eadc	0.026479177
144	0x3d8b35df	0.067973845
145	0x3d8fdca1	0.070245035
146	0xbea75550	-0.32682276
147	0x3d8ec3f9	0.069709726
148	0xbdf35b63	-0.11882665
149	0xbd254d02	-0.040356643
150	0xbc0b7bf7	-0.008513442
151	0xbdbddcc6	-0.09270625
152	0xbdf05904	-0.117357284
153	0x3e65d0f1	0.22442986
154	0xbd7736b6	-0.06035491
155	0xbe28fb63	-0.16502146
156	0xbe84712e	-0.258676
157	0x3c708848	0.0146809295
158	0xbdb6e2e4	-0.08929995
159	0xbde3b4b4	-0.11118451
160	0xbda8532d	-0.082189895
161	0x3d7b62b2	0.06137342
162	0xbe2a58ec	-0.16635484
163	0xbd4a84c8	-0.049443036
164	0xbe1d6fe4	-0.15374714
165	0xbd2196ee	-0.03945058
166	0xbcfe505b	-0.031044176
167	0x3d12c358	0.035830826
168	0x3d995a7d	0.074879624
169	0x3aab1e84	0.0013055359
170	0xbcb6883b	-0.022281757
171	0x3d3e38d0	0.0464409
172	0xbec5dfa3	-0.38647184
173	0xbd665d69	-0.056241427
174	0x3d8b726d	0.06808934
175	0x3c6252ed	0.013813716
176	0xbbdd8bd2	-0.0067610526
177	0xbe4ea8cb	-0.20181577
178	0x3ec2fd9f	0.38084123
179	0x3cf340f8	0.029694065
180	0x3c806ff0	0.015678376
181	0xbd6165f9	-0.05502889
182	0x3df2f0cc	0.118623346
183	0xbcbc6485	-0.02299715
184	0x3cd004a8	0.025392845
185	0xbc746f18	-0.014919065
186	0xbe11fc5d	-0.14256425
187	0x3d8d5bfc	0.0690231
188	0xbce52b9d	-0.027974898
189	0x3d1e5d57	0.038663235
190	0x3e99c4df	0.30033013
191	0xbe4bd660	-0.19905996
192	0x3e52a0ff	0.20569228
193	0xbd9685cb	-0.07349738
194	0xbd9154cd	-0.070962526
195	0xbd8ead81	-0.06966687
196	0xbeae2e38	-0.34019637
197	0xbcdf9040	-0.027290463
198	0x3e13e778	0.14443767
199	0xbb5d6fc0	-0.0033788532
200	0x3e53bbcd	0.20677109
201	0xbcc5a468	-0.024126247
202	0xbd10bee4	-0.035338297
203	0x3e86486c	0.26227129
204	0x3e1142a2	0.14185575
205	0x3d66ade5	0.056318182
206	0xbd1a2c22	-0.037639745
207	0xbec9e7bc	-0.39434612
208	0x3d033af1	0.032038633
209	0x3e2a6a53	0.16642122
210	0xbe238408	-0.15968335
211	0xbe12f7a7	-0.14352284
212	0xbdf0b553	-0.11753335
213	0xbe7bb342	-0.245801
214	0xbadda31a	-0.001690957
215	0xbe0d28a3	-0.13785033
216	0xbee40333	-0.4453369
217	0xbd7e60b8	-0.062103957
218	0x3e3e55c1	0.185874
219	0xbe0ed705	-0.13949211
220	0x3d7c33b0	0.06157273
221	0xbc9a6708	-0.018847957
222	0x3e33bfbb	0.17553608
223	0x3bfdf3fc	0.0077500325
224	0x3d64cdad	0.05586021
225	0xbeb78aa1	-0.35847953
226	0xbe4caa19	-0.19986762
227	0xbeb5be4a	-0.35496742
228	0xbca2a61c	-0.019854598
229	0x3d830b9e	0.063987
230	0x3d7beace	0.061503224
231	0xbe8cf50e	-0.27530712
232	0xbeb02ac2	-0.34407622
233	0xbd36f241	-0.044664625
234	0x3db2a645	0.0872312
235	0x3e4b74b2	0.19868734
236	0xbd6c5859	-0.057701442
237	0x3d1c753f	0.038197752
238	0xbebfccfd	-0.3746108
239	0xbe745871	-0.23861863
240	0xbea057ac	-0.31316888
241	0x3cad34b4	0.021143295
242	0x3eb94db4	0.36192095
243	0x3d1d26a1	0.038366918
244	0xbc84c99c	-0.016209416
245	0xbd699a9b	-0.05703221
246	0x3e684499	0.22682418
247	0xbd94174f	-0.07231008
248	0xbe3acd5a	-0.18242398
249	0xbab64286	-0.0013905324
250	0xbe0fcc43	-0.14042763
251	0x3d8257b9	0.06364388
252	0xbef76782	-0.48321158
253	0xbe106c3f	-0.14103793
254	0xba05455d	-0.00050838833
255	0xbedccd07	-0.43125173

bias f4 [8]
0	0xbe91849f	-0.28421494
1	0xbe8c934d	-0.27456132
2	0xbe19cf25	-0.15020426
3	0xbe123935	-0.14279635
4	0xbe642f9f	-0.22283791
5	0xbe327006	-0.17425546
6	0xbe2dbf12	-0.16967419
7	0xbe869f01	-0.26293185
