Doom/model-doom.pth (torch_old, 116984 bytes, 8 tensors)

weight f4 [8, 1, 6, 6]
00000000: 8454 033e 9952 cdbd 8932 263e f763 443e
00000010: ba8c 78bd 0122 513e 708e 253d d691 1abd
00000020: c870 debd dbd6 213e 4144 8c3d b1a5 3a3e
00000030: 2bc7 8b3d a561 54be b361 34be 006f f73c
00000040: 9fec 2e3e 6ae9 593c 298f 383e 46e6 f8bb
00000050: 44f7 81bd 7b89 c63c daeb da3d df42 203e
00000060: b3f1 e8bd 79d0 d3bd 96ae 07be 9a90 d0bd
00000070: 612e 12be bf3b 8b3d 220d 12be fb46 393e
00000080: 8598 cd3d 1fc4 a8bd 34fd 16be 2fb5 98bd
00000090: 2017 06be 23fa 45bc 2178 b53b 2f8d 933d
000000a0: 402f 5ebc f3c0 23bd 59aa 09be 5e49 1a3d
000000b0: ce02 893e e78c 8c3e a3b3 ea3d c04d ff3b
000000c0: 9713 9d3e 1c11 833e 39e5 ea3e bc5a aa3e
000000d0: 9b88 453e 99b4 113e 604c 683e a180 fe3d
000000e0: a83a 653e ff36 b73e 98aa a63e 00cc 833e
000000f0: 80ae b73e 3b68 853e 2e1d 1c3f f059 c53e
00000100: a537 c13e 00f4 d03e f6c0 553d 80e4 f53d
00000110: e016 813e a415 c8bd 266e 62bd a76d b2bd
00000120: 7282 0a3e be99 043e 1258 08be f36e f23d
00000130: 3f96 c53a eaee 1d3e 578b 093c 3007 b0bd
00000140: 9bd7 ad3c e9e5 8cbd ce74 3fbd b616 82bd
00000150: 9d9f f7bd c96e 68bc 4093 14be 569e c23d
00000160: dca5 1f3e d170 0e3d 6e09 0cbe 320a e8bd
00000170: 4c80 1ebe d1d8 de3d c186 75bc b48f b7bd
00000180: b542 f1bd b7db b63b 911d 78bd 4d94 8cbb
00000190: e151 88bd 9ed1 0a3d 234c 2abd 1b91 dbbd
000001a0: 2b74 08be 3ba0 8ebc 9341 0ebd 54e3 20be
000001b0: 0ff1 1c3e e406 433e ac26 823c 3fd4 d63b
000001c0: 3ee0 36be e476 83bd 20e5 4b3d e874 a83e
000001d0: 59d3 a23e 4dd7 1a3e 9a28 33be 76be b13d
000001e0: bc8f 833e 87cd 233e c8d3 e43e ad50 053d
000001f0: 154e e13d de12 123d 3a94 223e 2569 ab3d
00000200: c022 5b3e acab 143d a065 2bbc 9b13 e73d
00000210: 3722 61bb 3bc8 513e f7f0 c23e 05bb 533e
00000220: 99f5 783e f41f bcbd 7f27 c9bd 7577 5d3e
00000230: ae76 6f3e ec9e 803d 6be0 80bd 19f3 5c3c
00000240: 9fb7 36be dea8 c43d 20da 623d 9ae6 023e
00000250: bcb4 d9bd 9979 1bbc 55cf d93d 8e6c be3e
00000260: cb0e b93e d87d 343e e312 8c3d 2d28 bd3d
00000270: 19db df3e 69ad 203f 3c41 073f 9971 173f
00000280: 0bb3 7cbc eb60 b33c ebb8 7d3e 8f6e bc3e
00000290: baba 193f 296d 4a3f ea44 2f3f 7e23 c53e
000002a0: 6615 2c3f 21fa 0f3f d961 5d3f 9628 3a3f
000002b0: 8617 033f 9bb6 db3e 80b4 8f3d 242c 973d
000002c0: 0369 793e ba56 5a3e c6df 0abe c651 563c
000002d0: 3929 c23d 297e 993d 957e 0e3e 6868 be3d
000002e0: 2e35 f93d 7453 2cbe 8bad 7dbd f6a6 22be
000002f0: c9af 9f3d e323 d0bd 7bae 063d 0d0e 80bd
00000300: 4531 8ebd 8627 10be 4db0 29be ba76 ae3d
00000310: c382 813d 99de 663d 8cff ba3b d4a7 533c
00000320: 918b 9b3a 1a14 50bd 1705 ed3d a8c7 e2bd
00000330: a53b 52bd d165 32bd 8313 98bc 2c48 083e
00000340: 2c6e dfbd 7eed a13d 409d 8cbd fb52 efbd
00000350: b9d2 e4bd f3af 38bd af66 d2bd d2e6 de3d
00000360: c9f9 833e b141 733e 50ec 853e 8e15 943e
00000370: 2d8e 203c 553a 943e e95a b63e b0f9 c73e
00000380: a47e d83e 505e cd3e 845f be3e cb45 e23e
00000390: bc01 c03e 9151 383f 4963 743f b840 633f
000003a0: 77c2 c83e 6c20 de3e 24dc 333f 09c9 353f
000003b0: 3e64 2e3f fa90 8c3f 090b 873f 2a97 dd3e
000003c0: 805a 103f 00d5 223f 68e8 ab3f 8e7b 853f
000003d0: 6371 363f ec47 713f 105a 96be f358 843d
000003e0: b0fc 243f 7165 0a3e 99d4 3f3e 13d1 0c3d
000003f0: a279 debc 4a5e 423d 0249 fcbd 2981 78bd
0.12825209 -0.1002552 0.16230215 0.19178759 -0.060681082 0.20423128 0.040419042 -0.037736736
-0.10861355 0.15804617 0.06848956 0.18227269 0.06825098 -0.20740373 -0.17615394 0.030204296
0.17082451 0.013300279 0.18023361 -0.00759581 -0.0634599 0.024235478 0.10689516 0.1565051
-0.113742255 -0.103424974 -0.13250193 -0.101838306 -0.14275505 0.06798505 -0.14262822 0.18093483
0.100388564 -0.08240532 -0.14745027 -0.07456433 -0.13094759 -0.012083563 0.005538002 0.07204663
-0.01356107 -0.039978933 -0.13443889 0.037667625 0.26759952 0.2745125 0.11460044 0.007791251
0.30679008 0.2559899 0.45878008 0.3327235 0.19290392 0.14229049 0.22685385 0.12426878
0.22385657 0.35784146 0.32552028 0.25741577 0.3587532 0.26056084 0.60982025 0.3854518
0.37737766 0.40811157 0.052185975 0.120064735 0.25212765 -0.097697526 -0.055280827 -0.08712321
0.13526323 0.12949273 -0.13314846 0.11837568 0.0015074684 0.1542317 0.008395038 -0.08595121
0.021220973 -0.068797894 -0.046742253 -0.06351988 -0.12090991 -0.0141865695 -0.14509296 0.095028564
0.15590614 0.03477556 -0.13675472 -0.113300696 -0.15478629 0.10881198 -0.014985741 -0.08962956
-0.117803015 0.0055803913 -0.06057507 -0.00429014 -0.06656242 0.033891313 -0.041576516 -0.10721036
-0.13325565 -0.017410388 -0.034730505 -0.15711719 0.15326332 0.19045597 0.01588758 0.0065560634
-0.17858979 -0.06419161 0.049779058 0.32901692 0.3180187 0.15121193 -0.17495957 0.08678906
0.25695598 0.15996371 0.44692826 0.03254764 0.11001221 0.035662524 0.15876856 0.08369664
0.21399975 0.03629653 -0.010461241 0.11283036 -0.003435267 0.20486538 0.38074467 0.20676811
0.24312438 -0.09185782 -0.098219864 0.216276 0.23385116 0.06280312 -0.06292804 0.013485693
-0.17843483 0.09602521 0.0553838 0.1278328 -0.106301755 -0.00948944 0.106352486 0.37192196
0.361441 0.1762613 0.0683954 0.092361785 0.43721846 0.627646 0.52833915 0.5915771
-0.015423547 0.0218968 0.24777572 0.368031 0.6005055 0.79072815 0.6846453 0.3850364
0.6722015 0.5624104 0.8647743 0.7271818 0.5120777 0.42912754 0.070168495 0.07381466
0.24356465 0.21322146 -0.13561925 0.01308102 0.09480519 0.07494766 0.13915475 0.09297258
0.12168346 -0.1682871 -0.06193308 -0.15884003 0.077972 -0.10163095 0.03288124 -0.0625268
-0.06942991 -0.14077577 -0.1657116 0.08518739 0.06323769 0.05636463 0.005706733 0.012918431
0.0011867156 -0.05080042 0.115732364 -0.11073238 -0.051326413 -0.04355413 -0.018563991 0.13308781
-0.109096855 0.07906626 -0.068659306 -0.11685749 -0.11173005 -0.045089673 -0.102734916 0.10883869
0.25776508 0.23755528 0.26156855 0.28922695 0.009799522 0.28950754 0.35616234 0.39057684
0.4228412 0.40111017 0.37182248 0.44193873 0.37501323 0.7199946 0.95464 0.8877063
0.39210865 0.4338411 0.7025778 0.7100988 0.6812171 1.0981743 1.0550243 0.43279392
0.5638809 0.6360626 1.34303 1.0428331 0.71266764 0.9425037 -0.29365587 0.06462278
0.6444807 0.1351526 0.18733443 0.034379076 -0.027157608 0.047453202 -0.12318613 -0.06067005

bias f4 [8]
00000000: 836c 09bd 8046 12bf 6845 44bd 97f4 e3be
00000010: 8cf8 67bf c9e9 24be 33fa 7abf 0349 22be
-0.03355075 -0.57138824 -0.047917753 -0.44522545 -0.9061363 -0.16104807 -0.98038024 -0.15848164

weight f4 [8, 8, 3, 3]
00000000: 9338 a73d 38d1 b63d 296d 0a3d c7ec 90bd
00000010: 800c 71bc 3b66 be3d 4231 c8bd 02fe adbd
00000020: f997 eebd c740 81bc 6513 823c a470 e53c
00000030: a4fe a2bc b814 0c3d 3841 edbc be5a 463d
00000040: 0419 de3d 8679 eabc a220 a9bd 8b9a ed3d
00000050: dae0 15bd 8296 483d 4193 d33d 1134 9c3d
00000060: 9e2a 213d 2ae2 33bd 6198 6bbd d9ae a1bd
00000070: 5eae 8c3d 145b d7bd e2b1 86bd db01 15bb
00000080: 924d bb3d 14ed 073d 073b 833c 66e5 8c3a
00000090: 0ea9 e3bc c3e4 263d 8643 31bc a7f3 abbd
000000a0: 5565 f8bc 4f22 7ebd 3992 c7bd fdb6 e93c
000000b0: 2484 373d 7781 95bd f219 51bd 2cb6 8b3c
000000c0: d457 60bd 2eca 4a3d 8ede 413d 5cd2 f63c
000000d0: 705b 17bc 48cb 27bd 0e7e 92bd 9640 413d
000000e0: 8ba4 b3bd 9d12 163b 7aa6 843d c39d b8bd
000000f0: d357 363d 8e9c 11bd 21bf 15bb d1d4 993d
00000100: c0d3 56bb b647 4e3d 71e0 0b3c 625a 46bd
00000110: 84e4 afbd 09bd dcbd c354 ef3d 6158 ebbd
00000120: 5fea e4bd cdcc 06bd 1e9f e63d e74a ea3d
00000130: 01d8 263d 13f9 0ebb a18c 8c3c 5545 9a3d
00000140: a3f9 4ebc ac63 19bc ca78 15bc 3200 c4bc
00000150: c9b8 66bd 7992 d1bc 5710 48bd 37ce 633c
00000160: 888a 0c3d 798b 3cbb 233c cfbd eab5 c7bd
00000170: a5b9 abbd a72b b5bc 6bbc a9bd d1b4 eabc
00000180: 2339 e9bd e88d bc3d 558f c73d 4b38 cd3d
00000190: 72c1 843c 2a75 9e3d df97 c3bd 2c43 c5bd
000001a0: 5302 9bbd 9b31 91bc 5681 60bd 67ef 5ebc
000001b0: 4d9d d83b a292 de3c dd44 a93d a324 00bd
000001c0: 1cf5 98bd 33ea b33d bebe 453b 9351 9bbd
000001d0: 2838 8dbb 0f48 5fbd 7107 d7bd 6ba1 aa3d
000001e0: 1d94 e1bd c104 39bd 403f b43d 8015 c0bd
000001f0: 4d2b a1bd 66e7 b9bd b99b a9bd 1395 d13d
00000200: 7119 69bd c8c2 383d c0da 033e d45a cb3d
00000210: 7009 02be 03fb 4dbb 1222 81bd 4bdb 1bbd
00000220: 3283 53bc e66d bf3c 7fc6 3e3d bc21 983d
00000230: abfc 93bd ea3e 83bb 5d1d 493d fa5c 2b3d
00000240: 5552 a1bd ba42 b1bd cb6d b93d 2713 de3d
00000250: aebf 753c 5466 753d c308 573b 2d96 ed3d
00000260: e9eb 803d 148e 0fbc 5d41 9cbd 8b0e ce3d
00000270: 1b48 4a3c e8e6 953d d073 f4bd 1574 52bd
00000280: eb53 4cbd aba6 6fbd 68df 7c3c f860 e0bc
00000290: a5e2 b6bd 3478 b3bd b453 8c3b 49d2 dcbd
000002a0: d159 a33d 2f58 953d 46e3 4f3d 4924 99bd
000002b0: ff79 783d 3146 68bd 4ede 733d 646c e93c
000002c0: 8b10 ae3d ee79 ab3d bd93 15bd 57e0 913c
000002d0: db8e 1f3c 941e 5ebd 4c7b d83c 583b e73c
000002e0: 3912 f4bc 8f85 cbbd d71d 2d3c 0a3a b93d
000002f0: b9e6 7c3d e691 0bbc eb6f 713c 0bbf ec3d
00000300: 2c3f a7bd 3289 cdbd c081 8e3d 5119 843d
00000310: e5c7 f03d 2c58 e2bd d134 f5bc 6f07 d2bd
00000320: 9fae bc3c 3f7b 40bc 68b3 e43b 79dd 52bd
00000330: 528f 433d 66aa d8bc 37e4 86bd 52dd 1f3d
00000340: b018 a3bd 1612 88bd 54cb d3bc 8052 e7bd
00000350: 4618 34bd ae3e e1bd dc8f 813c 1c14 b43c
00000360: 6275 dabd 3ad0 3c3d ce5e debd a0e5 30bd
00000370: c045 c33b 410d 813d 85b6 c43d c560 e53d
00000380: 2493 a1bd 385d 89bd c116 f1bd e9d6 9f3d
00000390: dd22 c33d a8bc 323c 937a d5bd 2428 efbc
000003a0: 0c37 afbd ae0f 9cbd cebc 5b3d c094 38bd
000003b0: 024a 5a3d 2400 e3bd 982e 593c d9b9 e4bd
000003c0: 248c d6bc aafd 403d 2cd0 843c a5d6 d63d
000003d0: fcbe c3bc 1181 973d 750e c6bd 5bc2 e1bd
000003e0: 50e2 c9bc 3ad8 dabd da90 41bd 5816 fdbc
000003f0: 5683 1b3d 4453 e73c 6bf4 823d 40bb 63bb
0.081650876 0.08926624 0.03379551 -0.07076412 -0.014712453 0.09296843 -0.0977502 -0.08495714
-0.1165008 -0.015777959 0.015878389 0.028007813 -0.019896813 0.034199446 -0.028961763 0.048426382
0.10844615 -0.0286224 -0.08258177 0.11601742 -0.03659139 0.04897166 0.10330821 0.076271184
0.039347284 -0.04391686 -0.057518367 -0.07894678 0.068691954 -0.10515419 -0.06576897 -0.0022736702
0.09145655 0.03318508 0.016019357 0.0010749518 -0.027790572 0.040745508 -0.0108193215 -0.08396082
-0.030321756 -0.062044438 -0.09744687 0.028529638 0.044803753 -0.07300084 -0.051050134 0.01705464
-0.05477126 0.04950922 0.047331385 0.030129604 -0.009238109 -0.04096535 -0.07152949 0.047180735
-0.087716185 0.0022899278 0.064770654 -0.09014466 0.04451735 -0.035549693 -0.0022849517 0.07511295
-0.0032780021 0.050361358 0.008537398 -0.04842604 -0.08588508 -0.10778243 0.11686089 -0.11491466
-0.11177515 -0.032910157 0.11260818 0.11440068 0.04073334 -0.002181594 0.0171569 0.07532755
-0.01263276 -0.0093621425 -0.009123037 -0.023925874 -0.05632857 -0.025582539 -0.048843708 0.013904146
0.0343118 -0.0028769656 -0.10118892 -0.09751494 -0.08385018 -0.022115542 -0.08287891 -0.028650673
-0.11387851 0.09206754 0.09744135 0.10020503 0.016205523 0.07737191 -0.095504515 -0.09631953
-0.07568803 -0.017723849 -0.054810844 -0.013606883 0.0066105486 0.02716953 0.08265088 -0.03128494
-0.07468626 0.08784904 0.0030173506 -0.075839184 -0.004309673 -0.05451208 -0.10499466 0.08331569
-0.110145785 -0.04517055 0.088011265 -0.09379101 -0.07869587 -0.09077339 -0.08281655 0.10233512
-0.05690903 0.045107633 0.12876415 0.099294335 -0.12698913 -0.0031430132 -0.063053265 -0.03805093
-0.012909697 0.023367833 0.04657602 0.07428309 -0.07225927 -0.0040053027 0.04910027 0.041836716
-0.07877032 -0.08655305 0.090541445 0.10843497 0.014999313 0.05991204 0.003281162 0.116009094
0.06294996 -0.008761901 -0.076296546 0.100613676 0.012346293 0.073194325 -0.11936152 -0.051380236
-0.049884718 -0.058508556 0.015434124 -0.027389988 -0.08929948 -0.08763161 0.004282439 -0.10782296
0.079761155 0.0729221 0.050753854 -0.07477624 0.06066322 -0.056707565 0.05953818 0.028494067
0.08499249 0.083728656 -0.036517847 0.017807169 0.009738649 -0.05422838 0.02642598 0.02822654
-0.029793845 -0.09937584 0.010566196 0.09044273 0.06174347 -0.008518672 0.014736156 0.11559876
-0.08166346 -0.100359336 0.069583416 0.06450141 0.11756877 -0.11051974 -0.029932411 -0.10255324
0.023032485 -0.011748134 0.0069793947 -0.051480744 0.047744103 -0.02644844 -0.06586497 0.039029427
-0.07963693 -0.066440746 -0.02585379 -0.112950325 -0.04396846 -0.10998283 0.015815668 0.021982245
-0.1066692 0.046097018 -0.10857926 -0.043187737 0.0059592426 0.06301356 0.09605125 0.11200098
-0.07889393 -0.06707233 -0.11771918 0.07804663 0.09528134 0.010909237 -0.1042377 -0.029193945
-0.08555421 -0.07620178 0.053646855 -0.045063734 0.053293236 -0.11084011 0.013255738 -0.1116826
-0.026189871 0.047116913 0.016212545 0.10490159 -0.02389478 0.07397664 -0.09670726 -0.110233985
-0.024644047 -0.10685773 -0.04725728 -0.030894443 0.03796705 0.028237946 0.06394275 -0.003474906

bias f4 [8]
00000000: d0d7 bbbd 858f 733c 8da1 993d 90f2 dcbb
00000010: e8e7 77bc d59a 6bbd 82f7 96bd 30ee 2c3e
-0.09172022 0.014865761 0.075015165 -0.006742783 -0.015130974 -0.057520706 -0.07371427 0.16887736

weight f4 [128, 192]
00000000: 94f5 833d d076 843c 1e3c 213d 7429 033d
00000010: 8c39 4abc b0f4 f83b 68dd 0dbd 0cd0 febc
00000020: f0f6 583d c624 3fbd b34a 1ebd 0eb7 133d
00000030: 4809 b63c d417 f23c 2c42 593d 1057 0bbd
00000040: 9207 523d 740c 50bc ca87 98bc 16ba 8b3d
00000050: 44e0 143d 4657 1c3d ba8f 8b3d 95b3 88bd
00000060: 5a8d 56bc 73c7 6f3d 182f 5f3d 2b90 8b3d
00000070: 0b98 dd3c cedb 353d 8123 79bd 07f3 383d
00000080: a5bb 643d 7c11 62bd e46b 86bc bd5b 83bd
00000090: 5c09 833d 302b 6dbd 6347 d9bc 9a9b 95bc
000000a0: 1d6a 3d3c eaba 1fbb 09e1 e2bc d56c abbc
000000b0: 47d5 64bd 4b81 523d 492a 4d3d 3ea7 073c
000000c0: 3cd2 6bbc 4475 73bd aa0e f6bb e88d 78bd
000000d0: 6c29 dd3c cab7 90bd 14b5 08bd bbfb 923d
000000e0: f838 913d 8569 7bbd 92b7 853c 3227 e1bc
000000f0: 0026 443d 114c d7bc bc21 c63c 29d9 a0bc
00000100: 0109 9bbc 5000 37bd f200 113d 5846 5e3d
00000110: eb5d d43c 1fe2 073d 0015 25bd 2c86 863c
00000120: 3064 b1bb e416 12bd 46c5 2c3d c205 1bbd
00000130: ec3c d9bc e0a9 11bc a84a 37bd 88be a1bc
00000140: d5e3 8bbd 8071 93ba b16c 53bd f5e2 36bd
00000150: 8d21 27bd 00b5 04bc 0c37 173d 04c4 7bbd
00000160: 7079 083c 606b e0bb f0d5 133c 16a9 913d
00000170: 6049 2e3d cb49 57bd 7840 563c ee4a 8f3d
00000180: 9836 643d 604b 3d3c 2852 72bc 3823 c03c
00000190: 80c3 cb3a 3c1b 6a3d 7242 883d ca20 453d
000001a0: 6a72 183d e2a7 033d 381a fdbc ac70 b1bc
000001b0: e0ba ce3b 842d 3fbc f054 c73c 040f e83c
000001c0: 60f0 7dbb 3488 e9bc 0653 0f3d 7e59 133d
000001d0: b5e2 8abd 8001 86bb 5c5a 5e3d 1c71 00bd
000001e0: 5abc 4f3d e8a2 74bd 8c26 143d 875e 4ebd
000001f0: 4ccc f53c 2328 8ebd ec9c 36bd 00e7 46bd
00000200: da9e 58bd 8a98 843c c925 51bc 0fc4 21bb
00000210: c5de 4f3d 46e1 7cba 569e 5a3b 669c 1a3c
00000220: 1c48 63bd bdf6 21bb e550 373d 7fb3 4cbd
00000230: 04b8 4c3d c165 83bd 7857 87bd 9aa9 883d
00000240: 3af4 84bc dea6 5cbd 4c4b 9a3c 65b8 5bbd
00000250: 40cb 1f3b 164c 513d c0ff 793c 1b75 84bd
00000260: d808 46bc 7012 8a3d bcb8 d33c c8cb 1e3d
00000270: f097 40bc 90e3 71bc 447e d13c 806b 7bbb
00000280: c0ad b03b 8c21 1d3d 0255 853d ceaa 133d
00000290: fc8f 6b3d 871d 72bd 8a26 883d 54a7 14bd
000002a0: bff3 b03b c891 c4bc e6e1 5cbd 936d 403c
000002b0: a8a1 8cba bf4b a8bc c422 1bbd 3c66 83bd
000002c0: 5632 edbc f7f1 823d 13f7 fa3c 0535 d13c
000002d0: ece4 8b39 deb1 3c3d 1168 eabb 3c2b 75bb
000002e0: 750d 933d e884 4ebb 5221 3c3d 343e 0e3b
000002f0: 8cb2 9f3c 38e7 7bbc c7f8 0b3d ab30 29bd
00000300: 5c8c 47bd 8001 ecba e8f4 6f3d 7843 403d
00000310: 5015 dd3b 4c01 60bd 1c33 803c 2c8b fe3c
00000320: f2e4 63bd c86d 363d f60a 57bd b0d5 e53b
00000330: e06c a5bc 9417 a9bc db86 22bd 5c4f 56bd
00000340: 0017 2e3d 8b92 1fbd 10ca 7f3d 8eb0 5cbd
00000350: f4c4 76bd aa71 acbc 52aa 833d 60d0 8fbb
00000360: f85b 4fbd 472c 753d e144 913d 6437 20bd
00000370: 3979 5a3d 0534 bd3c af24 443d b16c 053d
00000380: 3ce8 473d c8bd db3c 5b03 19bd a112 c0b9
00000390: 92c2 f33c c45b 443d 057f 75bd cb22 4fbc
000003a0: 6b71 d1bc 3a2e f1bc 0364 2cbd 14d3 81bd
000003b0: b72c 12bd 45ee 2c3d c182 6fbd 9da4 7dbd
000003c0: a176 81bd 7250 f2bc c09e 833a cc86 343d
000003d0: f0da 6a3d 1cfd 793d 9f51 16bd 208f 35bb
000003e0: f84b 4d3d 84b9 743c a8e3 803d 9c40 4abd
000003f0: 344d 853d 6ff9 77bc 6f77 0fbd a0f7 303b
0.06443325 0.016169935 0.039363973 0.032021955 -0.012342822 0.0075975284 -0.034634978 -0.031105064
0.052969873 -0.04666593 -0.038645457 0.036063246 0.022221223 0.029552378 0.053041622 -0.034018576
0.05127675 -0.012698282 -0.018619437 0.068226025 0.03634669 0.038169168 0.06814523 -0.066748776
-0.013095224 0.05853982 0.05448827 0.06814607 0.027050039 0.044399075 -0.060824875 0.045153644
0.055843014 -0.055192456 -0.016408868 -0.06413982 0.063982695 -0.057902515 -0.026523298 -0.018262673
0.011560944 -0.0024372884 -0.027695196 -0.020925919 -0.05586746 0.051392835 0.050089154 0.00827962
-0.0143933855 -0.059438005 -0.0075090723 -0.060682207 0.02699729 -0.07066305 -0.033375815 0.0717692
0.07090944 -0.06137993 0.016322885 -0.02748451 0.047887802 -0.026281388 0.024186008 -0.0196348
-0.018925192 -0.044678032 0.035401292 0.054266304 0.02592369 0.03317463 -0.04030323 0.0164214
-0.0054135546 -0.03566636 0.042180322 -0.037847288 -0.026518308 -0.008890599 -0.044748932 -0.019744173
-0.06830565 -0.0011249036 -0.051617328 -0.044650037 -0.04080348 -0.008099794 0.03691773 -0.061466232
0.008329734 -0.0068487376 0.009023175 0.07112329 0.042550445 -0.05256061 0.013076894 0.069967136
0.055716127 0.011553615 -0.014790095 0.023454294 0.0015545934 0.05715488 0.066532984 0.048126973
0.03721849 0.032142527 -0.030896291 -0.021660171 0.0063088983 -0.011668567 0.024332494 0.028327473
-0.003874801 -0.02850733 0.034991287 0.03597402 -0.06781522 -0.0040895343 0.054285392 -0.03135787
0.050716735 -0.059725672 0.036169574 -0.050383117 0.030004643 -0.06941249 -0.044583246 -0.048560143
-0.052885868 0.016186018 -0.012765356 -0.002468351 0.05074956 -0.00096466055 0.0033358536 0.009436702
-0.05548869 -0.0024713718 0.04475488 -0.04997587 0.04998018 -0.064158924 -0.0660848 0.06672974
-0.016229738 -0.053870074 0.018834732 -0.05364265 0.002438262 0.05109795 0.015258729 -0.064676486
-0.012087069 0.06741798 0.025844924 0.03876856 -0.011754975 -0.014763728 0.025572903 -0.0038363636
0.0053918064 0.03836207 0.065103546 0.036051564 0.05751036 -0.05911019 0.06647976 -0.03629239
0.0054001505 -0.023995295 -0.05392637 0.0117448745 -0.001072933 -0.020543931 -0.037874952 -0.06415984
-0.028954666 0.063938074 0.030635392 0.025537977 0.00026682706 0.046068065 -0.007153519 -0.0037409803
0.07180301 -0.0031512324 0.045930214 0.0021704556 0.019494317 -0.015374951 0.0341728 -0.04130618
-0.04871784 -0.0018005818 0.05858317 0.046939343 0.0067469254 -0.054688737 0.01564937 0.031072222
-0.05563826 0.04453829 -0.052500688 0.007013999 -0.020193517 -0.020641126 -0.03967939 -0.052321777
0.042502403 -0.038958114 0.06244856 -0.053879313 -0.060246423 -0.021050293 0.064289704 -0.004388854
-0.050624818 0.05985668 0.07093216 -0.039115325 0.053338263 0.023096094 0.047886547 0.03257436
0.04880546 0.026823893 -0.037356716 -0.00036634973 0.029755864 0.047939077 -0.05993559 -0.012642573
-0.025566777 -0.029440988 -0.042087566 -0.06339088 -0.035687175 0.04221942 -0.058474306 -0.061924566
-0.06321455 -0.029579375 0.0010041818 0.044073865 0.0573377 0.0610324 -0.036698934 -0.0027703717
0.050121278 0.0149368085 0.06293422 -0.049378023 0.06508866 -0.015135153 -0.03502601 0.0027003065

bias f4 [128]
00000000: 2ce3 1a3b 58d7 a7bb 63fd b53d ac01 783c
00000010: 1231 ed3c 9646 a2bd 2054 433c a78d 81bc
00000020: b4ca 2b3b 8c47 3ebc ec58 3f3c c6db 03bd
00000030: 2d6f 383b 64b9 7dbd 2285 193e 273a 163d
00000040: a17b 4e3d 5c3a 4cbd 34ec 48bc ee8c 123d
00000050: 59c5 ecbc ed7f ebbb 5084 8c3b 44ef 903c
00000060: 93b6 88bd 68f3 b8bb ccdf e33c 00c3 94bb
00000070: 36ec 76bd 62e1 1dbb cbef 89bd 54be 02bd
00000080: 05aa 9dbd b84d 57bd 2847 233c 4a4a 043e
00000090: 5fe0 2ebd 2a0c c5bb 4791 133d 42bc 9a3c
000000a0: 1a0c 54bd f23f 96bd c771 61bb 5807 3b3a
000000b0: 3199 243d f998 65bd 170d f0bc 08cd 68bc
000000c0: 0ebb bc3d 3f45 773d 3ae7 163d f59a 56bd
000000d0: 5966 6a3c 69a2 9ebc a620 233d 8d78 07bd
000000e0: 6e7f c7bc f69a cc3b 8f81 11bd 9417 e3bc
000000f0: 9c10 513d 06d7 07bd 9e03 61bd ad73 7f3d
00000100: 2fd4 a83d 6fa1 81bd 170f 36bc 34d8 eb3d
00000110: a02c 6abd 35e4 af3d bd3c 103d e02e 93bd
00000120: 0a24 d53d f8b7 fabc 129b 673d 7334 413d
00000130: 7915 a33c 2a11 8bbd 8971 acbc 36cf ba3d
00000140: ccae 95bd 492c 0d3e 20c7 50bb 44a6 83bd
00000150: 7f77 cbbc 55e8 86bd 93cd e3bc 40c9 65bb
00000160: 40da c1bc a86a a7bd 88cf 5abd ca39 cb3c
00000170: f947 cd3c 2da9 75bd 8060 1836 3ebd 9fbd
00000180: 27f4 223c e49e 4abd 9c0a 9abb 973a e03c
00000190: 4071 0e3c b4b2 40bd cf13 78bb f394 7ebc
000001a0: c0a9 e9bc b94f 0b3d c13a bfbc 9df8 57bd
000001b0: fde1 48bd 3490 66bb 913d 9d3d b6a7 a2bd
000001c0: 149e 253d ee36 7b3d 1d4d fc3b fe0c f53c
000001d0: 6152 2e3d 8028 b13b 14a7 8d3d 28e3 50bc
000001e0: ee5b 9e3d 7284 9cbc 267a 41bd 166c 7c3d
000001f0: 304e 0ebc 82d2 24bd b0ca 7ebd 0883 aa3d
0.002363394 -0.0051221065 0.0888622 0.015137117 0.028954063 -0.079236194 0.011921912 -0.015814615
0.002621335 -0.011613738 0.0116789155 -0.032192014 0.0028142438 -0.06194438 0.14992192 0.036676552
0.05041087 -0.049860343 -0.012263346 0.035778932 -0.028902696 -0.007186881 0.004288234 0.017692216
-0.06675448 -0.0056442507 0.027816676 -0.0045398474 -0.060283862 -0.0024090637 -0.0673519 -0.031919792
-0.07698444 -0.052564353 0.009965695 0.12918964 -0.042694446 -0.006013413 0.03602722 0.018888596
-0.051769353 -0.07336415 -0.0034400092 0.0007134578 0.040185157 -0.05605409 -0.029303117 -0.0142090395
0.09215365 0.060368773 0.03684161 -0.052393872 0.014306628 -0.019364553 0.039826058 -0.03307395
-0.024352755 0.0062440587 -0.035523947 -0.027721204 0.05104123 -0.033164047 -0.05493509 0.062366176
0.08243596 -0.06329619 -0.011111996 0.11515847 -0.057171464 0.08588449 0.035214175 -0.07186675
0.104072645 -0.030605301 0.05654437 0.04716916 0.0199077 -0.06790383 -0.021050232 0.091215536
-0.073087305 0.13786425 -0.003185697 -0.06428197 -0.024837254 -0.065872826 -0.027807986 -0.0035062581
-0.02366364 -0.0817464 -0.053420573 0.02480783 0.025058733 -0.05997579 2.2705935e-06 -0.07799767
0.009945906 -0.049467936 -0.004700972 0.027371688 0.008693993 -0.047045425 -0.0037853604 -0.015538442
-0.028523326 0.034011576 -0.023343446 -0.05272733 -0.049043644 -0.0035181167 0.076777585 -0.079421446
0.04043396 0.061331682 0.0076996223 0.029913422 0.04255903 0.0054064393 0.06916633 -0.012749471
0.07732378 -0.019106124 -0.04723563 0.061626516 -0.008685634 -0.04023982 -0.062205017 0.083257735

weight f4 [8, 128]
00000000: 4966 74bd bfbe bdbc 5c70 8dbe 356a b8be
00000010: 9587 243d e6de 26be 151b 1abd 4cff 3abe
00000020: 5697 6e3e c87b 1fbd bd8f 1dbe ebbc 453d
00000030: 2020 82be 6984 573b 8ad7 94be 0fff 0a3e
00000040: 7575 193d 011a a2bd 58bf 60bc 74ce abbd
00000050: 827a 133c 8b46 9abc 8fb5 84bb ac0a 383c
00000060: 90d7 edbb 1af6 6b3e 2ef3 5f3e 5ea1 663e
00000070: 0405 27be 6cb9 2d3e 1001 e13a 881a 3d3c
00000080: 155c 8fbd de56 0c3d eae1 92bc 6e63 6fbe
00000090: 0a51 53bd 3724 a13d 401d b1bc c1d3 90bd
000000a0: df69 12be c9f6 21bd 6d93 323c 208c 8ebd
000000b0: 99dc 5a3d 0fa9 a73d a52a 913d 6fc6 a53d
000000c0: 5d37 c8be 2492 4cbe e878 e9bc d917 40be
000000d0: 6809 463d 3a9c 93bd 7abc a93d 00cf 613d
000000e0: ce8f 21be 8333 1ebd 0276 19bd 253b 393c
000000f0: 790a 0ebe 909a ea3b 9dc9 ff3c af2e a5bc
00000100: b3d9 3ebc b182 97bd bcc2 a53d e611 88be
00000110: 3e63 273d c95d b4bd 25c7 833d a577 b03d
00000120: eaf2 91be 88ea 0abe 2ce5 79bc e43a e5be
00000130: f46e e5bd 30c3 36be 4a6b 49be 4839 15be
00000140: 01ce 9bbd a5be 80be d6fd 753d 10fd 57be
00000150: 6cd2 8e3e c95f 86bc 3af0 13be 5369 a43d
00000160: b35b 4fbe 3689 93bd 8727 c3bd 20fe 28bc
00000170: c08b 9c3d 1a3d 3c3e a870 9c3e f2ab 983c
00000180: f810 74bc 6cd2 f1bd bcc1 98be 1345 773c
00000190: 3eae 833d 606f 483c bc68 e93d 9c47 073e
000001a0: 45b0 b03c b680 5a3e a209 173e 079d 2fbe
000001b0: de69 a03d 68bd bf3d fc43 cbbe 334f c93d
000001c0: 74f0 a7be 7954 b1bd 0ee7 95bc 0e20 73be
000001d0: 75c3 5abe 4912 a33e 18dd 40be 283b f43c
000001e0: f16d 2c3d e387 b43c c244 dcbc e4f0 7d3d
000001f0: e026 543c 8895 4e3d 32c1 d3be 8d93 bbbd
00000200: 0d79 3cbd 28f2 7b3d 1b93 b8be d159 cfbd
00000210: dedc 22bd f0ea 3dbe c59c e5bc b515 3fbe
00000220: 698a a73e dee6 703d e3de 2cbe 5b96 21bc
00000230: a952 7abe fe24 77bd 8b25 a1be 8998 143e
00000240: 8821 40bd 0f47 38bd 9222 4cbd f8aa 7b3d
00000250: 35f8 073e 4ee0 e8bb e61c aabd 769a 813d
00000260: b584 823d c2ac 963d 43bb d73c 744a d03d
00000270: 241f 53be 99b3 153e d3bd 703d a629 483d
00000280: b8df 0cbc c032 2cbb 72e0 8e3d 2370 aabd
00000290: f8a4 2abd f612 f6bc 6717 9ebd 55c6 a2bd
000002a0: afa6 38be eb86 a1be 3145 843e 3f44 96bd
000002b0: 7663 823d 2e7c b93b 0cf5 49bd 0af6 a4bd
000002c0: 8920 c3be 8765 08be 67eb 733d 01a4 c4be
000002d0: 0df9 c5bc 8e5e 40be a9a7 833d 1d2e ba3c
000002e0: c751 95be d2c5 8a3d 9649 78bd 2abb 57ba
000002f0: 97fb e0bd 5340 933d 4517 d23d 1de1 953d
00000300: f6f8 03bd 2548 a33d e376 5d3b 58eb b3be
00000310: fe4f f93b 9e8c 54be e0f0 b9bc a51b 09bc
00000320: 19b8 dcbe 4a56 e2bd 9a83 ed3b 6c3d 27bf
00000330: 10d4 06be bcdb 15be 208a 8fbe 4968 00be
00000340: 9535 cabe 9d3a bfbe 6b4a 993c e02f 8cbe
00000350: bdc8 2f3d 203a d5be 098e eabd 30e0 5c3c
00000360: fa1c adbe 521b 24be 37b1 73be 5bd5 9e3c
00000370: 8774 263b 38b6 253d 3584 333e 9c3a 57be
00000380: fc97 693d 0541 82be 7b66 fcbe 32fa 9abd
00000390: 73c4 2f3d 390d 9cbd 5377 3a3d d0bc 0c3e
000003a0: e311 d1bb 881c ec3d 1ea9 c93d 1220 6fbe
000003b0: cfcc b73d b006 77bd adce 42be 63eb 5e3e
000003c0: 7cf8 80be 51c9 8dbd 08b4 3cbc c6c0 82be
000003d0: 1bb4 81bd 37b8 9e3e dc77 4bbe 3195 69bd
000003e0: a06f 963d e92a 6abe 18ca fabc 3c50 583e
000003f0: 98b8 d33c 2287 6fbd a5a6 eabe 7f38 48be
-0.05966786 -0.023162244 -0.27624786 -0.3601853 0.040168364 -0.16295967 -0.037623484 -0.1826145
0.23299918 -0.038936406 -0.15386863 0.04827587 -0.25415134 0.003288532 -0.29070693 0.1357386
0.03746553 -0.07915116 -0.013717495 -0.08388987 0.009001376 -0.018832466 -0.004049964 0.011233013
-0.007258363 0.23043099 0.2187011 0.22522494 -0.16310507 0.16965264 0.0017166454 0.01154197
-0.06999985 0.03426253 -0.01792999 -0.23377773 -0.051590957 0.078682356 -0.021620393 -0.07071639
-0.14298199 -0.039541993 0.010899407 -0.069603205 0.053433035 0.08186542 0.07088212 0.08094489
-0.3910474 -0.19977623 -0.028500035 -0.18759097 0.048348814 -0.07207532 0.08287902 0.05512905
-0.15777513 -0.038623344 -0.037466057 0.011305605 -0.13871183 0.0071595386 0.031224066 -0.020163862
-0.011648583 -0.07397974 0.08093783 -0.26576155 0.04086613 -0.088069506 0.06434468 0.086165704
-0.2850564 -0.13566029 -0.015252393 -0.44771492 -0.11202803 -0.17847896 -0.19669834 -0.14572632
-0.076076515 -0.2514545 0.06005653 -0.2109263 0.27894914 -0.016403096 -0.14447108 0.080279015
-0.20249824 -0.07203905 -0.095290236 -0.010314494 0.07643843 0.18382683 0.305547 0.018636677
-0.014896624 -0.11807713 -0.29835308 0.015092152 0.064297184 0.012233585 0.113969296 0.1321091
0.021568427 0.21338162 0.14749768 -0.17149745 0.078326926 0.09362298 -0.39700305 0.09829559
-0.3280064 -0.0865869 -0.018298652 -0.23742697 -0.21363623 0.31849888 -0.1883434 0.029813364
0.042097036 0.022037452 -0.026888255 0.06199731 0.012948722 0.050435573 -0.41358334 -0.091590025
-0.04601388 0.061510235 -0.36049733 -0.10124553 -0.039761417 -0.18546653 -0.028028855 -0.18660624
0.32722786 0.058813922 -0.168819 -0.009862508 -0.24445595 -0.060338013 -0.31473956 0.14511313
-0.046906978 -0.04498964 -0.049837656 0.061442345 0.13278277 -0.0071068173 -0.08306293 0.06328289
0.06372968 0.0735717 0.02633441 0.10170451 -0.20617348 0.14619292 0.05877478 0.048867844
-0.008598261 -0.0026275367 0.06976403 -0.0832217 -0.041661233 -0.030038338 -0.077193074 -0.07947985
-0.18032335 -0.31548247 0.2583404 -0.07337236 0.06366627 0.0056605553 -0.04930596 -0.08054741
-0.3811076 -0.1331998 0.05955067 -0.38406375 -0.024166608 -0.1878607 0.06428463 0.022727067
-0.29163954 0.067760125 -0.060617052 -0.0008229489 -0.10985487 0.07190003 0.102583446 0.073183276
-0.03221985 0.07972745 0.0033792786 -0.3514049 0.0076084128 -0.20756766 -0.022697866 -0.008368407
-0.43109205 -0.110516146 0.007248354 -0.653281 -0.13166833 -0.14634603 -0.2803507 -0.12539782
-0.39494005 -0.37349406 0.018712243 -0.27380276 0.04291605 -0.41645908 -0.11452872 0.013481185
-0.3381117 -0.16026047 -0.23798071 0.019388845 0.0025399046 0.04045698 0.17530902 -0.21018451
0.05702971 -0.2544023 -0.49296936 -0.07567252 0.042911958 -0.076197095 0.045523953 0.13743901
-0.006380306 0.115288794 0.0984671 -0.23352078 0.08974611 -0.060309112 -0.19024153 0.2176948
-0.2518958 -0.06923164 -0.011517532 -0.255377 -0.063331805 0.3099992 -0.19869941 -0.057027046
0.073455095 -0.22867931 -0.030613944 0.21124357 0.025844857 -0.058478482 -0.45830265 -0.19552802

bias f4 [8]
00000000: f564 a5be 1c3f e5bd 1bc4 94be 94b0 a4bd
00000010: 84ab bfbe 2dbd 65be 48dd a0be ee08 48be
-0.32303587 -0.11193678 -0.29055867 -0.08041492 -0.37435544 -0.22435446 -0.31418824 -0.19534656
