Doom/model-doom.pth (torch_old, 117016 bytes, 8 tensors)

weight f4 [8, 1, 6, 6]
00000000: 3fab b93d 2e61 c4bd acaf 3c3e 6134 cbbd
00000010: 874d 9dbd 35f1 70bd c0a6 d03d 2bbd 393e
00000020: 6141 503d 2830 11be 0b7d 1a3a f3a8 07be
00000030: 3a8e 62bc 910f 06be 7a2c e9bd 954e dabd
00000040: 4153 fb3d b5c1 0b3e db57 353e a8ce dabd
00000050: ff4b e63c 6bfe a2bc ac7d 43bd 568d a23d
00000060: 56ae 443e 7b14 0f3e bdc0 f63c 56c6 443e
00000070: 250a 11bc 6ecf ac3d 72c2 f3b9 5583 a83d
00000080: 7ac7 e5bd f31b 2c3e a071 c0bc 46a2 9c39
00000090: dec1 233e 349f d53d 8c24 ca3d 7f64 d3bd
000000a0: 7f08 20bd d4fa 183e 17d1 a53c a582 113e
000000b0: 113c d43b 3f53 31bd c204 aa3d a27c f53d
000000c0: df7f dabd 57ca 88bc 17e5 ebbd 7fa9 ecbd
000000d0: ee37 e5bd 8ff5 b4bd 04d1 a6bd 6e8b 003e
000000e0: 37c7 d6bd 7703 083e b427 3d3e 18b7 a43d
000000f0: 4075 9a3d 821a 113e 9fc9 bd3d a5af 0a3c
00000100: 3726 bdbd 1ab8 eabd c172 083e 0fd5 583d
00000110: 6380 92bd d196 b13c a32b acbd 1b6d 64bd
00000120: 79a7 2f3e 160f 393e 988d 033d 299e e33d
00000130: b50d 1e3e e251 f23d 0bdc aa3d 13f3 513e
00000140: 6723 c2bd a4bd 463e 9169 993d 58c1 9b3a
00000150: e487 363e 2a2e c2bc ae9f acbd 5064 3e3e
00000160: 5a3e c23d b2c0 04bc 27d6 a6bd aaae f53d
00000170: 90ac 2cbd e5b7 1cbc f6a5 afbd 680f 133e
00000180: 596b 2f3e 7b1d 6b3b f58a 69bd 0a42 113e
00000190: fa1d a0bd 3873 093e 6155 b03d 8bc6 fb3d
000001a0: ddf3 f9bd 3153 1f3e 2962 523d d517 d13d
000001b0: b93b 653d 4eb7 8e3c 103b 50bc 804d 1fbe
000001c0: 6fd1 19be 098c 8cbd e644 053d b338 28bd
000001d0: 4557 eabb a875 08be a5fe 3dbd 3377 f7bd
000001e0: 16ed 063e 5f33 ffbc 1171 303e da51 95bd
000001f0: 1510 a43d 1d8e 003e 253e 053e 07e8 77bd
00000200: e4d7 153e a429 b6bc 3403 1cbe 7065 8d3d
00000210: 3c84 1fbe d4cb 7b3d 21b7 983d 721b bbbc
00000220: fc72 23bc 8d61 b33d ca79 f1bd 1bff 143e
00000230: 9a52 1d3e d244 03be 7ceb 283e 3cb2 17be
00000240: ea3d b0bd 1ffd 763d 2511 a83d 396a 86bc
00000250: 1f09 473c a40f d63d fc23 583e b1c9 28bc
00000260: 8b3b 3abc fa0d bbbb e6f3 fc3d 9640 c6ba
00000270: 87e9 bbbd a8cb e2bd 64ba 87bb e5ce 443e
00000280: 8515 dc3d 60e7 afbd 657f 023e 3a08 563d
00000290: a655 bfbd 115c b0ba 0aa9 5cbd 5cbc 353e
000002a0: 86e7 7f3d c375 9e3d 045b 2c3e bb19 dabd
000002b0: c6be 513e bdf9 72bd 91e0 2c3e 9d41 f03d
000002c0: 3f4b 6f3e b40f 673e 0764 d9bc c628 9e3d
000002d0: 6c74 a5bd 1d27 053e 7389 cc3d 52a0 683e
000002e0: fc70 383e 1520 5e3d 0757 433e 47b4 f63d
000002f0: 47bf 5f3e 4076 ef3d 4e4f da3d fe89 123d
00000300: 939e 0b3e a083 283e 6fa0 953d f143 4b3e
00000310: 4e6b 973d 779c 563d 29c0 ff3d a206 013e
00000320: 48e4 333e 91b6 2a3e 5dda 053e a80f 433e
00000330: 9f04 bebc cbfa 97bb f518 723e d214 3e3e
00000340: cb18 793e 255b 723e 84e3 913e 9986 a43d
00000350: 7e07 2f3e 52e5 0a3d 846b 07bd 2227 403e
00000360: 73ce 823e 3f99 083e c6a0 c23e 4aed b33e
00000370: cf60 ae3e 232b a03e aa55 9f3e 65f8 5c3e
00000380: 977c 5d3e d38e a73e a66d c03e 5467 c43e
00000390: e2b9 da3e 4be7 8c3e 4e05 863e 3bb2 f23e
000003a0: 2c04 a63e c9da b33d c838 8b3d 1a6f c53d
000003b0: 939a a43e 1fb3 d03d abc6 4b3e dca1 b03d
000003c0: 217a a13d 4a60 a83e 1aab ad3e 9751 0f3e
000003d0: d050 ac3e 9f60 7e3e 3d72 cc3e 8e0f c13e
000003e0: 51c2 b53e 59fd ab3e da9f 6a3e 3d4f c43d
000003f0: 937d 0d3e e21e 14be 802b 153e f310 adbd
0.09065866 -0.09588848 0.18426389 -0.099221 -0.07680803 -0.058823783 0.10188055 0.18138568
0.0508436 -0.14178526 0.00058932666 -0.13248043 -0.013827855 -0.13091876 -0.11385436 -0.106595196
0.12271739 0.13648112 0.17709295 -0.10683948 0.02811241 -0.019896707 -0.047727272 0.07937114
0.19207129 0.13972656 0.030121202 0.19216284 -0.008852516 0.084380016 -0.00046493445 0.082281746
-0.11219688 0.16807537 -0.02349168 0.00029875542 0.15991923 0.10430756 0.09870252 -0.103219025
-0.039070603 0.14939433 0.020241303 0.14209993 0.006476887 -0.04329228 0.08301689 0.119866624
-0.10668921 -0.016698046 -0.11518305 -0.11555766 -0.11192308 -0.08835899 -0.08145335 0.12553188
-0.10487216 0.13282572 0.18472177 0.08042735 0.07541895 0.14170268 0.09266972 0.0084647285
-0.092358045 -0.11460896 0.13325025 0.052937564 -0.07153394 0.02167836 -0.084067605 -0.055768114
0.1715373 0.18072161 0.032117456 0.11114151 0.15434916 0.11832024 0.08342751 0.20502882
-0.09479409 0.1940828 0.07490838 0.0011883182 0.17825276 -0.023703653 -0.08428894 0.18592954
0.09484549 -0.008102583 -0.08146315 0.11996205 -0.042156756 -0.009565328 -0.085765764 0.14361346
0.17130794 0.0035875726 -0.057017285 0.14185348 -0.078182176 0.13422859 0.08610035 0.122937284
-0.12204716 0.15559079 0.051363144 0.10209624 0.05596516 0.01742139 -0.012709394 -0.15556908
-0.15021299 -0.06862647 0.03253641 -0.041069698 -0.0071515166 -0.13326132 -0.046385426 -0.12083282
0.13176379 -0.031152425 0.17230631 -0.072910026 0.0801088 0.12554212 0.13011988 -0.060524013
0.14633137 -0.022236653 -0.15235597 0.06904113 -0.15577787 0.061473683 0.07456804 -0.022840235
-0.009976145 0.08758841 -0.117908075 0.1455044 0.15363541 -0.12819222 0.1649608 -0.14814085
-0.08605559 0.06029999 0.08206395 -0.016408073 0.012148171 0.10452202 0.21107477 -0.010301993
-0.011366735 -0.0057084532 0.123512074 -0.0015125449 -0.09175401 -0.110740006 -0.0041420925 0.19219549
0.10746292 -0.08589053 0.1274391 0.05225394 -0.09342508 -0.0013455172 -0.053872146 0.17747635
0.062476657 0.07737305 0.16831595 -0.10649439 0.2048293 -0.0593202 0.1688254 0.11731265
0.23368548 0.22564584 -0.026536955 0.07722621 -0.08078846 0.13003202 0.09987154 0.22717407
0.1801185 0.054229815 0.19076167 0.12046104 0.2185031 0.11692476 0.106596574 0.03577613
0.1363471 0.16456461 0.07305991 0.19850136 0.073935136 0.05239531 0.124878235 0.12600186
0.17567551 0.16671206 0.1307158 0.19048941 -0.023195563 -0.004638051 0.23642333 0.1856263
0.24325864 0.23667581 0.28493893 0.08033485 0.17092702 0.033910103 -0.03306152 0.18764928
0.25548133 0.13339709 0.38013285 0.35141975 0.34058234 0.3128291 0.31120044 0.2157913
0.21629559 0.32726154 0.37583655 0.38360083 0.42719942 0.27520213 0.26175922 0.47401604
0.32425058 0.08781964 0.067979395 0.096403316 0.3214918 0.10190415 0.19900005 0.08624622
0.07884622 0.32885963 0.33919603 0.13995968 0.33655405 0.24841546 0.39930907 0.3770718
0.35499814 0.33591726 0.22912541 0.09585426 0.13817434 -0.14464906 0.14567375 -0.084504984

bias f4 [8]
00000000: 1cc0 813d a5b4 a13c 963b 68bb f4ac 4f3c
00000010: ee0c df3d e648 36bd ff64 f9bd df7a f23d
0.0633547 0.019739458 -0.0035435907 0.012675513 0.10891138 -0.044503115 -0.121774666 0.11839842

weight f4 [8, 8, 3, 3]
00000000: c0cc 8c3d 7229 ce3d 660e d4bd 8f21 e4bb
00000010: 56cc 84bd b559 f0bc d65d aa3d ba37 57bc
00000020: f21e ed3d c823 8bbd 553a bfbd d070 16bd
00000030: c376 82bd 8f28 923d be8e d7bd 2828 53b9
00000040: e243 14bd 4111 cfbd 1dfd 093e 410c 43bd
00000050: 2bf5 9fbd 5bec 6b3d 946a 763d 7588 293d
00000060: 10bb 043b b112 58bd ce2b 9ebd 4fe7 763c
00000070: 57b1 953d c85a e53d c302 a53d 04ed a4bd
00000080: 6049 f83c 1e45 1cbd 6fc5 2ebd 07fa 66bd
00000090: d910 b7bd f140 a9bd 2ae4 b33d da2d 0b3e
000000a0: e584 623d 43cf f43d 28eb 683d 90d2 21bc
000000b0: 45eb 9a3c 81a4 54bc 2d42 61bd de25 113e
000000c0: 52a8 f638 b85b f53d 8638 663d 2049 183e
000000d0: 9255 cebc 8a8b 913d e760 503e 5d2b 373e
000000e0: 88c6 c03d fd0c d83d 155c bf3d 5395 f9bb
000000f0: 665d d43d 18a7 163e cacf ba3c 81e1 e4bd
00000100: 8eab c73c 08f1 42bd 71a2 c83d 0157 4bbd
00000110: d346 bcbc 7034 90bd c216 973d ebfe 20bd
00000120: 5873 0f3c 1e3b 9fbd 0936 a93d 40dc 8ebb
00000130: 84b9 93bd 8042 34ba b087 82bc 1062 90bc
00000140: 04a1 8cbc e838 9dbc 257f d43d 50d3 f63b
00000150: da80 363d 111a 933d 20f1 22bc a490 ac3c
00000160: 80b1 cbbc 071d 973d 82fd 083d d051 b1bd
00000170: 0ea6 9abd 805b 27bd 48be 5c3c a24d 51bd
00000180: 6d67 e7bd 797e 9bbd 8ea4 94bd e637 0a3d
00000190: d95f d3bd a655 7b3d 3cec e33c 90e9 5ebd
000001a0: f0c5 a13b 56c8 3fbd 6e43 82bd abb8 c13d
000001b0: 8b98 b53d 93ea d33d b287 6c3d 75ca e23d
000001c0: 1e3b 273d e80d 44bd f6f0 6f3d c659 84bd
000001d0: a816 fabc 8c70 c93c b4d0 af3c 6c71 ab3c
000001e0: 2a76 07bd 6336 80bd 0a47 60bd adaa a6bd
000001f0: e073 c0bc bed0 33bd f031 dcbc 682d f0bc
00000200: de96 74bd cbf3 d13d 6043 a5bd df21 bd3d
00000210: a90b b2bd e862 7f3c a293 00bd 6040 b7bd
00000220: 5c33 52bd 34a8 ee3c 0883 d6bc 187b 04bc
00000230: 29f8 d43d 02a1 5cbd 00ab cdbc 84fa 40bd
00000240: 4fc4 b0bd 04f4 57b9 11f7 a13d d811 b43d
00000250: 1197 ee3d e564 983d a5e3 503d 8815 92bc
00000260: 89c8 eebd 4de9 04bd 8b18 eb3d 9ebd a5bd
00000270: b333 923d 51a4 273d 90f9 653c 9d59 81bd
00000280: 09ef ee3d 85f5 e03d 4a3d c63d f7a9 fd3c
00000290: eb02 8fbd cdd8 abbc 3d02 65bc dfe9 88bc
000002a0: f002 29bc cb9c 233c d5e7 a2bd 0f0a 2b3d
000002b0: 179a 89bd 8db2 bcbb ed75 73bd 3db3 bcbd
000002c0: 0ecd b7bd 00ad c0bd df67 e03d b567 9a3d
000002d0: 113f 7b3c cd1e de3b f06c c23d 744b 873d
000002e0: 1211 d33d 137a d93d 3dc3 0ebd e165 cd3d
000002f0: df8a a53d af90 96bd 5885 d6bd 7902 c9ba
00000300: 23dd acbb a4a8 f9bc 6862 c43d d00e c33c
00000310: 72a8 babd 7038 323d 0158 98bd 5458 703d
00000320: 4ed2 e0bd 0d8f 1fbc a774 943d 29ee b83d
00000330: f656 21bd 192f 33bd b49e e03d d5e1 083d
00000340: c471 16bd f15a c3bd 0cc5 a3bd e34b 643d
00000350: 57e1 853c 5edb 1abc a281 ab3d c4a4 60bd
00000360: 3fae ce3a 5bbd 4dbd c215 5c3c 5569 bd3d
00000370: 5bff cc3d 8f66 ef3c c3ee 4abd 5f91 9c3d
00000380: 85c2 9f3d eb34 d73d 95be b1bd aadd 013d
00000390: 3b4c 5c3d 856e a33d 1550 783d ffdb bdbc
000003a0: 5e80 a83d 9679 a43d 5be4 803d 8570 b2bc
000003b0: f097 223e ef8b b03d 835f 513e 8ff0 143e
000003c0: d590 053e 7f5b 303e 786f 723e 5eaa 00bd
000003d0: 4a0b 163d 4e2b adbc 1461 af3c 32ff c8bd
000003e0: 5ea5 4fbc 4fc8 f5bd ced0 acbd b20f dfbd
000003f0: 3ae5 3b3e 6162 363e a08b e53d ba22 d53d
0.068749905 0.10066499 -0.10354309 -0.0069620083 -0.064842865 -0.02933965 0.08318679 -0.013135845
0.11578168 -0.06793934 -0.09337298 -0.03672868 -0.06370308 0.07136642 -0.10525273 -0.00020137487
-0.03619755 -0.10110713 0.13475461 -0.047619108 -0.07810434 0.057598453 0.060160235 0.0413899
0.00202531 -0.0527522 -0.07723199 0.015069797 0.073092155 0.11198956 0.080571674 -0.0805302
0.030308425 -0.038151853 -0.042668756 -0.05639079 -0.0893876 -0.0826434 0.08783753 0.1359171
0.05530252 0.119535945 0.056864887 -0.009876862 0.018911013 -0.012978674 -0.05499475 0.14174601
0.00011761546 0.119803846 0.05620625 0.14871645 -0.025187287 0.07106693 0.20349465 0.17887636
0.09412867 0.10549352 0.09343735 -0.007616678 0.10369377 0.14712179 0.02280416 -0.11175824
0.024373796 -0.047593147 0.09796608 -0.04964352 -0.02298299 -0.07041252 0.073773876 -0.03930561
0.008755527 -0.077749476 0.082622595 -0.004359752 -0.07213119 -0.00068763644 -0.015933841 -0.017624885
-0.017166622 -0.019192174 0.103758134 0.0075325146 0.044556476 0.07182706 -0.009945184 0.021065064
-0.024864912 0.073785834 0.03344489 -0.086581826 -0.07551204 -0.040858746 0.013473101 -0.051099427
-0.11299024 -0.07592482 -0.07257949 0.033744715 -0.10321016 0.061360978 0.027822606 -0.05442196
0.004936926 -0.046821915 -0.063605174 0.09459051 0.08866986 0.10347476 0.057746597 0.11073772
0.040827863 -0.047864825 0.058579408 -0.064624354 -0.030528381 0.0245898 0.021461822 0.020928107
-0.033071674 -0.062603734 -0.054755248 -0.081380226 -0.023492754 -0.043900244 -0.02687928 -0.029318526
-0.05971419 0.10251578 -0.080694914 0.09234976 -0.0869363 0.015587546 -0.031390794 -0.089478254
-0.05131851 0.02913294 -0.026185527 -0.008085988 0.10398895 -0.053864487 -0.025105953 -0.04711391
-0.08631193 -0.000205949 0.07908452 0.08792466 0.116499074 0.07441119 0.05099835 -0.017832533
-0.11659343 -0.032449055 0.114792906 -0.08092807 0.07138767 0.04092819 0.014036551 -0.063159205
0.11666686 0.10984329 0.09679659 0.030964835 -0.069829784 -0.020977402 -0.013977584 -0.01671308
-0.010315642 0.009986113 -0.07954375 0.04175764 -0.067188434 -0.0057585896 -0.059438635 -0.092138745
-0.08974658 -0.09407997 0.10957312 0.07539312 0.01533486 0.006778574 0.094934344 0.066061884
0.1030599 0.10618987 -0.034854162 0.100291975 0.08083128 -0.07351815 -0.10474652 -0.001533582
-0.005275385 -0.030475922 0.09589082 0.023810774 -0.0911416 0.043510854 -0.074386604 0.058677986
-0.109776124 -0.009738696 0.07248812 0.090298004 -0.039389573 -0.043746088 0.1096777 0.033418495
-0.03672959 -0.0953883 -0.07996568 0.055736434 0.016342802 -0.009451715 0.08374335 -0.054844633
0.0015768482 -0.05022941 0.013432922 0.09248606 0.10009643 0.029223708 -0.049544107 0.07644915
0.078007735 0.1050814 -0.08678929 0.031705536 0.053783637 0.07980064 0.060623247 -0.023176191
0.08227609 0.08031003 0.06293555 -0.02178217 0.15878272 0.0862044 0.20446591 0.14544891
0.1304353 0.17222403 0.23675334 -0.031412475 0.03663186 -0.021138813 0.021408595 -0.098143
-0.012673704 -0.120010965 -0.08438264 -0.108916655 0.18349162 0.17810966 0.11208272 0.10407014

bias f4 [8]
00000000: f9ed 0b3e b035 36bd acd5 893c 57f5 6d3e
00000010: e669 b3bd 060f 87bd 8c47 b6bb 02b4 0a3e
0.13664998 -0.044484794 0.01682552 0.23238121 -0.08760433 -0.06594662 -0.0055627283 0.1354523

weight f4 [128, 192]
00000000: 7213 6d3c cb15 7dbd 66d2 d03c 23da 46ba
00000010: b5b3 a13c d0eb 64bd 26d1 ff3c 3a94 f03c
00000020: 24ed 2fbd c7cf 3d3d 797e b2bc 5c08 52bd
00000030: cb25 11bd 4c3d 7a3c 5683 cf3b 26db fbbc
00000040: 43ff 45bc c218 503d a5f9 4fbc 47e8 50bd
00000050: 51cf bf3c 0f02 1c3d c547 d73b 5753 4a3d
00000060: d42d 8ebd 5c0b 9d3c c047 5c3c a23e 81bd
00000070: a42b ac3c 6ea1 bebc c4f9 49bd 8a4f 813d
00000080: f616 8d3d 2381 63bd 40bf a2bb 40e8 683d
00000090: f0e5 ff3c 4017 d9bb 8733 88bd 1f15 5bbd
000000a0: 5c67 ed3c 366c 65bd e62a 88bd 8cb2 aa3c
000000b0: 145f 7abc 30d6 7a3d 60b6 773d 00cc 2a3d
000000c0: 42ff 67bd c034 71bd 57c8 9dbc e75e a7bc
000000d0: a518 7bbc cc35 f73c f692 2d3d d7b1 053d
000000e0: c993 48bc 1be8 3b3d 5ee7 29bc 2c51 823d
000000f0: d09d 80bb f428 23bd 8e7c 26bd 0399 74bd
00000100: ab8a 5dbd eacf 8b3d e3f9 8cbd 37df 3a3d
00000110: 9183 433c 00b7 54bc e23f 2f3d b429 8dbd
00000120: b347 bd3a 3070 dfbc 0e78 92bd 3ccb 4a3d
00000130: 447a ca3d fc65 f73c fe2b dcbd fcb9 31bd
00000140: c38e 113e 4b0d 823e 6d20 ce3c b8f2 13bd
00000150: fedf e8bc 7ac1 8e3c b695 8b3b e0f7 1e3e
00000160: 6c3e b8bb 433b 913c 24e2 3dbc 8eea 903d
00000170: 9232 2d3c bf2e 303d 1e93 543d 0279 2b3d
00000180: e352 9b3c 4fbe 833d b21e 883d a167 51bd
00000190: c32a 95bc 9ab0 8bba a2d8 203d 43ec 89bd
000001a0: 622a 52bd 3e80 513d a52f 2a3d d2d1 973c
000001b0: 9449 8cbd e2cd 2dbd 884a 5a3d 3f7a 6cbc
000001c0: 0ab6 12bc f59f d63c 832f db3c 2166 4c3d
000001d0: 963a a7ba 97f8 4f3d bb30 6b3d 32cc 0abc
000001e0: 7b31 86bd e825 843d 1e4c 893d f8a5 3abd
000001f0: 1b94 11bd 0880 6d3c b0c7 1d3d c0ad 3bbb
00000200: d284 4d3d acab 81bd d70a 04bd 1806 3b3c
00000210: d4d5 843d 80ad d53b 9e37 86bd f8a6 57bd
00000220: 0af9 843d 80f3 0e3b ba6a 5fbd 9063 cebb
00000230: 600d b4bc 1474 e53c 71d1 63bd e0ee 5a3d
00000240: f761 573c aa4e 243d 7f22 e83c 11a7 793d
00000250: eb05 fa3c 0470 903d b1d0 bbbc 14f8 963c
00000260: 2ba9 35bc 5f2f 50bd 0368 30bd 4031 72bd
00000270: 8012 343d 47ac 65bd dedc 693c f5f7 4b3d
00000280: af7a 4b3c 7d31 3ebd 3460 06bd 6768 783d
00000290: a7c5 b3bc beba 8bbd 7b01 85bd c0f5 63bd
000002a0: 0607 b6bc 34db 85bd ee5d 7a3c edc8 5ebc
000002b0: 296c 023d 2c86 ff3c 8e0c ddbc 8425 aebc
000002c0: cc1d 34bd fd8e 333e 5ab8 22bd 879a 103c
000002d0: fc80 043d 6677 65bc 7637 cfbc 7a7b 483d
000002e0: 8323 643c 3da8 52bd 539e 633d 3cd0 35bc
000002f0: 9959 f33c 9ec2 553c 5869 403d 5e14 fabc
00000300: 91fb 50bd c8e9 90bd 320b 563d 5423 313d
00000310: e066 c33b 8803 e43c 3e89 38bd fcc3 36bd
00000320: b01a dabb 8858 863d 3ce3 833c 08a7 f03c
00000330: d0e9 eb3c 627b 86bd f05e da3b 8035 47bb
00000340: cd5d 17bd 841c 8e3d c86c 10bc f0ed d5bb
00000350: e056 7bbc b038 cd3c f62a 3d3d 6539 82bd
00000360: 9c9a 593d a933 13bd 36a7 debc ec55 493d
00000370: ecc5 383d 12b5 21bd 00a0 2bb9 a037 b13b
00000380: d520 1cbd 0085 84b9 d6a7 17bd 344b cd3c
00000390: 96fe 923d 54e7 633d 75ed 90bd cca0 84bc
000003a0: 40b3 783c 7846 513c 2e43 1c3d 9823 fbbc
000003b0: 3de6 18bd 2887 e6bc cc08 543d 4040 443b
000003c0: d226 d9bc 52b4 3dbd 813a 1abd ca40 8b3d
000003d0: 58c4 023c fec3 383d a070 03bc 4411 173d
000003e0: b04f 2dbd 880a 3abc 403c c8bb e478 7cbd
000003f0: 5084 3ebc 6ed2 4d3d fe9c 1e3d 5802 143c
0.014469968 -0.06178836 0.02549095 -0.00075856055 0.019739011 -0.05588895 0.03122766 0.029367555
-0.042950764 0.04634073 -0.021788822 -0.051277503 -0.035436433 0.015273403 0.006332795 -0.030744147
-0.012084785 0.05080486 -0.012693797 -0.051002767 0.023414286 0.0380879 0.006569835 0.049395885
-0.06942335 0.019170456 0.013444841 -0.063107744 0.021016903 -0.023270335 -0.04931046 0.06313999
0.06889145 -0.055543076 -0.0049666464 0.056862116 0.031237572 -0.006625086 -0.06650453 -0.05348694
0.02897995 -0.0560114 -0.06648807 0.02083709 -0.015281457 0.06123942 0.06047666 0.041698456
-0.056639917 -0.058888197 -0.019260569 -0.020430995 -0.0153257 0.03017702 0.04237648 0.032640304
-0.012242266 0.04587565 -0.010370104 0.063631386 -0.0039250627 -0.039833978 -0.04064613 -0.059716236
-0.054087322 0.06826766 -0.068835996 0.04562303 0.011933223 -0.012983084 0.042785533 -0.0689272
0.0014440924 -0.027275175 -0.07151805 0.049510226 0.098866016 0.030199997 -0.10750578 -0.04339026
0.14214616 0.25400767 0.025161946 -0.036120147 -0.02842712 0.017426241 0.0042597903 0.15524244
-0.0056226756 0.017728454 -0.011589561 0.07075988 0.010571139 0.04301333 0.051898114 0.04186345
0.018960422 0.06432783 0.0664648 -0.05112422 -0.018208867 -0.001065749 0.039269097 -0.067345165
-0.05130995 0.051147692 0.041549344 0.018532667 -0.068499714 -0.042432673 0.053293735 -0.014433443
-0.008954534 0.02619932 0.026756054 0.049902085 -0.0012758549 0.050774183 0.05741952 -0.0084715355
-0.065524064 0.064525425 0.06703971 -0.045568436 -0.035541635 0.014495857 0.038520515 -0.0028637499
0.050175495 -0.06331572 -0.0322369 0.011415027 0.06486097 0.006520927 -0.06553577 -0.05264947
0.06492813 0.0021812618 -0.05454514 -0.00629849 -0.021979034 0.028009452 -0.05561966 0.053450465
0.013145915 0.040114082 0.028336762 0.060950343 0.0305204 0.07052615 -0.02292666 0.01842884
-0.011087696 -0.050826427 -0.043067943 -0.059129 0.043962955 -0.0560725 0.01427385 0.049797017
0.012419387 -0.046433914 -0.03280659 0.06064644 -0.021944834 -0.068227276 -0.06494423 -0.055654287
-0.022220146 -0.0653595 0.015281184 -0.013597709 0.03184143 0.031191908 -0.026983526 -0.021258123
-0.04397373 0.17535014 -0.039726593 0.008825905 0.03234957 -0.014005518 -0.025295 0.04894588
0.013924482 -0.051429976 0.05557091 -0.01109701 0.02970581 0.013046889 0.046975464 -0.03052729
-0.051021162 -0.0707584 0.05225677 0.043246582 0.0059631914 0.027833715 -0.04505276 -0.0446205
-0.0066560134 0.06559855 0.016099565 0.029376522 0.028798014 -0.06566502 0.0066641495 -0.0030396879
-0.03695469 0.06939033 -0.008814998 -0.0065286085 -0.015340537 0.025051445 0.04618355 -0.063586034
0.053125963 -0.03593794 -0.027179342 0.049154207 0.045110628 -0.039479323 -0.00016367435 0.0054082423
-0.03811725 -0.00025276095 -0.037025295 0.025060274 0.07177465 0.055640534 -0.07076541 -0.016189955
0.015179455 0.012773149 0.038150005 -0.03065662 -0.037328947 -0.02814062 0.0517662 0.0029945523
-0.026507769 -0.046314545 -0.03765345 0.06799467 0.007981382 0.045108788 -0.008022457 0.0368817
-0.042312324 -0.01135505 -0.006110698 -0.061638728 -0.011628225 0.05024951 0.03872394 0.009033762

bias f4 [128]
00000000: 8810 1d3d d817 2fbc 203c 7b3c 4859 3bbd
00000010: 6f6d 4f3c 16c4 883d 39d0 f1bc 42aa 33bd
00000020: 102d 673d 9d9f 2e3c d6c3 a73d 961e 463d
00000030: 3784 403b 9fbb c73d 6ee0 403d 433b 4fbd
00000040: 5aaa 043d 6cbe 06bd 7a5c 62bd e3c4 563c
00000050: 9286 81bd 8054 5a3d db88 8e3d bd2f b83d
00000060: 77a3 32bd 5a6a f5bc a73c 50bd 51c6 803d
00000070: b717 eabc 1a3d 113d b4e9 1a3d 101a abbb
00000080: f446 4bbd d485 763d 6415 6abd fbb5 c33d
00000090: 9ae3 c23d a2cc e83c 9232 fe3c a385 c23d
000000a0: 5a60 6a3d 98d5 69bc 3cef c4bc a8f2 0dbd
000000b0: ea8e b6bc 98c2 5b3d b79b 973d 5d10 efbc
000000c0: e511 12bd 7770 443c 4b67 c03d 4c06 993c
000000d0: 8f53 2bbd 80b3 56bb de6e b0bc 14a3 91bd
000000e0: 89d9 813d 269e 31bd 8bb8 903d 2568 e73c
000000f0: 4489 83bd 4cc3 443d 66e1 923c 6d1a 3a3d
00000100: 7362 5d3d f50e d43c f2c4 4dbd cc9f 813c
00000110: 38f1 0abd fb81 8abb 580c f6bc e9ec 87bd
00000120: 091d 8b3d 7bcc 02bd 76be f1bc f0ec 2ebd
00000130: c12b f838 c1b8 1e3d d7e2 313b 2cca 933c
00000140: 7d2a 693d f5b2 06bd 0069 c3b9 080e 2f3d
00000150: c25e 80bd 0b01 233c 2180 10bd b95d 583d
00000160: 09e4 64bd 5515 8d3c 18f2 34bd 2a43 79bd
00000170: 90b9 413c 49e8 48bd 7034 23bd 95b9 f6bc
00000180: 901b 13bc b3ae 82bd 7ed4 0abd 4ae5 7abd
00000190: e2e1 39bc 9677 963b 88f5 8fbd 4fbc f63c
000001a0: b8ff 423c 7d0b 483d 06f1 443c f658 5a3d
000001b0: acae 6fbd 08c1 53bd ef1d 463d f98b 88bd
000001c0: e40b 49bc fcf8 72bd fcbe 8abc a096 6ebd
000001d0: 7629 4b3c bfe4 a0bd f884 433d 58cd 0d3d
000001e0: 6d08 86bd 086d 383d 2ea3 5cba e33f a6bc
000001f0: 8832 063d ebb8 673d df09 37bd b2c4 6f3d
0.038345844 -0.010686837 0.015334159 -0.045739442 0.012660368 0.066780254 -0.029518234 -0.043863542
0.05643946 0.010658172 0.081916496 0.048369013 0.0029375681 0.09752583 0.047089033 -0.050593626
0.032389022 -0.032896444 -0.055263974 0.013108465 -0.063244954 0.05330324 0.06959697 0.0899348
-0.043612923 -0.029957939 -0.050839093 0.06287826 -0.028575761 0.03545866 0.037820533 -0.0052216128
-0.049628213 0.060186222 -0.057149306 0.095561944 0.09516068 0.028417889 0.031029973 0.094981454
0.057220794 -0.014272116 -0.024039857 -0.034655243 -0.022284944 0.053652376 0.07402747 -0.029182607
-0.035661597 0.011989704 0.093947016 0.01867976 -0.041827735 -0.00327608 -0.02153724 -0.07111183
0.0634032 -0.043363713 0.07066449 0.028247902 -0.06422666 0.048037812 0.017929744 0.045435358
0.054048967 0.025886038 -0.05023665 0.015823267 -0.03392145 -0.0042269207 -0.030035183 -0.06636984
0.067926474 -0.03193329 -0.029509764 -0.04270643 0.00011833711 0.038750414 0.0027143264 0.018040739
0.056925286 -0.03288551 -0.0003727153 0.04273799 -0.062680736 0.009948979 -0.035278443 0.052823756
-0.055881534 0.017222086 -0.04417619 -0.06085507 0.011824027 -0.04904965 -0.03984493 -0.03011779
-0.008978739 -0.063809775 -0.033894055 -0.061253823 -0.011345359 0.0045918925 -0.07029253 0.03011909
0.011901788 0.04883908 0.012020355 0.053307496 -0.05851619 -0.05169776 0.04836839 -0.06667323
-0.012270901 -0.05931948 -0.016936772 -0.058249116 0.012400022 -0.0785613 0.04773423 0.03461966
-0.06544576 0.045025855 -0.00084166497 -0.020294135 0.032763034 0.056572836 -0.04468715 0.058537193

weight f4 [8, 128]
00000000: 3c70 4abe 8ec0 d6bc 8c32 90bc 4cb4 033d
00000010: eaff b6bd 6241 e53b df12 28bd 60ba ffbc
00000020: 51c4 643a b38e bd3d 21d0 d2bd 3145 6bbc
00000030: aae1 863d bc18 b5bd 14e2 fd3c a24f 98bd
00000040: cc42 53bd bd8a ecbd 56d0 033d ce7e 663d
00000050: 4805 dfbc 1947 4abd f9b8 c03c 2b79 50bd
00000060: 6c54 a93d 06b3 8ebd ec9e c2bc f3d8 72bd
00000070: 7680 9c3d 9d11 18be 273c 95bd 80d8 0abd
00000080: 8f5c a13d f5e2 71bc 903e c5bc b92b fbbd
00000090: cdc1 75bd 4d74 71bd d230 64bd b12d 82be
000000a0: f549 4bbc 96c3 613d 8e08 27be b62a 113b
000000b0: d15c 53bd 10e9 2f3c cbf3 3ebe de8a 6cbd
000000c0: 01cf eabb 8b70 bdbd b690 0abe 145e 1ebd
000000d0: d518 4ebe 6418 8bbc 7fe6 94bd 1398 683b
000000e0: 8291 5fbd eedd 293d 2b2d a8bd 0c99 5fbd
000000f0: 9e5d 293d 60fb 373d 6733 07be 6219 773d
00000100: c7ce 0e3d 1ca7 863a 3fce 763c 5d29 fe3c
00000110: d62f 0f3d e7c6 b03d 6e1a 23bd 622a 663d
00000120: 9260 1dbd 2a03 4fbd 79ce 13be 604f 23bb
00000130: 9ac6 21be e279 f13b 8335 5d3d e494 88bd
00000140: 6675 1c3b 628d f3bc 76eb 4e3d a921 c4bc
00000150: de2d 153d 3070 953d 1672 89bd 6bab 0cbe
00000160: f585 a83d eb64 eabc 753f 923d 3ed2 96bd
00000170: bee6 8fbd 882f 33be 653d b1bd f116 68bc
00000180: 84cb 8e3d f378 913d 988a 113c 69e7 983d
00000190: 4f30 aebd eedb 70bd 8e67 7a3d 2c55 203d
000001a0: d64f 433d 0780 0bbe b66b 75bd 234c 19be
000001b0: a2ea e0bb 2a60 edbc e8ad 2bbe 3d8a a1bd
000001c0: 2e20 333d 3fac 3bbd cd3f 79bd 8bf7 00bd
000001d0: f769 acbd 60da 54bc cb3c 7ebd 1342 85bd
000001e0: de3a 923d 0051 563c b28d 8fbd 3680 c6bd
000001f0: 3a73 2e3d 9693 8439 26e8 7d3c ae97 c8bc
00000200: 2e4b 0fbe a736 973d 804b 74bb 5462 bdbc
00000210: 877c 95bd a3d2 77bd 8351 363c 18a0 61bd
00000220: 10e2 eb3c c7a1 b2bc 3cde 423d 3a30 23be
00000230: 4106 253c 4146 fdbd 7027 a8bd ab85 62bd
00000240: b844 1ebc 83f7 8dbd 2cc1 d03b ed85 2f3d
00000250: 307e a23d 48e1 cdbc d3ae e7bc 4805 3cbe
00000260: b7fc 9cbd 9a5b 2c3d 2e2a 38bd 0fdb a1bd
00000270: 12f8 e4bd 3ad5 03bd 0fc7 b13d 6771 993d
00000280: 2dbe 3cbd ff3a 8abd 320c 78bd b993 5dbe
00000290: 9d1e 8bbd d53e 07bc fc9b 8fbd 0087 55be
000002a0: 7c6f 1abb 25ec 32bd caed 0fbe 9ddf 5a3d
000002b0: 8e74 d4bc 6185 893d a3c3 bebd 1263 a43d
000002c0: b834 61bd a6f9 0c3d c4d9 f3bd 30e8 b0bd
000002d0: f297 29be 74f5 22bd 8223 483d 5616 71bd
000002e0: dbb1 e5bd a25d 9bbd 4b7e 04bd c344 443d
000002f0: ac0a 92bc 71ff 1bbd e8ea 8fbd 9996 81bc
00000300: c638 9c3d cf53 433d 42a7 cdbc ec34 ddbb
00000310: b296 30be 5dcc 5e3c 8764 eabc 8927 b13d
00000320: 0bc8 8ebd c755 d83c 2d14 6fbd c86c 0d3d
00000330: c16d 70be 643f fdbb 184c 2fbd 1010 76bd
00000340: ca92 8f3d ace5 cebc a7c1 87bd c448 13be
00000350: 9227 51bc 07a0 593d 0677 99bd baf1 7bbd
00000360: 2020 73bc cdf1 143d 2a62 48bd 9607 cf3c
00000370: d4b4 44bd ba54 8cbd a562 37be 1db5 de3b
00000380: 4f04 d93d bb2b cd3c eacf 1b3d 8816 74bc
00000390: 5772 3dbc ba26 6abe b5bc 99bd 3af5 413d
000003a0: a69d 46bd 3db9 bebd a2f0 57bd b618 23be
000003b0: f74f cabd ac53 c73d 5ea7 17be 8abb 283d
000003c0: d16f 963d 30e1 053d d724 9d3d 4e24 7abd
000003d0: 86b0 68bd 59d8 bebc aba0 ebbd ca5e a83d
000003e0: fbea 8bbd 60ef a0bc 5bde a83d 0543 b4bb
000003f0: f859 78bd e2f2 9dbd ce54 b1bd aef9 a73d
-0.19769377 -0.026214864 -0.017602228 0.032154366 -0.089355305 0.0069963196 -0.041033622 -0.0312168
0.0008726763 0.09255733 -0.10293604 -0.014359758 0.06586011 -0.08842608 0.030991592 -0.07437064
-0.051577374 -0.115499 0.032181107 0.056273274 -0.027224198 -0.04938421 0.023525702 -0.050896805
0.08268055 -0.0696774 -0.02375742 -0.05928893 0.076416895 -0.14850469 -0.07286864 -0.033897877
0.07878982 -0.014763583 -0.024077684 -0.12264199 -0.059999276 -0.058948804 -0.05571062 -0.25425485
-0.012407769 0.055118166 -0.16311857 0.0022150702 -0.05160219 0.010736719 -0.18647687 -0.05774962
-0.00716579 -0.092499815 -0.13531765 -0.03866394 -0.2012666 -0.016979404 -0.07270526 0.0035491034
-0.054582126 0.041471414 -0.0821174 -0.054589316 0.041349046 0.044917464 -0.13203202 0.06032694
0.034865167 0.0010273191 0.015063821 0.031025583 0.03495773 0.086316876 -0.039820127 0.056192763
-0.038422175 -0.050540127 -0.14434232 -0.0024919137 -0.15798417 0.007369266 0.05400611 -0.06669024
0.0023873686 -0.029730503 0.05051752 -0.023941832 0.036420695 0.07296789 -0.06711213 -0.13737266
0.08228675 -0.028612575 0.0714101 -0.07364319 -0.070264325 -0.174986 -0.08654288 -0.014165626
0.06972411 0.07103147 0.008883141 0.07466013 -0.08505308 -0.05880349 0.061133914 0.039143726
0.04768356 -0.13623057 -0.059917174 -0.1497045 -0.006863908 -0.028976519 -0.16765559 -0.07887695
0.04373186 -0.045818564 -0.06085186 -0.031486075 -0.08418649 -0.012991518 -0.062069695 -0.06506743
0.07140134 0.013080835 -0.07009448 -0.09692423 0.042590357 0.00025286962 0.015497243 -0.024486389
-0.13993523 0.07383471 -0.0037276447 -0.023118176 -0.07299142 -0.060503613 0.011127832 -0.055084318
0.028794318 -0.021805657 0.04757522 -0.15936366 0.010072292 -0.123669155 -0.08210647 -0.055303257
-0.0096599385 -0.06931975 0.006370684 0.04285233 0.079342246 -0.025131837 -0.028281605 -0.1836139
-0.07665389 0.042079546 -0.0449621 -0.0790311 -0.11180128 -0.03218577 0.086805455 0.07492333
-0.046079803 -0.06749534 -0.060558505 -0.21638383 -0.067929484 -0.008254726 -0.070121735 -0.2085228
-0.0023564985 -0.043682236 -0.14055553 0.05343591 -0.025934484 0.06714893 -0.093146585 0.08026709
-0.054981917 0.03441777 -0.1190677 -0.08638036 -0.16561869 -0.039784864 0.048861988 -0.05885919
-0.11215564 -0.075862184 -0.032347005 0.04791714 -0.017827354 -0.038085405 -0.07027227 -0.01581888
0.07628016 0.047687348 -0.025104169 -0.0067506935 -0.17244986 0.013598529 -0.028612388 0.08650119
-0.06971749 0.02640809 -0.05836885 0.03452757 -0.23479368 -0.007728504 -0.042797178 -0.060073912
0.0701042 -0.025256 -0.06628733 -0.14383227 -0.012765782 0.05313113 -0.07493405 -0.061509825
-0.014839202 0.03636341 -0.04892174 0.025272172 -0.048024014 -0.06852098 -0.17908724 0.0067964927
0.10596525 0.025045266 0.03804008 -0.01489795 -0.011562905 -0.22866336 -0.07506696 0.047353007
-0.04849019 -0.09312675 -0.05271972 -0.15927395 -0.09878533 0.09732756 -0.1480994 0.041194476
0.07345546 0.03268546 0.07673042 -0.06106978 -0.05680897 -0.023296522 -0.11505254 0.082212046
-0.06831928 -0.019645393 0.08245536 -0.0055011534 -0.060632676 -0.07712342 -0.08658753 0.082019195

bias f4 [8]
00000000: dbe8 dfbd 08ee 11be 2643 66be 7a9e 20be
00000010: e2ed e6bd ae68 29be 051b 17be 3d25 f4bc
-0.109330855 -0.14250958 -0.22486553 -0.15685454 -0.11275841 -0.16543838 -0.14756401 -0.029802913
