CartPole/ppo/CartPole-v0/lr_0.0002/coeff_entropy_0.0001/batch_size_64/horizon_512/policy.pth (torch_old, 8163 bytes, 9 tensors)

act_fc1.weight f4 [32, 4]
000000 14 6a 91 3d 55 cd db be 39 ae d9 3e 1d 0e 39 be
       0.07100311 -0.42930093 0.42515734 -0.1807179
000010 d0 1c 9a 3e 1f a8 65 be 1a e1 f7 3e 27 3e 8b 3e
       0.30100107 -0.22427414 0.48413926 0.27195856
000020 54 89 ba 3c 1f 92 c6 3d 85 53 c4 be b9 03 10 bf
       0.022770561 0.09695839 -0.3834497 -0.5625568
000030 22 b5 9d be 18 2d c5 3e f6 93 02 3f 41 0d 0f 3e
       -0.30802256 0.38510966 0.5100702 0.139699
000040 04 65 f1 bd 98 1c 69 be cd 06 36 3d 7c ab b4 3d
       -0.11786845 -0.22764814 0.04444008 0.088217705
000050 82 92 db 3d 51 8c 2c 3e 1b 63 b4 3c 34 e9 c6 3e
       0.107213035 0.16850401 0.022019913 0.38849795
000060 03 5c cf 3d 9a be 5c be 5b 7f 81 bd 1d 71 0b be
       0.10124972 -0.21557084 -0.06323119 -0.13617368
000070 28 8a 7d 3e ce 71 6c be 9e 0d 7c be 40 f7 c9 be
       0.24759734 -0.23090288 -0.2461457 -0.3944645
000080 24 f1 26 be 80 d2 3e bd e6 e3 cb be f7 2d d0 b8
       -0.16302925 -0.046587467 -0.3982231 -9.9267745e-05
000090 3f 9f ea 3e 7f 2f 8a 3c 30 d7 85 bd bf bf 15 3e
       0.4582462 0.016868351 -0.065351844 0.14623927
0000a0 93 40 0f 3e e7 6b ba 3e 20 6e 09 be 30 c6 c6 be
       0.13989477 0.36410448 -0.13420916 -0.3882308
0000b0 7d 72 e7 3d 76 1e c5 3c ac 10 33 bf ee 56 ab be
       0.11301134 0.024062376 -0.69947314 -0.3346476
0000c0 e5 39 8e be b2 78 8f 3d 04 c8 77 3e a9 10 69 3e
       -0.27778545 0.07005443 0.24197394 0.22760262
0000d0 d4 d9 2f be b0 de 42 3e 83 77 e4 be 1c 42 3d bd
       -0.17172939 0.19030261 -0.4462243 -0.046205625
0000e0 4f ca 98 be 8a b1 a6 3d f2 ba 94 3e 60 d4 89 3d
       -0.2984185 0.08139332 0.29048878 0.067299604
0000f0 4b 9a ab 3e 2f b6 01 be ad 10 6f be cd b5 cf be
       0.33516154 -0.12667154 -0.23346205 -0.4056839
000100 2e dd f7 3e 00 7d a0 be 62 3f fe 3c bc 1a b6 be
       0.48410934 -0.31345367 0.031036083 -0.35567272
000110 59 0d bd 37 eb 54 82 3c f4 16 00 be 3e 12 8c 3e
       2.2536771e-05 0.015909633 -0.12508756 0.27357668
000120 6c c2 2b be bf 43 e1 3d 7c 3d 35 3e cb 66 42 be
       -0.16773385 0.1099925 0.17699236 -0.18984525
000130 cd b1 37 3e 68 25 e5 be 14 93 96 3e cc c5 63 3e
       0.1793892 -0.447551 0.29409087 0.22243422
000140 21 80 a5 3e a1 65 ce be 4a f4 1e 3d bf af 65 3d
       0.32324317 -0.40311912 0.03880719 0.056075808
000150 9b 11 bb 3e 80 a1 26 3e d8 f6 8b 3d 2b 59 c8 be
       0.3653687 0.16272545 0.06834191 -0.3913053
000160 b4 dc b8 3d 87 ba ed 3e bf 3b 04 bf 82 c6 78 be
       0.09026471 0.46431372 -0.51653665 -0.24294475
000170 3c a4 9a bd 4f 6c c2 bc fb ed b8 3e a8 c2 a2 3e
       -0.075508565 -0.023733286 0.36119065 0.31789136
000180 5c 48 d3 3d f2 3c 71 be 44 ae 01 bf 69 db 20 3e
       0.10316536 -0.23558405 -0.50656533 0.15708698
000190 68 c2 b5 3e 14 22 51 3e 0c 19 af bd 73 d0 b6 be
       0.35499883 0.20423156 -0.08549699 -0.3570591
0001a0 58 19 8c 3d 5f 97 d2 3e 13 11 96 3c 3f 9e a0 3e
       0.068407714 0.41131112 0.018318688 0.31370732
0001b0 97 87 be 3e 66 c8 fa bc 0e 4b 70 be 42 e7 97 bd
       0.37212822 -0.030613136 -0.23466131 -0.07417156
0001c0 9c 49 f0 3e 63 1a d3 be 07 a8 d2 bd 3c 63 26 3e
       0.4693116 -0.4123107 -0.10285955 0.16248792
0001d0 0a b0 01 3f a9 f6 35 3e d8 72 a4 3e 71 02 9d be
       0.5065924 0.17769875 0.3211887 -0.30665925
0001e0 c3 8a 9c 3e 28 fe 39 bd 18 8b 1a 3e 0c f6 ea be
       0.30574617 -0.045408398 0.15092123 -0.45890844
0001f0 b1 b6 c1 be a4 da 1f bd 4c 26 e5 3e ac be dd be
       -0.37834695 -0.03902687 0.4475578 -0.43309534

act_fc1.bias f4 [32]
000000 d3 f8 0e 3d f8 04 38 be e3 5c 99 3d 86 01 dd bd
       0.034905266 -0.17970645 0.0748842 -0.10791306
000010 07 c9 e6 be 61 c8 79 3e 16 b3 a6 be 19 20 97 3d
       -0.45075247 0.24392845 -0.32558507 0.07379169
000020 ef 46 11 be be ea 16 be b8 ec 9e 3e 16 fa 82 3e
       -0.14187215 -0.14737985 0.31039977 0.25581425
000030 01 e2 17 3e 64 18 4b be 95 43 88 3e 14 08 a3 bd
       0.14832307 -0.19833523 0.2661406 -0.07960525
000040 d9 46 ae 3d 6c 62 d9 be f5 bc c8 bc ed 30 57 be
       0.08509607 -0.42457902 -0.024504164 -0.21014757
000050 7b 5f ef be 08 61 e3 be 35 d5 de be ca a7 a1 be
       -0.46752533 -0.44409966 -0.4352204 -0.31573325
000060 17 e4 b9 3e a8 41 07 be 8e 4d c9 be 41 c9 90 be
       0.3630683 -0.1320864 -0.39316982 -0.28278545
000070 e8 e7 a2 3c ad 5b 4e bb 78 1a ae 3e 8e 87 0f bd
       0.019885972 -0.0031487748 0.3400457 -0.035041384

act_fc2.weight f4 [32, 32]
000000 b1 e7 fd bd 33 72 e5 3d 7a ec a9 bd a0 e4 11 3e
       -0.12397707 0.112034224 -0.082970574 0.1424737
000010 ed f7 55 be b3 a6 56 bd 68 94 c5 bd 13 9d a7 be
       -0.20895357 -0.05240507 -0.09647447 -0.32737026
000020 59 e8 c5 3d 9d 33 ce bd 25 90 c2 bd 0b 8d 86 3d
       0.096634574 -0.10068438 -0.0950015 0.065698706
000030 ff f4 a8 3d 3e b1 7d 3d d3 7e 00 3e f3 a4 9c 3c
       0.08249854 0.06193661 0.1254838 0.019121623
000040 a4 66 1e 3d d1 4a af bd 92 f5 d1 3d 95 6b 08 be
       0.038672104 -0.08559192 0.10251917 -0.1332229
000050 b0 94 01 be 51 2f 32 3d bc a3 d9 3d 53 f3 40 be
       -0.12654376 0.043502156 0.10626933 -0.18842821
000060 d4 f8 3b 39 25 82 27 be b3 4f 80 bc 46 c3 f9 bd
       0.00017926405 -0.1635824 -0.015663004 -0.121954486
000070 47 95 08 3e d1 7e 89 3d 48 e7 c4 bd 83 d5 30 3d
       0.13338195 0.067136414 -0.09614426 0.04317237
000080 82 ba 9a 3c 58 80 2f 3e 60 32 67 bd 1a f0 b9 bc
       0.018887762 0.17138803 -0.056444526 -0.022697497
000090 1d 38 21 bd 70 17 87 3c 58 59 2a bd ce 5e 02 3e
       -0.039360154 0.016490668 -0.04158911 0.12731478
0000a0 91 e7 0e be 74 6c 1b 3e 09 8f cd bd 43 c6 59 3e
       -0.13955523 0.1517809 -0.100370474 0.21267037
0000b0 61 07 84 bd a6 d7 e3 bd 9b ae ca bd 9a 99 eb bb
       -0.0644672 -0.11125116 -0.098965846 -0.0071899416
0000c0 6d d3 a6 bd 46 40 3a bd 00 5a 1d be 8d 77 c2 bd
       -0.08145795 -0.045471452 -0.15366364 -0.09495459
0000d0 9e 35 5e bd a8 60 25 be 38 af 84 bd 35 e0 35 3e
       -0.054250352 -0.16150153 -0.06478733 0.1776131
0000e0 0d fe 3a 3e 9e cd d8 bd 7e bd ac 3d be d7 06 be
       0.18260975 -0.10586093 0.0843458 -0.13168237
0000f0 a4 3e 00 be ce 9c 12 bd 62 47 6c 3e 9f 23 59 be
       -0.12523896 -0.03579407 0.23074105 -0.21204995
000100 2e 74 d7 3c be 99 71 3c ae e9 15 3e 72 fa 02 be
       0.026300516 0.014746128 0.14639923 -0.1279085
000110 8e ac 90 3d ad 32 23 bc 2d 09 2f 3e b7 90 c8 3d
       0.07064162 -0.0099608125 0.17093344 0.09793227
000120 88 80 dc bc 79 f7 07 3e 04 09 8a 3d ce 0e 95 bd
       -0.026916757 0.13277997 0.06740001 -0.072782144
000130 64 db a1 3d bf 30 ed bd a4 98 b8 bd aa 83 36 be
       0.079031736 -0.11581563 -0.09013489 -0.17823663
000140 53 f3 13 bd 77 fe 34 3e 21 33 1d be e7 ff 0b bc
       -0.036120724 0.17675196 -0.15351535 -0.008544899
000150 e1 55 87 bc 48 db 85 bd 82 e0 d9 bd 19 d4 06 3e
       -0.016520442 -0.06535965 -0.106385246 0.13166846
000160 54 a3 25 3e a1 6e 8a bd bb d8 1a bd 22 31 1c 3e
       0.16175586 -0.06759382 -0.037804347 0.15253118
000170 fa 69 19 3e 81 42 6a bb 81 30 7c 3d 4b 4e d7 3d
       0.14981833 -0.0035745206 0.061569694 0.1051298
000180 7c a2 19 be 80 74 d6 3c f1 85 39 be 84 9e 0a be
       -0.15003389 0.026178598 -0.18117501 -0.13537031
000190 9d f7 3c be e5 32 07 3e f0 64 9f bc 1c 44 3b be
       -0.18453832 0.13203008 -0.01945731 -0.182877
0001a0 62 6f 12 be 2e e9 43 3e ba 36 b4 bc 06 78 04 be
       -0.14300302 0.1913192 -0.021998752 -0.1293641
0001b0 cc a1 d8 bd 66 ea 96 3d 52 68 dc bd 6a ff 3d 3d
       -0.10577735 0.07368927 -0.10762085 0.04638616
0001c0 0f 37 9e 3d 25 e3 b7 3d 26 6b b0 3d 4b a1 18 bb
       0.07725345 0.08978871 0.08614187 -0.0023289497
0001d0 3c bf 29 3e e5 91 a9 3c bd c2 b2 bd 0a 79 ab bc
       0.16576856 0.02069945 -0.0872855 -0.02093174
0001e0 14 f6 ba 3d 86 e2 3f 3d 9f 2f 4d bd 75 a9 1a 3e
       0.09128967 0.04684689 -0.050094243 0.15103705
0001f0 5e 2f 97 bb e4 2e 0e 3e be 49 2b be 60 47 26 3c
       -0.004613801 0.13885075 -0.16727349 0.010148853
000200 fd 92 65 3d c6 ed f1 3d 68 ae 3d 3e 3b 63 cb 3d
       0.056048382 0.1181293 0.18523562 0.09931036
000210 95 cd 03 3e c4 27 53 be 5e 16 11 3e 46 5e cf 3d
       0.12871392 -0.20620638 0.14168689 0.10125403
000220 2e 06 cc 3d 6e 6b 66 3d 74 fc 17 be e2 4f 13 3e
       0.09962116 0.056254797 -0.14842397 0.14385942
000230 50 35 3f be 2a 24 fc bc 1c bf 47 bd 13 0d a1 3d
       -0.18672681 -0.030778963 -0.04876624 0.07863822
000240 f7 70 fe bc a2 97 6e 3c aa b9 30 3e 0c 00 f1 3d
       -0.031059725 0.014562519 0.17258325 0.11767587
000250 59 ef f0 bd 36 a0 0e 3c 61 98 16 3e ac 64 80 bd
       -0.11764402 0.008705189 0.14706565 -0.06269202
000260 c3 c8 d6 3d 5c 26 10 3e a1 23 fe 3d f1 8e f8 bd
       0.10487511 0.14077133 0.124091394 -0.12136639
000270 f9 54 31 bd c4 21 5e 3d 37 f5 e8 3c 49 69 0e be
       -0.043293927 0.05423142 0.02843724 -0.1390735
000280 fe 60 a2 bd ac f0 5d be d1 e7 38 be a9 69 fb 3d
       -0.07928656 -0.2167384 -0.18057181 0.122760125
000290 52 80 08 3d 33 58 12 be 8a 56 1d 3e 99 83 5f be
       0.0333255 -0.14291458 0.15365043 -0.21827544
0002a0 79 10 e8 bd 35 f1 63 3b 40 ab d8 3d f1 77 b7 3d
       -0.11331267 0.0034781222 0.10579538 0.08958424
0002b0 c6 62 5f bd 32 91 44 3e 27 8a 30 3e 43 96 04 be
       -0.054537557 0.19196013 0.17240201 -0.12947945
0002c0 27 71 00 be 4a 6d 1c be e4 07 31 be e5 85 ba 3d
       -0.12543164 -0.15276065 -0.17288166 0.091075696
0002d0 48 47 54 3d 8d 54 24 3e c9 72 d5 3d 50 53 37 be
       0.05182579 0.16047879 0.10422284 -0.17902875
0002e0 14 ff 46 bc e4 e8 19 3e 19 13 84 3d 67 37 64 3d
       -0.012145776 0.15030247 0.06448955 0.0557169
0002f0 1c 30 24 3e 03 94 1c be 37 e6 b8 bc b2 47 3c be
       0.16033977 -0.15290837 -0.022570712 -0.18386725
000300 c5 96 1f 3e e8 d9 14 be fc 20 a4 bd ac d5 e5 3c
       0.15584858 -0.1453625 -0.08014104 0.028055988
000310 ac 36 be bd e2 2f 8c 3d 81 33 9f bd 49 a0 f6 bd
       -0.092877716 0.068450704 -0.077734955 -0.12042291
000320 1b e2 b8 3d 50 2b 01 3e d1 67 1b 3e 57 28 51 be
       0.09027501 0.12614179 0.15176322 -0.20425545
000330 42 67 cb 3d eb 23 52 bd b5 a3 de bd e9 ee 2b be
       0.09931804 -0.051303785 -0.108710684 -0.16790356
000340 a5 52 32 be f4 75 2a bd e4 aa 1a 3e a1 b7 db 3c
       -0.17414339 -0.041616395 0.15104252 0.02682096
000350 c1 24 32 3d a5 47 86 3d 39 db be bd 47 1c 66 3d
       0.043492083 0.06556634 -0.09319157 0.05617931
000360 a2 30 20 be 4f 40 21 3e d7 8f 0e be 7a f4 2b be
       -0.15643552 0.15747188 -0.13922058 -0.16792479
000370 0e 4f 3c 3d 15 f6 50 bd 24 3b 4c bd a8 b2 dd 3d
       0.04597383 -0.051015932 -0.04986109 0.108250916
000380 e3 98 e2 bd 47 1a b0 bd 91 69 45 be 6e 7a 8d bd
       -0.11064317 -0.08598762 -0.19278552 -0.06908117
000390 7e 14 c5 3d c9 19 73 3d b2 0b ce 3a c8 69 27 be
       0.09623049 0.059350763 0.0015720038 -0.16348946
0003a0 f0 65 22 be fa dd ab bd 41 f0 a0 bd 81 e1 2c be
       -0.15859199 -0.08391948 -0.07858325 -0.16882898
0003b0 6e 70 3a 3e d8 c8 b2 3d e1 93 2a 3e fe a2 79 bd
       0.18206951 0.08729714 0.16657974 -0.060946457
0003c0 4d 6e cf bd e4 d2 8a 3d 1a 66 eb bd 48 f5 02 be
       -0.1012846 0.067785054 -0.11494084 -0.1278888
0003d0 eb 16 12 3d 4e 2e e8 3d de 93 05 3e 39 9b 09 3e
       0.035666388 0.11336957 0.13044688 0.13438119
0003e0 ee 6d e1 bd 51 9c ef bb 05 8d d3 3d 16 43 bd 3d
       -0.110072955 -0.0073123355 0.10329632 0.09241311
0003f0 04 0f 5e bd 9a 12 b3 bc 67 37 22 bd 69 85 c4 3d
       -0.05421354 -0.021859456 -0.039603617 0.095957585

act_fc2.bias f4 [32]
000000 f0 23 af 3d 92 40 c1 bd 2f bf 04 3e 46 f4 07 be
       0.085517764 -0.09436144 0.12963556 -0.13276777
000010 01 7a 89 bd cc 5a a3 3d b9 82 06 3e aa 52 48 3e
       -0.067127235 0.079763025 0.13135804 0.19562784
000020 5f 69 a0 bd df 3a 1a be 1d ee 46 be 8b 4f 84 3d
       -0.07832598 -0.1506152 -0.1942677 0.06460484
000030 43 6f 14 bd 87 0e ad 3d 48 02 1c be c2 64 af bd
       -0.03623892 0.084500365 -0.15235245 -0.0856414
000040 e6 5b 41 3d 13 dd 21 3e cd 55 1c be e5 6b 29 be
       0.04720678 0.1580699 -0.15267105 -0.16545065
000050 97 cb 74 bd 94 75 ad 3d 5a 05 d6 bc 3c 46 0b 3e
       -0.05976447 0.08469692 -0.026125599 0.13601011
000060 5d 8d c9 bd 47 2b d3 bd 11 9a bb 3d 64 3c 39 3b
       -0.09841416 -0.10310989 0.09160245 0.0028264755
000070 6c ed d6 3d f7 77 12 be 5c f7 10 be 74 15 b9 3d
       0.104945034 -0.14303575 -0.1415686 0.09037295

mu.weight f4 [2, 32]
000000 09 1d c3 bd 47 ab e6 3d c0 c5 42 3d 8d 5b 90 3d
       -0.095270224 0.11263137 0.04755187 0.07048712
000010 66 5f 2e be 86 b8 e8 bd d6 6e 2d be ae 4a 52 be
       -0.17028579 -0.1136332 -0.16936812 -0.205363
000020 b4 a8 9b bd a2 e3 d5 ba 09 3a 0e bd 6e d6 28 be
       -0.07600537 -0.001631845 -0.034723315 -0.16488048
000030 4e a6 7f bd 3d da 4a b9 00 24 33 be f4 01 01 be
       -0.06241446 -0.00019345521 -0.17494202 -0.12598401
000040 e3 f1 b0 3d 8d 99 33 be 07 28 02 3e bd a7 21 bd
       0.08639886 -0.17539044 0.12710582 -0.03946661
000050 55 34 36 3e 42 f9 0f bd f3 1b 41 3e 0f 2f e9 bd
       0.177934 -0.03514982 0.18858318 -0.11385929
000060 db 6e 85 3d 58 04 83 3c 02 25 44 be 37 c2 08 3e
       0.06515285 0.015993282 -0.19154742 0.13355337
000070 47 de 82 3d 2a ae cd 3d 60 b4 7e bc 3e 91 54 be
       0.06390052 0.10042985 -0.015545934 -0.2075853
000080 b1 10 4c 3e ef 69 e2 bd 5d 99 e2 bd 8b 53 82 bd
       0.19928242 -0.110553615 -0.11064408 -0.06363591
000090 b7 31 10 3e d1 f8 88 3c 14 3e 9a bd c9 74 58 3e
       0.14081465 0.016720207 -0.07531372 0.211383
0000a0 0a f9 a1 bd ac a2 f5 bd 55 f0 5b bd 23 47 40 3d
       -0.079088286 -0.11993918 -0.053695995 0.04694284
0000b0 64 3e 8e 3d 8c 8c 00 3e 3e 6e ef 3d 79 50 27 3c
       0.06945494 0.12553614 0.11690949 0.010212057
0000c0 e6 b8 1b be e5 3e 57 3d 87 89 1c 3e 5d 7f 38 3d
       -0.15207252 0.052550215 0.15286838 0.045043338
0000d0 66 8a d1 3c 9c da 14 be eb 98 e0 3d d3 e0 a3 bd
       0.025578689 -0.14536518 0.10966667 -0.08001866
0000e0 c9 42 19 bd 87 1c 12 3c d0 54 7f 3d 35 ab b7 3c
       -0.037417207 0.008917934 0.062336743 0.022420505
0000f0 b3 c1 3d 3d 5f fc d6 3d aa d6 2d be 9f 82 88 3d
       0.046327304 0.10497355 -0.16976419 0.06665539

mu.bias f4 [2]
000000 53 07 ef 3d d8 27 dc 3c
       0.11671319 0.026874468

value_fc1.weight f4 [64, 4]
000000 4e bd 5a 3e f3 36 f1 3e 72 87 5a 3f ce 7e c1 be
       0.21361277 0.47112235 0.85362923 -0.37792057
000010 53 2a 33 3e cf 01 e4 3e 28 8e 87 3e da 3d f7 3e
       0.17496614 0.4453263 0.26475644 0.48289376
000020 a1 b6 ce 3d b1 3f a5 3d 90 f1 b6 3d 2a 75 46 3e
       0.100934274 0.08068789 0.08932793 0.19380632
000030 ca fe 2b bf c2 c7 f4 3c 4f c1 33 40 67 f6 82 3f
       -0.6718565 0.029880408 2.8086736 1.0231446
000040 aa 9b 1c 3e 66 00 15 3e 3b b8 4f 3f 55 85 4c be
       0.15293756 0.14550933 0.8114049 -0.19972737
000050 29 d4 8b be fb 73 37 3f c2 85 f2 3f 33 7f 69 3f
       -0.27310303 0.7166135 1.894707 0.91209716
000060 d8 88 be bf d3 1d bf be 0f b8 07 40 7e e3 3b 3f
       -1.4885511 -0.37327442 2.120609 0.73394
000070 5c 1a 6f 3f b8 5a 4a 3e b6 22 18 c0 0d 88 8b bf
       0.93399596 0.19761169 -2.3771186 -1.0900894
000080 aa 0f 95 be 04 65 71 3e 68 ed 2e 40 e0 fa 30 3f
       -0.29113513 0.2357369 2.7332401 0.69132805
000090 c8 2a 82 3f 0b f0 c9 be 03 fa 11 c0 17 5c 71 bf
       1.0169306 -0.3944095 -2.2808845 -0.9428114
0000a0 32 39 be 3f 57 a9 e8 3d 7c e0 0d c0 6b b2 32 bf
       1.4861205 0.11360424 -2.2168264 -0.69803494
0000b0 c8 59 7b be 1d fb 06 3f de 73 cd bd 72 23 a1 3e
       -0.24545968 0.5272692 -0.100318655 0.31472355
0000c0 d8 1e 3f bf 29 88 7d be d8 ca 26 40 71 40 2f 3f
       -0.7465644 -0.24758972 2.6061306 0.68457705
0000d0 3b a9 89 bd 0d 3e 1a be 1f 60 18 3f 0c 55 47 3c
       -0.06721731 -0.15062733 0.5952167 0.012166273
0000e0 e8 db 01 bf ca a1 1f 3f a8 9d 3b 3f ea 13 51 3d
       -0.50726175 0.62356246 0.7328744 0.051044382
0000f0 1c 63 e7 3d d8 97 41 be 3c 66 f3 3d f1 cd 7e be
       0.112982005 -0.1890558 0.11884734 -0.24883248
000100 fa 30 b1 bf f7 68 b4 bd b7 48 27 40 ae 3e 95 3f
       -1.3843071 -0.08809083 2.6138132 1.1659753
000110 ca 8c bf 3e d2 cb d6 be 32 cf 45 3e 4a fe 16 be
       0.374121 -0.41952378 0.1931732 -0.14745441
000120 60 63 e8 3e 00 9d c9 be e1 03 24 c0 f6 ec 82 bf
       0.45388317 -0.39377594 -2.5627367 -1.0228565
000130 41 15 e6 3e 8d da 80 be 94 3d 0e bd b2 33 fc 3e
       0.4493809 -0.2516674 -0.034726694 0.4925819
000140 3c 9e 95 3e 77 ab a3 be 87 a4 01 3c 98 c9 01 be
       0.29222286 -0.31966755 0.0079127615 -0.12674558
000150 5f 86 85 3e 16 87 25 3f 1a 5a c9 3e 7c 6c 7e be
       0.2607908 0.6465925 0.39326555 -0.24846071
000160 67 39 4b be ee 80 bb be 84 5d ca 3d 3d 06 95 3e
       -0.19846116 -0.36621803 0.09881118 0.29106322
000170 5e 7a ff be 5a 22 7e be 16 29 35 3f 3b cc ab 3d
       -0.49898046 -0.24817792 0.7076582 0.08388563
000180 6a 25 3f bf 3e 40 32 3d f2 e6 0f 40 e1 d8 80 3f
       -0.74666464 0.043518297 2.2484708 1.0066186
000190 15 6a 2f bf 5a a4 ea 3c 5d ee 0c 40 2d 84 4c 3f
       -0.68521243 0.028642822 2.2020485 0.79889184
0001a0 8a c7 79 bf 16 55 c7 3e 28 b9 2e 40 00 e4 84 3f
       -0.975701 0.38932103 2.730051 1.038208
0001b0 4d c0 f2 3d 18 59 df be be f8 61 3e 1a ba b7 3e
       0.11853085 -0.4362266 0.22067544 0.35884172
0001c0 67 c3 09 bf 2b 97 46 3f dd e8 6d 3f 69 87 c7 be
       -0.53813785 0.77574414 0.92933446 -0.38970497
0001d0 66 e9 76 bf f8 c3 44 3f 7e 2b 1c 40 0e 5e 85 3f
       -0.9644989 0.76861525 2.4401546 1.0419328
0001e0 d5 d8 b8 be 28 2f 1a be a6 af 5b 3e 3e ae 17 be
       -0.3610293 -0.15057051 0.21453723 -0.14812562
0001f0 92 a3 e4 be ac 1c 18 3e aa 2d 6d be 9f 30 28 3f
       -0.44656044 0.14854687 -0.2316195 0.6569919
000200 3d 13 5e 3e d4 01 bc be a4 64 bf bd 7c b3 9a be
       0.21687026 -0.36720145 -0.093453676 -0.3021506
000210 7a bc 9b 3f 6e ba 56 bd f3 98 13 c0 ff 00 95 bf
       1.2166893 -0.052423887 -2.3062103 -1.1640929
000220 f5 86 b3 3e 1c 64 28 bf a5 f2 88 bf 7a ab 06 3f
       0.35063902 -0.65777755 -1.0699049 0.526054
000230 c0 33 0d bf 3a 2f a9 be 03 56 0b 3f ca 9e 01 3e
       -0.5515709 -0.33043844 0.5442812 0.1265823
000240 39 f2 ad be 91 3b 02 3e ab c7 ab be d0 1e 27 3f
       -0.33973864 0.12718035 -0.33550772 0.6528139
000250 bf ba 0c bf 89 6e c4 3d 44 80 96 3d e2 d2 df 3b
       -0.5497245 0.095913954 0.073486835 0.006830559
000260 cb d6 ce bd ff c5 3c bf 5e 64 27 bf 9e 22 cd 3e
       -0.10099562 -0.7373962 -0.65387523 0.40065473
000270 1d d1 db 3d b2 b2 bf 3e 34 0e 23 bd 27 1f 19 be
       0.107332446 0.3744102 -0.039808467 -0.1495329
000280 12 c7 d8 bd 0e 5e b0 bd 44 68 db 3e e9 3d e4 bc
       -0.10584845 -0.086116895 0.42852986 -0.027861552
000290 3f ec a2 bd 1f 25 f5 be 38 7b a9 be 02 3c ba 3e
       -0.079552166 -0.47879884 -0.3310182 0.36373907
0002a0 62 9e 18 bf d5 20 3c 3f c3 50 2b 40 95 6f 94 3f
       -0.59616673 0.734876 2.6768043 1.1596552
0002b0 1d a8 c8 3c c5 fc 64 3f 0c 84 74 3f e2 1b be be
       0.024494225 0.89448196 0.9551399 -0.37130648
0002c0 bd ed af 3d 30 b8 69 bc 97 f8 d6 3e fd 83 1d 3f
       0.08590267 -0.014265105 0.41986534 0.61529523
0002d0 d8 4e a6 be ca d8 f4 bc 4f ff 85 3e 9d eb f5 3c
       -0.32482028 -0.02988853 0.26171347 0.030019576
0002e0 a1 0d 69 3e 00 85 f4 3e d2 b0 ae 3e 06 8f b6 3e
       0.22759105 0.4775772 0.34119278 0.35655993
0002f0 6c c3 16 bf 49 5c bd 3e 2b ca 31 3e cd bd 52 3e
       -0.5889194 0.3698447 0.17362277 0.20580216
000300 a6 a5 ea be b3 26 c1 3e a3 65 54 3f 08 c2 9d 3e
       -0.45829505 0.37724838 0.82967585 0.30812097
000310 b1 a7 0b 3e 88 44 2f 3e dd 6e eb 3e 1e 6a 1d 3f
       0.13638188 0.17115986 0.4598302 0.61490047
000320 de ee a0 3e b1 9e 33 bf 96 74 2a c0 6b bc 7a bf
       0.3143224 -0.7016402 -2.6633658 -0.97943753
000330 b1 54 1e bd e0 c8 0c be e5 f1 a1 3e 92 77 3e be
       -0.038654987 -0.13748503 0.31629863 -0.186003
000340 c7 15 e6 be 12 13 15 3f 18 1c 02 40 ee c9 98 3f
       -0.4493849 0.58232224 2.0329647 1.1936624
000350 2b 40 cc be 33 a5 04 3f d0 75 24 3f db f4 be 3d
       -0.39892706 0.51814574 0.6424227 0.09324046
000360 c4 2b 41 be d1 73 f0 be ad e6 ce 3e 26 e5 b2 3e
       -0.18864352 -0.4696336 0.40410367 0.3494045
000370 20 42 af be 3e df 1f 3f c7 7f 15 40 81 3d 60 3f
       -0.34230137 0.62450016 2.335924 0.8759385
000380 1b 13 e4 be 51 dd 1a 3e e1 b6 c6 3e a6 da 17 3f
       -0.44545826 0.15123488 0.388114 0.59318006
000390 20 2a 45 bf a4 a0 58 3f 97 33 fe 3f ce 40 60 3f
       -0.770174 0.8462012 1.9859494 0.87598884
0003a0 d0 e7 fc 3e 0f a3 6e be 15 89 1c c0 46 fe 6f bf
       0.4939561 -0.2330439 -2.4458668 -0.93747365
0003b0 63 fc 67 3e 46 37 9b 3d b2 a0 22 3f d3 74 a8 3e
       0.22654872 0.07578902 0.6352645 0.3290163
0003c0 b1 3e 36 be f1 98 b0 bc 59 1f 59 3f d0 30 0d 3f
       -0.17797352 -0.021557303 0.8481346 0.55152607
0003d0 93 06 24 bf ed 04 19 3f fa b9 14 40 80 e6 44 3f
       -0.6407253 0.5977314 2.323851 0.76914215
0003e0 e1 93 6e 3f 51 1b 63 bf b3 2c 37 c0 dd 23 9d bf
       0.93194395 -0.88713557 -2.8621032 -1.227657
0003f0 7a d2 1d be 3e 61 81 3d 04 21 3b bd f4 c0 ae bd
       -0.15412322 0.063173756 -0.045685783 -0.08532897

value_fc1.bias f4 [64]
000000 0c 4f 4d 3f a4 2f 2e 3f 8d a4 ed be 5b 27 13 be
       0.8019874 0.68041444 -0.46414605 -0.14370482
000010 6f 93 37 3f 9b f1 4f bc 67 2d 14 be be 6e a5 be
       0.7170934 -0.012691881 -0.14470445 -0.32311052
000020 2d e2 3c bd 85 a9 07 be 7f e0 52 be f4 73 69 3f
       -0.046114136 -0.1324826 -0.20593451 0.91192555
000030 1c a4 de bd 82 ed 8b 3f 97 94 3a 3f 4e 7b db be
       -0.10871145 1.0931857 0.7288298 -0.42867512
000040 f8 5b 52 be 98 c3 6a 3f 37 64 17 be 7e 05 28 3f
       -0.20542896 0.917047 -0.14784323 0.6563338
000050 1f 1d 2d 3f 85 6b 41 3f 7e de 1f 3f 86 fe 1c 3f
       0.6762256 0.75554687 0.6244887 0.6132587
000060 ee f0 1a be 46 68 ab bd c9 b4 a6 bd c8 37 3e 3f
       -0.1513097 -0.08369498 -0.08139951 0.74303865
000070 fd b3 bc bc 6a 2b 1b bd 23 e1 1f 3f 00 54 28 3f
       -0.023035044 -0.0378832 0.62452906 0.65753174
000080 f1 85 82 3f dd 1c 91 be f9 d8 c3 3d f9 a1 63 3f
       1.0197126 -0.28342333 0.095628686 0.88919026
000090 20 cd 25 3f a0 73 15 3f 30 c6 c8 be 8e f1 8a 3f
       0.6476612 0.58379555 -0.39213705 1.0854967
0000a0 c3 be 52 3f 69 f1 18 3f d5 5b 65 bd a9 ab 28 3f
       0.8232233 0.5974336 -0.05599578 0.6588693
0000b0 b8 8e 4c 3f 8d d0 45 3f d7 b5 23 3f 3a 7f 22 3f
       0.7990527 0.7727135 0.6394934 0.6347538
0000c0 23 0b 7f 3f 26 9c 31 3f fe 79 a2 bd 1d 0c 68 3f
       0.9962637 0.6937889 -0.079334244 0.90643483
0000d0 fe c6 a4 bd c4 da 73 3f e3 a7 5a 3f 1f 85 d5 bc
       -0.08045767 0.95255685 0.85412425 -0.026064454
0000e0 e6 ed 2b 3f 06 7a 98 ba 97 45 43 be 31 7f 57 3f
       0.6715988 -0.0011633046 -0.19069515 0.84178454
0000f0 09 e3 60 3f e6 85 22 bc eb 4b b2 bd 00 82 92 3f
       0.8784643 -0.009919619 -0.087058865 1.1445923

value_fc2.weight f4 [1, 64]
000000 07 12 2e 3f 23 c6 05 3f 8e c4 1b 3d 0b dc a4 bf
       0.6799626 0.5225546 0.038029246 -1.2879652
000010 93 36 32 3f 4f 38 bc bf 19 2e 5e bf 4b 3a 8c bf
       0.69614524 -1.4704684 -0.8678909 -1.095529
000020 88 56 bf bf f7 e2 bd bf 5e a1 86 bf f5 87 10 3f
       -1.4948282 -1.4834889 -1.0517995 0.56457454
000030 5f a2 93 bf 27 60 12 3f ae 62 3e 3f 5f 7c d2 3c
       -1.1533927 0.57177967 0.74369323 0.02569407
000040 09 97 89 bf 67 55 0b 3f d8 c5 cc bf ec 1b 2e 3f
       -1.0749217 0.5442719 -1.5997877 0.68011355
000050 a5 57 2a 3f 62 c2 25 3f 99 1f fe 3e 89 89 44 3f
       0.66539985 0.6474973 0.49633482 0.7677236
000060 bd a3 9b bf c6 52 92 bf f4 a2 b9 bf d4 cd 0c 3f
       -1.2159344 -1.143151 -1.4502854 0.5500157
000070 7b 7e 47 3f e2 8d dc bf c3 b6 37 3f 73 40 34 3f
       0.7792737 -1.7230799 0.7176325 0.7041084
000080 b1 02 01 3f 96 4b b3 bf 90 9b 4e 3e 44 79 22 3f
       0.5039473 -1.4007442 0.2017653 0.63466287
000090 3e b7 33 3f 67 16 c6 3e 46 3b e5 3e e9 ee 13 3f
       0.7020148 0.38688967 0.44771785 0.5778642
0000a0 ce 1f 07 3f f6 47 0f 3f 8b aa d2 bf 7a 95 23 3f
       0.52782905 0.5596918 -1.6458296 0.6389996
0000b0 5b ec 2b 3f 38 93 1e 3f 4c 0f 06 3f 8c 71 50 3f
       0.67157525 0.6194339 0.5236709 0.8142326
0000c0 72 bc 0b 3f 9d bc 46 3f 04 f8 ec bf cf da 0e 3f
       0.5458442 0.7763155 -1.8513188 0.55802625
0000d0 a3 a8 b9 bf cf 92 23 3f 78 07 16 3f da 78 d3 bf
       -1.4504589 0.6389589 0.58605146 -1.6521256
0000e0 a9 60 39 3f 09 37 a9 bf 17 36 9e bf fd 81 12 3f
       0.72413117 -1.321992 -1.2360257 0.57229596
0000f0 de 27 13 3f de 0d 9a bf 7c b0 dc bf f5 b3 0a 3f
       0.5748271 -1.2035482 -1.7241359 0.5418084
