CartPole/ppo/torch_version/CartPole-v0/lr_0.0002/coeff_entropy_0.0001/batch_size_64/horizon_2048/policy.pth (torch_old, 6519 bytes, 7 tensors)

fc1.weight f4 [32, 4]
000000 e5 8a 11 3f 64 ed 01 be 09 9c ff be 63 8c f0 be
       0.5685256 -0.12688214 -0.49923733 -0.46982107
000010 8c 8b 69 3e ca 7f d7 be 59 f5 ae bd 17 12 84 be
       0.22807139 -0.42089683 -0.0854289 -0.2579505
000020 b1 b9 23 be aa 98 73 3e 18 e5 2e 3e 8e 9f 0e be
       -0.15988804 0.23788705 0.1707958 -0.13928053
000030 dd bb 79 3e eb 42 0d 3f 3c fd 41 be 6b e5 72 be
       0.2438807 0.55180234 -0.18944257 -0.23720329
000040 8d 49 ab be 89 66 e6 be 63 19 c4 be fc 46 93 3e
       -0.33454552 -0.45000103 -0.3830062 0.28765094
000050 1a 46 f2 3e 86 a4 1a 3f dc 43 ee 3d 79 da bd be
       0.47319108 0.6040729 0.11634037 -0.37080744
000060 44 70 8b bd 67 88 43 be 08 bd 81 be c9 87 27 be
       -0.06808522 -0.19095002 -0.25339532 -0.16360392
000070 38 a0 09 bf 82 2c 87 be 91 95 a8 be 3f 59 f8 3e
       -0.537601 -0.26401144 -0.3292661 0.4850559
000080 30 68 be be 99 38 16 3f 49 52 75 3c 73 b1 4c 3e
       -0.37188864 0.5868011 0.014973232 0.19989567
000090 61 3a a3 3e 2c d7 cd 3e 01 cf b5 3e 88 17 fe be
       0.31880477 0.40203226 0.35509494 -0.49627328
0000a0 65 a2 78 be 9f 41 e9 3d 1f 9a 51 3e 45 9e d4 be
       -0.24280699 0.11389469 0.20468949 -0.41527
0000b0 c1 33 a5 be 74 8e 2b bf 3f 4f 9e bd c3 3f 04 3e
       -0.32266048 -0.6701424 -0.07729959 0.12914948
0000c0 6e 2d 35 bd f2 f4 0a bf 12 cb af 3e 83 7e 7d 3e
       -0.04423278 -0.54280007 0.34334618 0.24755292
0000d0 3a e2 90 be d9 eb de be 12 7d c5 be 2a 58 e7 3e
       -0.28297597 -0.43539312 -0.38571984 0.4518445
0000e0 d3 48 f5 be 46 07 9b be 1a 1f 66 3e 38 63 bd 3e
       -0.47907123 -0.30278987 0.22472802 0.3698976
0000f0 2c 92 49 3e a4 6d e5 3e 09 d3 e8 3d 97 81 58 3e
       0.19684666 0.44810212 0.11368377 0.21143185
000100 8a e5 92 bd c9 3e b3 be 66 f9 bc 3e 75 64 5d bd
       -0.07172687 -0.3500884 0.36909026 -0.05405088
000110 a1 e9 88 3e 00 d7 de be 29 df 8e bd 7b 1f c5 3e
       0.26740745 -0.43523407 -0.06976158 0.3850058
000120 a4 02 7e 3d 85 4f 59 3e 8d 57 56 3e d2 20 23 3e
       0.062014237 0.2122174 0.20931835 0.15930489
000130 66 b2 22 be 45 6b ce 3e b2 0d 08 3f 3e b2 8b bd
       -0.15888366 0.40316215 0.531459 -0.068211064
000140 6b 99 12 bd f9 24 8f bd be c8 54 3e fb 41 dd 3d
       -0.035790842 -0.06989474 0.20779702 0.108036004
000150 a1 a7 03 be ed 77 5f 3e e9 90 9e be 7a 55 bd be
       -0.12856914 0.21823092 -0.30969933 -0.36979276
000160 8e cc aa bd 90 b5 c6 be a9 80 e3 be 97 ec ce 3e
       -0.08339797 -0.38810396 -0.44434097 0.4041488
000170 d5 5b 10 be 68 0b d8 3e cd f4 83 3e a6 d2 88 be
       -0.14097531 0.42196202 0.25772706 -0.26723212
000180 d4 28 f1 bd c2 bc 1d bf 82 8e 89 be 05 7b 1d 3e
       -0.117753655 -0.61616147 -0.26866537 0.1537896
000190 80 fd 6e 3e ec 22 eb 3d 77 88 46 3e 9c 9c 82 3d
       0.2333889 0.1148127 0.19387995 0.06377527
0001a0 70 79 ef bd b2 12 c8 3e 56 78 9f 3e 64 47 30 3e
       -0.11693084 0.39076763 0.31146497 0.17214733
0001b0 2f 47 0b 3e 40 e6 84 be 1a 60 b2 3e 6c 30 1d bd
       0.13601373 -0.25956917 0.34838945 -0.038376257
0001c0 9e fc 73 3e b7 9b 88 3e 86 02 c2 be 05 03 8c 3e
       0.23826835 0.266813 -0.3789255 0.27346054
0001d0 29 2f 01 be 42 62 10 3f b4 3d 9d be 2a b2 8b be
       -0.12615646 0.5639993 -0.30711138 -0.27284366
0001e0 b9 d7 86 be 58 ae 02 bf 24 28 c2 be 44 6e 22 3f
       -0.26336458 -0.5104728 -0.3792125 0.634495
0001f0 67 5c be be be b9 32 3e 47 cb bc 3e 16 99 be be
       -0.37179872 0.17453668 0.36873838 -0.3722617

fc1.bias f4 [32]
000000 5e b4 ac be 27 e7 20 3f e3 37 24 3f 02 1d 97 3d
       -0.3373136 0.6285271 0.64147776 0.0737858
000010 90 49 a5 bd ea aa 6d be fc 02 c2 3e 63 a3 87 3e
       -0.080706716 -0.2320973 0.37892902 0.26491842
000020 bf 17 27 3e 85 d2 a8 3e 98 b5 9b be 31 61 ab 3c
       0.16317652 0.32973114 -0.30411983 0.020920368
000030 ae fd 8e 3e 90 2b 50 3e 35 c6 04 be c9 89 c7 3e
       0.27927917 0.20329118 -0.12966235 0.3897231
000040 81 d1 25 3e a5 d5 a2 3c 3b 01 23 be 45 84 1d 3f
       0.161932 0.019877264 -0.15918438 0.6152995
000050 ef 0a 0e 3f 5b 84 08 3f e5 21 5b 38 88 57 ae 3c
       0.55485433 0.5332696 5.2245236e-05 0.021281973
000060 a1 f8 4c 3e 56 58 1e 3f 0e b5 ee be 66 83 0d 3f
       0.2001672 0.6185354 -0.4662251 0.55278623
000070 f0 02 d9 bd 1f dc c3 3e 16 08 1a 3e 2f 05 b5 be
       -0.105962634 0.38253877 0.15042147 -0.35355517

fc2.weight f4 [32, 32]
000000 d8 6e 46 bd 84 3c 60 bd 9a 63 cb 3d f2 e2 f9 bd
       -0.048445553 -0.054745212 0.09931107 -0.122014895
000010 ea 17 fb 3d b2 22 af 3d 40 b2 8c bb cd 45 9a bd
       0.122604206 0.085515395 -0.00429371 -0.07532845
000020 c0 9e 5c bb 38 05 13 3d fb e1 b0 bd 52 c9 0c be
       -0.0033663958 0.03589365 -0.08636852 -0.13748673
000030 1e 2e ea 3d 02 c6 e0 3d f4 e6 15 3d 78 ed 4b 3d
       0.114345774 0.10975267 0.036597207 0.049787015
000040 70 b5 24 be 8e 7a 20 be 44 b0 03 3d 70 61 d0 bd
       -0.16084838 -0.15671751 0.032150522 -0.10174835
000050 04 d7 08 bd ff e6 c7 bd 32 e6 ca bd 30 a4 49 bc
       -0.03340818 -0.09760856 -0.099071875 -0.012307212
000060 97 09 0f 3e 5d af 2e 3e 10 f7 4c 3d 7f cf b4 bd
       0.13968502 0.17059083 0.050040305 -0.08828639
000070 86 4a ae 3d 2e d8 66 bd 36 94 e2 bd 32 42 bc 3d
       0.08510308 -0.05635851 -0.11063425 0.09192313
000080 80 03 83 3d ac f9 38 be f7 e8 2e bd e4 4c f5 bd
       0.06397152 -0.18063992 -0.04270264 -0.11977556
000090 d4 d2 35 be 9a a0 d1 3d 32 b1 3a be 4d 6c 1c 3d
       -0.17756206 0.102357104 -0.18231657 0.03818922
0000a0 66 fb 0d 3c 1d 2e 1a be fc a7 80 bd 6b 3f 27 be
       0.008665895 -0.15056653 -0.062820405 -0.16332786
0000b0 10 40 5b bb 72 b3 1a 3d 9f 20 66 bd e0 89 b0 bd
       -0.0033454932 0.03776879 -0.056183454 -0.086200476
0000c0 ea ab 6c bd d7 b3 28 3d 85 44 9b bd 63 f5 de bd
       -0.057781138 0.041187134 -0.075814284 -0.108866476
0000d0 9c 73 d1 3d bd 5d 90 3d 03 53 54 bd e6 ce c3 3d
       0.10227129 0.07049129 -0.05183698 0.09560947
0000e0 ca ff 25 bd 52 3f 27 be 8e 60 0c be dd c9 ff 3d
       -0.040527143 -0.16332749 -0.13708708 0.12489674
0000f0 4c fb 25 be c0 3b e9 bc 8f 85 84 3a 4e 87 cd 3d
       -0.16209143 -0.028470874 0.0010110604 0.10035573
000100 27 3a 50 be 20 a0 a5 3e 38 f9 4e 3e 06 c5 c0 3e
       -0.20334683 0.32348728 0.20212257 0.37650317
000110 4f a8 59 bd 3e 16 76 3e f3 59 a5 3e f9 d1 bd 3e
       -0.053139027 0.24031922 0.32295188 0.3707426
000120 81 cd 32 3e be 67 a5 3e e9 62 92 3d 9b 64 fe 3c
       0.17461206 0.32305712 0.07147772 0.031053832
000130 94 6d 43 3e 6f 0e 36 3e 4d 35 9b 3c fb a0 56 3d
       0.1908477 0.17778943 0.018946314 0.052399617
000140 9a 6d ed 3d 26 1d 9e 3d d1 29 4b bc 37 54 9c 3e
       0.115931705 0.077204034 -0.0124001065 0.30533
000150 df 5e aa 3c ce 9d b0 3e 94 cb 8c 3e 12 91 8a 3e
       0.020797191 0.34495395 0.27499068 0.27063805
000160 b0 f3 25 3d 39 a2 8e 3d 2a 34 9c 3d bd d4 9d 3e
       0.0405156 0.06964535 0.07627137 0.3082637
000170 87 6d 5d 3d 11 c3 68 3d ef ca 4c 3e ae 1a 9c bd
       0.05405953 0.056826655 0.19999288 -0.07622276
000180 6e 6e e7 3c d1 bb ca 3c c7 db 42 3e bf 4c a1 3e
       0.0282509 0.024747761 0.19029151 0.31503865
000190 93 74 96 bd 69 7d 45 bb d2 26 5b 3e b2 65 18 3e
       -0.073464535 -0.0030134565 0.21401528 0.14882544
0001a0 93 8e c4 3e b6 1e 98 3e fb 43 b4 3b 6a 33 41 3e
       0.38390025 0.2971093 0.005501268 0.18867269
0001b0 b8 c7 a6 3e 29 73 f6 3d 90 6b 28 3e cf 54 88 3e
       0.32574248 0.12033684 0.16447282 0.26627204
0001c0 a3 a9 a7 3e ff fe b4 3e a2 2f 0d be dc d5 11 3d
       0.3274661 0.35350797 -0.13787702 0.035604343
0001d0 2f 4b a5 3e 4b d6 29 3e 3c 99 a7 3e 81 7f c8 3d
       0.32283923 0.16585653 0.32734096 0.097899444
0001e0 a1 d6 aa 3e 14 22 99 3e 62 c4 10 be 4e 35 83 3e
       0.33366874 0.29908812 -0.14137414 0.25626606
0001f0 dd 18 06 3e 29 df 38 3e 2d 31 8e 3d 0a 5d 07 bc
       0.13095422 0.18053879 0.06942973 -0.008261928
000200 b6 8f 77 bd 5e eb 16 3e b2 5d 73 3e 15 d3 51 3e
       -0.060439788 0.14738223 0.2376621 0.20490678
000210 b0 a8 37 bd 1e 5c 5e 3e 32 12 7f 3d 96 5d 70 3e
       -0.044838607 0.21714827 0.06227321 0.234732
000220 3e 34 0a 3e e0 b5 b0 3e ba 97 d6 bd c1 01 a8 3e
       0.13496491 0.3451376 -0.10478158 0.32813838
000230 62 bb 95 3e 00 8f fd 3d ba 5c 9b 3d 9b af 6c 3e
       0.29244524 0.12380791 0.075860456 0.23113863
000240 00 29 ef 3d 25 be 9f 3e e1 a1 f3 bd 88 70 16 3e
       0.11677742 0.31199756 -0.1189611 0.14691365
000250 fd 87 3a 3e 31 7a 13 3e 01 be 4e 3e 1f a7 b7 3d
       0.18215938 0.14402081 0.20189668 0.08967423
000260 74 57 1c 3e ac 4b 9b 3e f2 b4 ac 3d 5e 54 9c 3e
       0.15267736 0.3033117 0.0843295 0.30533117
000270 5a 13 42 bd 16 9c e0 3d c7 bb 61 3e 24 d3 1e be
       -0.047381736 0.10967271 0.22044288 -0.15510231
000280 1b b7 90 be a1 0c 12 3e 4d bf 8d 3e 25 7c a0 3e
       -0.28264698 0.1426263 0.27685013 0.31344715
000290 cc 80 33 bd 34 5e 94 3e 2c e8 f6 3d 14 3d 8d 3e
       -0.043824002 0.2897812 0.12056002 0.2758566
0002a0 76 cc 84 3e 66 37 a3 3e 42 0c 6c bd 6e 9b 27 3e
       0.2593724 0.31878203 -0.057628877 0.16367885
0002b0 cd cf 95 3e 67 44 f6 3d d9 a4 43 3e 2f a6 c2 3e
       0.29260102 0.120247655 0.19105853 0.38017413
0002c0 fe a0 b5 3e d0 40 7b 3e d2 fa d2 3b 47 b1 bf 3e
       0.3547439 0.24536443 0.0064385915 0.3743994
0002d0 49 25 be 3e 6d 7c 48 3d dd 02 9c 3e 2b 97 c3 3e
       0.3713782 0.048946787 0.30470935 0.3820127
0002e0 01 1e 6c 3e be 6f 84 3e 77 d7 0e 3e c6 67 32 3e
       0.2305832 0.25866503 0.13949381 0.17422399
0002f0 23 b4 b9 bd ee 58 3d 3e 37 79 28 3e 62 48 f0 3c
       -0.090675615 0.18490955 0.1645249 0.02933139
000300 bd 9d 9c be 07 ca 9b 3e 19 c6 36 3e dc 7d 58 3e
       -0.30589095 0.30427572 0.17849006 0.21141762
000310 3d 74 04 bc 1d 60 55 3e ce e9 88 3e 37 a6 85 3e
       -0.008084354 0.20837446 0.2674088 0.26103374
000320 1d dd 47 3e 23 61 71 3e 49 9e dd bc e2 a3 8c 3e
       0.19517942 0.23572211 -0.027053015 0.27468783
000330 a3 ba 52 3e bc 7d 93 3e 8a f0 4f 3e 4e c9 2b 3e
       0.20579009 0.28806865 0.20306602 0.1677601
000340 fd 69 d7 3d 34 b3 b5 3e 57 18 13 3e d2 17 c7 3e
       0.105182625 0.35488284 0.14364754 0.3888536
000350 2e b0 3d 3e b4 f2 c4 3e bc 8e 66 3d 6b 9d bf 3e
       0.18524238 0.38466418 0.056288466 0.37424788
000360 cb 0f c9 3e 39 8f a4 3e f6 69 f5 3d 60 c2 8a 3e
       0.39269862 0.3214052 0.11983101 0.2710142
000370 93 02 dd 3d e1 eb 67 3d 32 2b 1d 3e 95 d7 07 be
       0.107915066 0.056621436 0.15348509 -0.13265832
000380 54 fc 93 bb 80 04 a0 bd 14 17 7c bd 1e ff a2 bb
       -0.004516164 -0.07813358 -0.061545447 -0.00497426
000390 76 89 f9 bd 20 7a 42 be f3 66 a9 3c e5 71 08 be
       -0.12184422 -0.189919 0.020678973 -0.13324697
0003a0 ab 60 4e 3d 81 aa 31 3b 8f c8 6c 3d 40 ff 02 be
       0.05038516 0.0027109685 0.057808455 -0.12792683
0003b0 0b 46 bb bd 00 c9 4b bd c7 6b 0e be 64 f3 ec 3d
       -0.09144219 -0.049752235 -0.13908301 0.115698606
0003c0 5b 1d be 3c f6 ba 3c be af cc 25 be de 33 be 3c
       0.023207357 -0.18430695 -0.16191362 0.023218092
0003d0 38 6b ad 3d 14 fe 32 bd bf e5 00 3e b8 95 c1 bc
       0.08467716 -0.04369934 0.12587641 -0.023630962
0003e0 7c a5 03 be de 16 10 bd 0c 10 a3 bd 1b bd 38 be
       -0.12856096 -0.035178058 -0.07962045 -0.18040888
0003f0 3c 3b a3 bd 7f 5a 4e bd bd 11 35 bc bd 53 b1 bd
       -0.079702824 -0.050379273 -0.011051592 -0.0865855

fc2.bias f4 [32]
000000 25 4f 2f be f1 03 b2 3d e4 2c 03 3e 7b 60 36 3e
       -0.17120035 0.08692158 0.12810093 0.17810242
000010 d7 d6 17 3e 41 bd 69 3d 5c ee 9b 3e ad 69 9c 3d
       0.14828049 0.057065252 0.3045529 0.076373436
000020 de 4f d7 3d 00 41 3e be 4a 84 1f be 19 b3 97 3c
       0.1051328 -0.18579483 -0.15577808 0.018518018
000030 da d6 06 3e 2e 03 92 3e b0 0a 35 bd 62 4f 52 3d
       0.13167897 0.2851805 -0.044199646 0.051345237
000040 01 cd 05 be af 9a 8d bd 4d 59 f2 3d d0 e9 89 3d
       -0.13066484 -0.06914269 0.11833439 0.06734049
000050 a2 dd 2a be c6 fa 8c 3d 25 22 f6 3d e0 ef e3 3d
       -0.16686109 0.06883769 0.12018231 0.11129737
000060 81 06 bc 3c 0d 24 a3 3e 25 51 11 3c eb 7e 89 3d
       0.02295232 0.31863442 0.008869444 0.06713661
000070 62 a4 0a 3e e9 03 4e bd cf fb 89 bc 5c 5a bf bd
       0.1353927 -0.050296698 -0.016843705 -0.093434066

dist.linear.weight f4 [2, 32]
000000 ee ab f6 bd fe 84 27 3e 99 f0 97 bc 2c 6d 0a be
       -0.12044512 0.16359326 -0.018547343 -0.13518208
000010 80 29 84 3c c2 51 90 3d e8 4d 23 3e 50 df 36 be
       0.01613307 0.07046844 0.15947688 -0.17858624
000020 37 4c 56 3d 08 c7 14 3d c4 72 19 be b4 1c 04 3e
       0.052318778 0.036322623 -0.14985186 0.12901574
000030 17 ee ff 3d c0 26 86 bb 8f 6e 12 3e 8d 3c cf 3d
       0.12496584 -0.004093975 0.14299987 0.10118971
000040 89 bd ea 3d 3c 55 57 3d 00 31 bc bd 13 a5 66 be
       0.11461932 0.05257152 -0.091890335 -0.22523908
000050 98 59 79 3c d0 9f 7b bc 19 f3 4d bd 35 fe b7 bd
       0.015219115 -0.0153579265 -0.050280664 -0.08984033
000060 26 fb a6 3c 64 0c fa 3c 25 07 51 bc 7b 86 05 3e
       0.020383429 0.030523486 -0.012758051 0.13039581
000070 d0 5d 34 3d 8c f4 3c 3e 53 a3 c0 3c 02 8c e5 3d
       0.04403478 0.18452662 0.023515379 0.11208345
000080 8b e6 0c be 5d e3 f0 3d 55 66 07 be df 8d 84 3d
       -0.1375982 0.11762116 -0.1322263 0.06472372
000090 35 39 e7 3d e7 6f 09 be 4f 7e 8f 3d 37 08 00 3c
       0.11290208 -0.13421594 0.07006513 0.007814459
0000a0 23 f5 e2 bd b0 53 69 3d 54 b8 c1 bd 7c f7 c8 ba
       -0.11081912 0.056964576 -0.09458986 -0.0015332545
0000b0 bf 44 18 3e 7a e2 b1 bc 61 41 31 be e0 8d 2a bd
       0.14869975 -0.021714438 -0.17310096 -0.04163921
0000c0 07 38 bf bd c8 1f e2 bc 0c b7 c0 bd 03 8e cc bc
       -0.09336858 -0.027603045 -0.094099134 -0.02497006
0000d0 af bd f2 bd 24 66 db bd 28 5d 42 be 85 68 0c 3c
       -0.118525855 -0.10712841 -0.18980849 0.008569841
0000e0 70 4f 2d 3e b1 95 48 3e 36 70 26 3e 5c 5f e4 3d
       0.16924834 0.19588353 0.16253743 0.11151001
0000f0 ba fa fb 3d f3 98 fb 3d 99 80 27 3d 50 f0 fe 3d
       0.12303682 0.12285032 0.040894125 0.1244818

dist.linear.bias f4 [2]
000000 55 9e 76 bd 1b b2 17 be
       -0.06020959 -0.14814036

critic.weight f4 [1, 32]
000000 a0 ea cf bb e8 f1 1e be 6c e1 9a 3e 7d 91 a2 3e
       -0.006345108 -0.15521967 0.30250108 0.31751624
000010 e5 94 99 3e e4 5a 95 3e 5f f8 49 3e e2 02 bc bd
       0.2999641 0.29170907 0.19723652 -0.09180237
000020 2d 66 aa 3e bd 6d b9 bd e2 e0 98 be d3 70 23 be
       0.3328108 -0.09054134 -0.29859072 -0.15961008
000030 cf 97 b6 3e 94 7d 45 3e 90 a6 68 3d 20 3e 1d be
       0.35662696 0.19286186 0.05679947 -0.1535573
000040 42 3e 14 be 73 d2 4b be 76 97 c9 3e d1 03 92 3e
       -0.14476874 -0.19904499 0.39373368 0.28518537
000050 fd 78 ba bd 78 fd bd 3c 3a 71 37 bd 88 3c 43 bd
       -0.09105108 0.023192152 -0.044785716 -0.04766515
000060 ad 35 ce bd 3d e3 9c 3e f0 13 4f bc 07 f2 a6 bd
       -0.100688316 0.3064212 -0.012639031 -0.08151632
000070 b6 77 94 3e 55 78 a0 be a1 8b 27 be d4 af 6b bc
       0.28997582 -0.31341806 -0.16361858 -0.014385182
