CartPole/ppo/CartPole-v0/lr_0.0002/coeff_entropy_0.0001/batch_size_64/horizon_2048/policy.pth (torch_old, 8163 bytes, 9 tensors)

act_fc1.weight f4 [32, 4]
000000 dc 32 ec 3e d8 5f ed 3e 88 d2 f7 bd 16 46 de be
       0.46132553 0.46362185 -0.121007025 -0.43412846
000010 4e ac 91 bd 91 fc bb 3c b0 6a a7 3e a5 c4 d9 3e
       -0.07112943 0.022947581 0.32698584 0.4253284
000020 d8 d6 a9 3e 8e b3 bd bd f3 b4 35 be b4 46 e9 be
       0.33171725 -0.09262763 -0.17744808 -0.45561755
000030 0e 4b ba be 66 77 95 3d 21 7e 8e bb e8 ae 97 3e
       -0.36385387 0.07298164 -0.004348532 0.2962563
000040 bd 0c 14 be f2 ee e9 3c 89 67 8b be 4e 3a e9 3e
       -0.14457984 0.02855632 -0.2722743 0.45552295
000050 02 d1 68 3e 97 3a f9 3e cd 7b 07 bc a8 0d 8f be
       0.2273598 0.48677513 -0.0082692625 -0.27940106
000060 2f d5 5e 3e c4 ff 3f bd 66 65 dc be 1c 77 2c 3e
       0.2176101 -0.046874776 -0.4304611 0.16842312
000070 1a d9 fb be 6a 56 b5 3e 81 12 03 3e b8 bf f2 bc
       -0.49189073 0.3541749 0.12800027 -0.029632434
000080 52 dd 8b 3e f0 7d 2e be 6e b2 ae 3c 1c c9 8a be
       0.27317291 -0.17040229 0.021325316 -0.2710656
000090 48 f9 83 be 13 fa be be aa a8 0f 3e 83 de d0 bd
       -0.25776124 -0.37300166 0.14029184 -0.10198691
0000a0 0a f8 2e bd 8e 51 01 3e 1d 46 9a 3e 06 45 b1 bd
       -0.042717017 0.12628767 0.30131617 -0.08655743
0000b0 bf 7d a9 be 4e e3 27 be 6c c0 3d 3e 7f c1 83 3e
       -0.3310375 -0.16395304 0.18530434 0.25733563
0000c0 a0 37 82 3e 3b 1b b2 be 56 a5 cc 3e df 78 2a 3d
       0.25433064 -0.347864 0.3996989 0.041619178
0000d0 8f 5d f2 be 6a fc ea bd 23 50 00 bf 79 5e 07 3e
       -0.47337005 -0.114739254 -0.5012228 0.13219632
0000e0 95 b7 eb 3e 60 31 de be af 53 e7 3e a4 86 93 be
       0.460385 -0.43397045 0.45181033 -0.2881366
0000f0 b9 81 9e 3e 52 1b 8d 3d 8e 47 03 3c d2 5f 71 3d
       0.30958346 0.068899766 0.008012665 0.058929272
000100 ea 59 a1 be 19 8f 61 3e 1c c3 eb 3e 77 80 fc bd
       -0.3151391 0.22027244 0.46047294 -0.1232919
000110 15 49 8c be 08 2b 76 be 75 cd 3f bd be e0 9f 3e
       -0.27399507 -0.24039853 -0.0468268 0.31226152
000120 9d 29 f9 3d 44 9e fd be 2e e0 96 be c7 53 fa 3d
       0.1216614 -0.4953481 -0.2946791 0.122230105
000130 0f 43 77 3e 88 08 e9 be 54 0a 64 3e a2 66 9a 3e
       0.24146675 -0.4551432 0.22269565 0.30156428
000140 67 a7 bb be a6 3a e8 3e e2 88 f5 3e f6 9b 7e 3e
       -0.36651155 0.45357245 0.47955996 0.24864182
000150 d4 50 49 3c 05 88 bb 3d ae cc 93 be 83 25 b5 3e
       0.012287337 0.09156803 -0.28867096 0.35380182
000160 42 00 b1 be 0a 59 a0 be 31 1d 71 3e 0e 25 38 3e
       -0.3457051 -0.3131793 0.23546292 0.17982885
000170 75 74 52 3e d2 f0 ac bd 23 e6 ac 3e 6a 90 e9 3e
       0.20552237 -0.0844437 0.3376933 0.45617992
000180 2b 13 e3 3e 2c b0 b1 be fd b3 f3 3e d9 bd b7 3e
       0.44350561 -0.3470472 0.47598258 0.3588703
000190 47 cc b6 be 84 13 22 bc 7e 5c ef 3e f6 5a a3 3c
       -0.35702726 -0.009892348 0.46750253 0.019940834
0001a0 8e 64 80 be 3b 42 20 be e3 7d 63 3c b9 b4 aa be
       -0.25076717 -0.15650265 0.013884994 -0.33341005
0001b0 2a e0 80 3e b3 75 84 bd 1e 96 68 be 70 85 7c 3d
       0.25171024 -0.06467762 -0.22713515 0.061650693
0001c0 c4 5a a7 be 3c 67 a8 be 50 3b 67 3d b7 a4 9f 3e
       -0.32686436 -0.32891262 0.05645305 0.31180355
0001d0 12 32 00 3e 1e b2 eb 3c 90 fb dd 3e 92 c4 08 3e
       0.125191 0.028771456 0.4335599 0.13356236
0001e0 af 93 74 3e 3a 9c bc bd ef 15 d8 bd 98 a9 88 be
       0.23884462 -0.09209485 -0.105510585 -0.2669189
0001f0 dd b4 46 3e 67 7d c4 bd 38 b0 28 3e 05 ec 00 be
       0.19404931 -0.09594231 0.16473472 -0.12590034

act_fc1.bias f4 [32]
000000 6d b5 83 bd 83 c6 a4 be 70 02 80 be 2d e2 21 be
       -0.064310886 -0.32182702 -0.2500186 -0.15808935
000010 9f 62 d8 3e 1c cd 51 be 02 fc 3d 3e 61 c4 18 be
       0.42262742 -0.204884 0.18553165 -0.14918663
000020 63 26 d0 3e 62 ab 75 3e a9 dd ec 3d 64 2d 7d bd
       0.40654287 0.23991159 0.11565716 -0.061810866
000030 2d 9e d8 bc 19 ce 48 3e 03 fe 55 bd 52 8d 5e be
       -0.026442612 0.1960987 -0.052244198 -0.21733597
000040 be dc 61 be 5e 4c 5a 3b 5e 84 4c be c8 11 c1 be
       -0.22056863 0.0033309679 -0.19972369 -0.3770888
000050 29 c1 6c bc fa 03 e1 be f7 66 db 3e 00 c4 75 be
       -0.01445035 -0.43948346 0.42851993 -0.2400055
000060 30 02 d0 be 70 19 22 3e 46 20 d5 3c 78 22 2e be
       -0.4062667 0.15830016 0.026016366 -0.17005336
000070 9b 0e 1a bc 61 6c fd 3e 8c 2a d2 3e 49 bd 4a be
       -0.009402896 0.4949675 0.41048086 -0.19798769

act_fc2.weight f4 [32, 32]
000000 8d c7 fe 3d 60 dc 0c be 5f cb 2a 3e 68 ab dd 3c
       0.12440405 -0.13755941 0.16679142 0.027059272
000010 e5 5d f7 bd 3c cb b8 3d 21 d7 c2 bd 9f 29 e1 3d
       -0.12078456 0.09023139 -0.09513689 0.10994267
000020 6b a2 f0 bc f0 a6 13 3e 5e c6 12 be 14 ca e6 bb
       -0.029374322 0.1441915 -0.14333484 -0.0070431326
000030 46 e1 ac 3d 54 5d a9 bd 19 44 0f 3e 20 5e f3 b9
       0.08441405 -0.08269754 0.13990821 -0.000464187
000040 54 83 82 b9 78 35 ee bd 9f 26 21 bd 88 88 66 3c
       -0.0002489338 -0.11631292 -0.039343473 0.0140706375
000050 6f 2b 83 bd 24 ad b6 3d d6 70 bc 3c 56 be ef 3d
       -0.06404769 0.08919743 0.023003023 0.117062256
000060 90 f0 04 3e a6 5e 0b 3e 4c 2f 2f 3e 32 9d fc bd
       0.12982392 0.13610324 0.17107886 -0.1233467
000070 9f b5 b5 bc 9d f8 97 3d b9 06 cb bc cb fa a9 bd
       -0.02218133 0.07420466 -0.024783479 -0.08299788
000080 d0 a2 02 bc f0 4b 7f bc f8 9e ae 3c 4f 86 c5 bd
       -0.007973388 -0.01558207 0.021316037 -0.09644758
000090 43 f9 22 be 6a b8 d3 3d d6 9e bd bd 48 6b 25 bd
       -0.15915398 0.103379086 -0.09258811 -0.040385514
0000a0 ea 04 fd 3d 00 e8 40 bd d7 8b 21 be bf 67 34 3e
       0.12354453 -0.047096252 -0.15776001 0.17617701
0000b0 0c db 80 3d ad 33 95 bd a5 27 17 3e dd de 22 3e
       0.0629178 -0.07285247 0.14761217 0.15905328
0000c0 ae 74 e6 bd af af 2d 3e dd 24 22 be 4e 5f eb 3d
       -0.11252724 0.16961549 -0.15834375 0.11492787
0000d0 54 41 1f bd 54 a3 9a bd 40 e6 9e 3b 9e a8 02 be
       -0.03888066 -0.075506836 0.0048492253 -0.12759635
0000e0 d0 7b 67 bd 7c 07 78 3d 54 66 c4 bd 33 8b 21 be
       -0.05651456 0.060554013 -0.0958983 -0.15775757
0000f0 52 17 f8 3d 09 2d 84 bd d8 45 58 bd 3a d1 d2 3d
       0.12113823 -0.06453902 -0.052800983 0.10293813
000100 fd 4d 00 3e 73 8f e8 bd 27 f8 09 be 6d 95 32 be
       0.1252975 -0.11355486 -0.13473569 -0.17439814
000110 8e 6a e2 bd f9 50 99 bd 3e f3 25 bd 81 b7 5e 3d
       -0.1105548 -0.074861474 -0.040515177 0.05437422
000120 4d c3 e5 3d fd 37 0f 3e 24 5d b6 bd cd f3 c1 3d
       0.11218891 0.13986202 -0.08904484 0.094703294
000130 69 7a 2d 3d 17 4d 8f 3d 6c 3e 82 3d ad f1 44 bd
       0.042353068 0.069971256 0.06359562 -0.048082042
000140 f4 1c 0d bc 82 cc b6 bb a4 7e 21 be d9 b8 c3 bd
       -0.00861286 -0.0055785784 -0.15770966 -0.09556741
000150 0a 71 16 be 95 ef c1 bd 6d 9e 24 3e a1 8a 02 3e
       -0.14691558 -0.09469525 0.1607606 0.12748195
000160 46 c9 e4 bb 85 6a a7 bd c1 1d a3 bd 32 77 06 be
       -0.0069820015 -0.08174614 -0.079646595 -0.13131407
000170 6a 6c 1d 3e aa 0a 59 3c 86 23 28 bd 91 57 35 be
       0.15373388 0.013247171 -0.041049503 -0.17709185
000180 18 0c 33 3b 5a 43 20 3e ba f7 17 3e e0 af 34 3e
       0.002732044 0.15650693 0.14840594 0.17645216
000190 5d 0f 1c 3e 2d ed 11 3e 14 89 a4 bd 10 19 47 3c
       0.15240236 0.14250632 -0.08033958 0.012151971
0001a0 62 58 e7 3b 10 2d 40 3b 13 59 c2 3d 68 a6 c5 bd
       0.0070600966 0.0029323734 0.09489646 -0.0965088
0001b0 d2 d2 bf 3d 7e 00 98 3d e6 71 cb 3d 53 f1 08 be
       0.09366383 0.07421969 0.09933834 -0.13373308
0001c0 25 c0 86 bd 76 f7 d0 bc 78 08 01 bd 04 3c 2d be
       -0.065796174 -0.025508624 -0.031502217 -0.16917425
0001d0 69 4e 12 3e e1 c4 f9 3d 2f 21 1a be 91 4f 0c 3e
       0.14287724 0.12195755 -0.15051721 0.13702227
0001e0 44 8b 20 3c 1b ea 05 be c5 bd 27 be 25 94 1e be
       0.0097988285 -0.13077585 -0.16380985 -0.154862
0001f0 d7 1d 11 be c0 56 e5 3d 70 ab 13 bd eb 4a c4 bd
       -0.14171539 0.11198187 -0.036052167 -0.09584602
000200 7d 0b de 3d 65 9e 2a be 0a 76 d3 3c 08 b2 2c 3e
       0.10842035 -0.16661985 0.025813121 0.16864789
000210 ff 00 ac 3c 86 2f 4e 3d d7 58 b4 bd 21 a1 11 3e
       0.020996569 0.05033829 -0.08806007 0.14221622
000220 c9 85 ae bd f6 45 5b bd 95 89 60 3d 9f 65 12 bc
       -0.08521611 -0.053533517 0.05481871 -0.008935361
000230 bd 40 0e be 8d 4a c1 ba 04 4a f2 3b 72 cd 2a 3e
       -0.13891883 -0.0014746949 0.0073940773 0.16679934
000240 71 2c ed bd 28 2d 72 3d 86 61 d7 bc 2a 24 1b be
       -0.11580742 0.059125096 -0.02629162 -0.15150514
000250 66 f3 2d be 22 c4 cd bd 0f 68 04 be 92 29 09 bd
       -0.1698738 -0.10047175 -0.1293032 -0.03348691
000260 31 be fa 3d ca 42 ac 3d cd 7c 3f ba a0 b2 22 3d
       0.122433074 0.084111765 -0.00073046685 0.03972113
000270 93 2b 2a 3e 64 ac 6e 3c db e7 2a be 1f 3d 00 be
       0.16618185 0.014567468 -0.16690008 -0.12523316
000280 43 d6 be bb 09 66 95 bd b0 91 c9 bd 8c 3c 79 3d
       -0.005823882 -0.07294852 -0.09842241 0.060848758
000290 66 a6 31 bd cf 2b 23 be b8 0c b4 3d 4c d2 11 be
       -0.04337158 -0.1593468 0.087914884 -0.14240378
0002a0 d7 b3 66 3d cd 20 ee bc c8 36 52 3d 9b f9 e0 bd
       0.056323852 -0.029068375 0.051321775 -0.109851085
0002b0 16 0e 94 3d 8e ee 31 3e 9d 1b 49 bd 35 68 38 bd
       0.07229249 0.17376158 -0.0490986 -0.045021255
0002c0 63 06 74 3d 51 61 84 3d 88 76 4f 3c 60 ca 27 3e
       0.059576403 0.06463874 0.012662537 0.16385794
0002d0 6b cd 25 3e 1f 48 9b bd 97 ff be 3c ad 46 de 3c
       0.16191642 -0.075821154 0.023315234 0.02713331
0002e0 68 b1 1d 3e a3 55 22 3d b9 2d 18 be f6 06 aa 3d
       0.15399706 0.03963245 -0.14861192 0.08302109
0002f0 49 96 01 bc de 40 62 bd 40 bf 66 3d 9d 32 0e be
       -0.007909366 -0.055237643 0.056334734 -0.13886495
000300 70 b7 28 bc b6 b6 5d bd ee c0 b7 3d ce 7c 28 be
       -0.010297641 -0.054129325 0.08972345 -0.16453859
000310 50 de 78 bc af 5a 9a bd 5e fa e2 bd fb 6b 0d 3e
       -0.015189722 -0.07536828 -0.1108291 0.13810723
000320 0a 1d 33 be 40 73 a7 bc 48 22 1a 3d 07 8c 17 3e
       -0.17491546 -0.020440698 0.03763035 0.1479951
000330 38 e4 f7 3c 13 cf 91 bd 4e ba e2 3d e6 b8 c7 3d
       0.03026019 -0.071195744 0.11070691 0.097520635
000340 6c ea 31 be 40 2d 1e bc 3e ab f5 3d 94 5d f0 bd
       -0.17374581 -0.009654343 0.119955525 -0.117365986
000350 8a 12 ff bd 00 2c 26 3b c8 f7 1b bd 04 74 07 be
       -0.12454708 0.0025355816 -0.0380781 -0.1322785
000360 08 44 60 bd 8e 70 e7 3d fe e7 de bd 00 53 38 3d
       -0.05475238 0.11300765 -0.10884093 0.04500103
000370 80 be 71 bc e0 69 e1 3b 0a f2 e0 3d 08 8b 8e 3c
       -0.014754891 0.0068790764 0.10983665 0.01740028
000380 a6 33 4e bd bb 49 00 3d 77 a9 0c be 27 4e c5 3c
       -0.050342225 0.031320315 -0.1373652 0.024085118
000390 f6 9e 22 be 6b 21 0f 3e 32 c0 01 be 31 7f bb bd
       -0.15880951 0.13977592 -0.12670973 -0.09155119
0003a0 68 a4 40 3d 25 0a 06 bd a2 fe 1f be 05 42 c7 3d
       0.04703179 -0.03272452 -0.15624478 0.09729389
0003b0 3a f5 22 3c 04 7c e3 3d de 2d 8a 3b 85 16 28 be
       0.009946162 0.111076385 0.0042168936 -0.1641484
0003c0 48 9f 43 3d 4f ab ac 3d aa 09 28 bd 1d 82 11 be
       0.047759324 0.08431112 -0.04102484 -0.1420979
0003d0 c5 dc 69 bc 2d fe d2 3d 94 8f 7a 3b 4e a1 81 bd
       -0.014273827 0.103023864 0.0038232552 -0.063295946
0003e0 e6 a4 a5 bc 60 10 97 bd 5f 62 18 3e 1c b4 82 3b
       -0.020220231 -0.0737617 0.14881276 0.003988756
0003f0 d3 d6 23 3e 11 9d a9 3d 26 b3 0b be 74 29 7e 3d
       0.15999918 0.08281911 -0.13642558 0.06205125

act_fc2.bias f4 [32]
000000 ac 49 06 3e 69 94 e0 bd f5 b1 49 3d 18 79 04 be
       0.13114041 -0.10965807 0.04924198 -0.12936819
000010 e6 d4 b4 3d 49 99 22 3e 58 bf ee bc 5b cc 00 3d
       0.0882967 0.15878786 -0.029143974 0.03144489
000020 4d e9 16 be c3 b1 5a bd 84 84 0e be c5 ef 12 be
       -0.14737435 -0.053392183 -0.13917738 -0.14349277
000030 ee 5d bb 3d 51 31 e0 bc e5 ce 73 3c ff 6a 14 3d
       0.09148775 -0.027367266 0.0148808705 0.036234852
000040 6b 7f 10 be 3a 40 d3 3d bc 36 77 bd ee 60 a8 3d
       -0.14111106 0.103149846 -0.060354933 0.08221613
000050 d8 2d 30 be 7a 74 a7 3b 09 9a ab bd f0 45 8d 3c
       -0.17204988 0.0051103206 -0.08378989 0.017245263
000060 d4 c6 5d bd 03 65 f5 3d b3 bc 37 be 40 6b 11 3d
       -0.054144695 0.11982157 -0.17943077 0.035502672
000070 e3 25 11 be 6b 72 f1 3c af 25 24 3e 1a 7d 12 3e
       -0.14174609 0.029473504 0.1603 0.14305535

mu.weight f4 [2, 32]
000000 a5 94 a7 3d 3e 01 a2 3d 21 12 b0 3d cc 4e d5 bd
       0.081826486 0.07910393 0.08597208 -0.1041542
000010 de dd 6f bc 3c 55 c6 ba 94 3c 85 3d 90 1c 2e 3e
       -0.0146403 -0.0015131603 0.06505695 0.17003083
000020 ee d8 8d bd 5a da 3f bd 1c e4 0b 3e bb e7 88 38
       -0.06926142 -0.046839096 0.13661236 6.5281485e-05
000030 28 ab e1 bc 95 ad d0 bd 58 28 4c 3a f2 72 2b be
       -0.027547434 -0.10189358 0.0007787994 -0.16743067
000040 44 e2 31 3d 0e 92 1b 3e 79 fd e7 bd 6c 62 df 3d
       0.043428674 0.15192434 -0.11327643 0.10907444
000050 bd ad cf bc 3d 5e de bd e8 66 2c 3d b0 a7 b5 3d
       -0.0253514 -0.10857818 0.042090327 0.088698745
000060 96 b8 25 3e ec b5 1a 3e 7a 7f 02 be cc 80 0a be
       0.16183695 0.1510846 -0.12743941 -0.13525695
000070 57 c6 d5 bd 30 62 1e 3d e4 17 c1 bd d5 0d 02 3e
       -0.10438221 0.038667858 -0.09428385 0.12700589
000080 9f 27 c6 3d 60 f1 89 bd fc ab 0c 3e 19 3f d0 3c
       0.09675526 -0.06735492 0.13737482 0.025420712
000090 29 4d bf 3d 35 88 27 be 1f 53 34 be 87 42 f3 bd
       0.09340889 -0.16360553 -0.17609833 -0.118779235
0000a0 8d 1d 96 3d fb 75 2b 3e dc 6e 0b 3e f3 a2 eb 3d
       0.07329855 0.16744225 0.13616508 0.115056895
0000b0 40 ce ac 3d 2b 3c 62 3c 9e 04 dd bd d4 8d 8e bd
       0.084377766 0.0138082905 -0.10791896 -0.06960645
0000c0 13 be 08 3e 05 51 91 bd ba 41 8a 3d c8 38 9d 3d
       0.13353758 -0.070955314 0.067508176 0.07676846
0000d0 0e 8e 51 3b cd 8f 95 3d fc 31 1f bd 30 8e 2a bd
       0.003197554 0.073028184 -0.03886603 -0.041639507
0000e0 a2 9c d6 3a 20 4f c8 3b 90 a9 16 3e 83 89 16 3e
       0.0016373585 0.006112948 0.1471312 0.14700894
0000f0 11 43 b0 bd 71 24 ba bb 56 3d a6 3b 36 e7 ff bc
       -0.08606542 -0.0056806137 0.00507323 -0.03123818

mu.bias f4 [2]
000000 1c 28 ac 3d 0f 1d 1d 3e
       0.08406088 0.15343116

value_fc1.weight f4 [64, 4]
000000 e9 60 66 3e 85 f7 6b 3d 80 ed 00 bf a9 1f d9 be
       0.22497906 0.0576091 -0.50362396 -0.42406967
000010 4b 09 b6 3e e7 66 a0 3e cf 7b be be d4 e3 61 be
       0.35553965 0.31328508 -0.37203833 -0.22059566
000020 e7 2d 26 be 7a 3b c7 3c 7b e2 98 be a1 f0 78 be
       -0.16228448 0.024320353 -0.2986029 -0.24310543
000030 80 ec 94 3e e3 08 07 bf 56 eb e0 be 40 ab 3f be
       0.29086685 -0.52747935 -0.43929547 -0.1871767
000040 ca 32 00 be 59 f0 ec 3b 49 76 7d be 6d 7b 6c bd
       -0.12519374 0.0072308 -0.24752153 -0.057734895
000050 be c7 93 be 2e 65 71 be 25 7f aa be 54 82 aa be
       -0.2886333 -0.23573753 -0.3330013 -0.33302557
000060 51 f8 41 be a9 cf a4 be 18 65 1f 3e e6 e9 aa bd
       -0.18942381 -0.32189682 0.15565908 -0.08345394
000070 2c 5e 64 be 13 ee bc be ba 37 df be cf 67 43 3e
       -0.22301549 -0.36900386 -0.43597203 0.19082569
000080 25 40 e1 be b7 8b 9b be fa de 5b bd c0 47 db 3e
       -0.4399425 -0.3038003 -0.053679444 0.42828178
000090 37 a8 2f be 7b ed dd 3e f8 ad 04 bf 35 b3 ca 3e
       -0.17154013 0.43345246 -0.51827955 0.3958985
0000a0 27 16 b7 3e 48 f7 cb 3e e4 72 c8 bc 0c 8d fd be
       0.35759088 0.39837098 -0.024468847 -0.49521673
0000b0 13 e2 b9 be 94 0e 6a 3e f6 51 17 be 56 84 d3 3e
       -0.36305293 0.22857124 -0.1477736 0.41311902
0000c0 80 dd 96 be 3a d1 93 be 72 05 b7 3e 6c 80 15 3f
       -0.29465866 -0.28870565 0.35746342 0.5839908
0000d0 72 5f 4a be d0 ad f5 3e 79 34 bd 3d e7 85 0e bd
       -0.19762972 0.4798417 0.09238524 -0.034795668
0000e0 f3 0b b9 3e a5 f9 6b bc 26 ae ee be da f5 46 be
       0.3614193 -0.014402782 -0.4661724 -0.19429722
0000f0 1d 1e 49 be 11 34 f0 3e d8 2c 06 3f 61 25 18 3e
       -0.19640394 0.46914724 0.52412176 0.14858009
000100 cf 37 f0 bd 7a bf 9b 3e cf a9 58 3e 0a c4 9a bc
       -0.11729395 0.30419523 0.21158527 -0.018892307
000110 4a 21 72 3e ac 3d 1e 3e 22 6d 05 3e ca ff 16 bf
       0.23645511 0.15453213 0.13029912 -0.58984053
000120 f4 e7 0e bf 74 35 0f bf 14 aa 18 bf 5f 99 f7 3e
       -0.5582268 -0.5594094 -0.5963452 0.483592
000130 90 8d f0 3b 5f 87 f8 3e bf 78 c6 be ca 78 b8 be
       0.0073410943 0.4854078 -0.38763997 -0.36029655
000140 58 da 99 3e f1 38 2f 3e 43 82 18 be cc 34 17 be
       0.30049396 0.17111565 -0.14893441 -0.14766234
000150 25 d2 16 bc d1 7f 77 3e df 60 75 bd 50 1d 2a be
       -0.009205376 0.24169852 -0.059906837 -0.16612744
000160 20 da 72 bd 6d db c0 3e 63 a7 e9 3e 8b b4 bf 3e
       -0.05929005 0.3766741 0.45635518 0.3744243
000170 75 6f 0e be 85 fc ef 3e 80 86 6c be 16 a5 5f 3e
       -0.13909705 0.46872345 -0.23098183 0.21840319
000180 60 62 cb bd a4 3f 88 be 99 68 75 be fe f0 5e be
       -0.09930873 -0.26611054 -0.23965682 -0.21771619
000190 d5 ce 13 bc a4 0c ab be ba 3c 94 bc c6 be 5b be
       -0.009021481 -0.33408082 -0.018095363 -0.21459493
0001a0 84 fe 1a be 98 6b e5 be c3 1e e1 3d 9e e2 ef 3e
       -0.15136153 -0.4480865 0.109921955 0.46852583
0001b0 49 36 e8 bd 97 28 97 3c d5 21 1e 3e 8d a1 d9 3e
       -0.11338479 0.018451972 0.15442593 0.42506066
0001c0 55 16 2d 3c 0d 98 99 3d 42 2d 83 3e 52 1f 23 3f
       0.010564406 0.074997045 0.25620466 0.63719666
0001d0 b9 80 07 bf 46 4c f9 be 1e 66 1e bd 6d 77 77 3e
       -0.5293079 -0.48691005 -0.038671605 0.24166651
0001e0 f4 26 3a bd cc 35 07 bd 27 7b 9e 3e 3a 52 0b 3f
       -0.045447305 -0.03301029 0.30953333 0.5442234
0001f0 ec b2 47 be c3 59 f9 3e dc 13 55 3d a3 df db 3e
       -0.19501847 0.48701295 0.052020893 0.4294406
000200 00 df 7b be b5 38 98 bd 78 8a a7 3e c7 cf 37 be
       -0.24596786 -0.07432691 0.3272283 -0.17950355
000210 67 01 34 be 2f fe f4 3e 48 a9 9f bc d2 88 9d 3e
       -0.1757866 0.47850177 -0.0194899 0.30768448
000220 1e 99 2a bd 2d a4 40 be f5 47 9a 3e ae 7f e5 bd
       -0.04164993 -0.18812628 0.30133024 -0.112059936
000230 05 35 d0 be cd 3e c6 be 2a ed 60 3e 8f 1e 87 3e
       -0.4066545 -0.38719788 0.21965471 0.26390502
000240 e8 84 14 3e 09 77 a0 3e 68 98 13 bf 8b a2 eb be
       0.14503825 0.31340817 -0.5765443 -0.46022448
000250 4c 1a 85 3d 39 11 2f bd ca 09 74 be 30 c7 58 be
       0.06499156 -0.042741034 -0.23831859 -0.21169734
000260 54 2f e1 3d 96 0a b7 be 85 ce 8e 39 bf c0 e4 3e
       0.10995355 -0.35750264 0.0002723822 0.44678304
000270 c4 01 39 be 38 bb 69 3e 78 8f fc be cc a3 6a be
       -0.1806708 0.22825325 -0.49328208 -0.22914046
000280 b9 14 3f be 24 33 ae be 11 50 a3 3e 10 11 8f 3e
       -0.18660249 -0.34023392 0.31897023 0.27942705
000290 c8 01 16 bf 2b 81 2b be 1f 10 84 3e 99 4b 88 be
       -0.5859647 -0.16748492 0.2579355 -0.26620176
0002a0 40 41 4c be 48 04 98 be 05 ca b9 3d 36 be 4b 3e
       -0.19946766 -0.29690766 0.09071735 0.19896778
0002b0 05 3d 05 bf 8c 12 06 bf 8c a6 82 bd 59 40 f1 3d
       -0.52046233 -0.5237205 -0.063794225 0.117798515
0002c0 4c 2d bf be a3 ca 92 bd 94 3e 43 3e bb eb 85 3c
       -0.37339246 -0.07167556 0.1906684 0.016347757
0002d0 4a 89 b0 3e 49 09 24 3e 0d 0b b6 be 88 13 c1 be
       0.34479743 0.16019167 -0.35555306 -0.37710214
0002e0 58 f4 91 3e fc 20 8d be d6 c1 14 be de ce 0d 3f
       0.28506732 -0.27564228 -0.14527068 0.5539378
0002f0 42 90 90 3d 72 6e bb be d5 e1 aa 3d fc 60 99 be
       0.07058765 -0.366077 0.08343855 -0.29956806
000300 c6 9e d7 be 0d fe ca 3d 12 e4 6d bd ec 97 c4 bd
       -0.42113322 0.099117376 -0.058078833 -0.09599289
000310 45 00 f9 3e 7a 4f 90 bd 6a 1f 45 be 84 05 d4 be
       0.48633018 -0.07046409 -0.19250265 -0.41410458
000320 a7 a6 ab 3c 57 1c aa 3e 4f e0 a2 3e 14 a7 8d 3e
       0.02095349 0.33224747 0.3181176 0.27666533
000330 74 81 0d bf 4e 25 87 3e c4 d9 f4 3d 54 e2 62 3c
       -0.55275655 0.2639565 0.11955598 0.013847906
000340 1f e9 7d be 40 6a 17 3d 36 d1 7a be b9 02 df 3e
       -0.2479596 0.036966562 -0.2449387 0.43556765
000350 78 68 86 be 0d bb a9 bd f5 20 03 bd 97 e3 95 be
       -0.26251578 -0.0828763 -0.032013852 -0.292752
000360 15 2b a1 be 28 7a 21 bd 7f 7b d0 bc eb 71 c9 3e
       -0.3147818 -0.039423138 -0.025449513 0.39344725
000370 79 08 be 3b ad 74 9b bd b2 cc d0 be 68 60 ac bd
       0.00579935 -0.075906135 -0.4078117 -0.084168255
000380 69 5e 99 be 55 7a d5 be e0 56 f9 be 5c 85 1f 3f
       -0.29954842 -0.41694894 -0.48699093 0.62312865
000390 48 fb 22 be e7 0d ec 3e 59 34 09 bf 73 81 7e be
       -0.15916169 0.46104357 -0.535955 -0.24854068
0003a0 3f 57 e2 3e 10 db d2 be b5 d5 db 3d 68 a9 d5 3e
       0.44207188 -0.41182756 0.10734121 0.4173081
0003b0 5c 0d 82 bd 59 b0 3e 3e c0 f7 7e 3e 42 15 69 bd
       -0.06350204 0.18621959 0.24899197 -0.05690504
0003c0 a6 b2 8f bd c6 ce 99 3e bb a7 43 3e 9c 45 b6 3e
       -0.07016496 0.30040568 0.19106953 0.35599983
0003d0 67 5e 8d be 8d 5a 98 be d1 3a 01 be 16 d7 61 3e
       -0.27611086 -0.29756585 -0.12620093 0.22054705
0003e0 49 49 19 bf 57 10 c5 3c 93 49 2d 3e 5a 39 0c 3f
       -0.5987745 0.024055643 0.16922598 0.5477501
0003f0 a1 f0 2b 3d 9b a7 43 3e 6f 48 66 be d4 f9 a8 be
       0.04197753 0.19106905 -0.22488569 -0.33003104

value_fc1.bias f4 [64]
000000 2d 36 88 be 09 5a 88 be ac bf 12 be 2b 0a 0c 3f
       -0.26603833 -0.2663119 -0.1433093 0.54703015
000010 b3 f2 75 3d 10 03 04 3f 98 99 e0 be b9 79 04 3f
       0.06004591 0.51567173 -0.43867183 0.51748234
000020 68 56 b4 be ff c4 73 be e7 70 78 3e 83 ae bc 3e
       -0.35222173 -0.23805617 0.24261819 0.36851892
000030 36 b9 e2 be 02 61 06 be 40 32 d8 3e c0 69 6c be
       -0.4428193 -0.13122943 0.42225838 -0.23087215
000040 da 50 1d 3e 45 59 f0 3d d6 9d 2e 3e 08 97 e4 be
       0.15362874 0.11735777 0.17052397 -0.44646478
000050 af c2 a2 3e fb 60 5e be 14 57 eb be a4 de 2b be
       0.31789157 -0.21716683 -0.45964873 -0.1678415
000060 44 af ba 3e e1 00 ad 3e 22 3c 9b 3d 19 66 a9 3e
       0.36461842 0.33789733 0.07579829 0.33085707
000070 89 e8 a5 be c0 79 9e 3e 9c 67 9d be e7 09 ba be
       -0.32403973 0.30952263 -0.3074311 -0.3633568
000080 59 1f 14 3f 6c da 78 be 52 d5 4c 3e 0a 17 02 bd
       0.5786033 -0.24302071 0.2000325 -0.031760253
000090 49 2f cc be d0 62 9d 3e 42 66 78 3e 01 66 66 be
       -0.39879826 0.3073945 0.24257758 -0.22499849
0000a0 44 6c 18 3f fd a8 d2 3e 2d ef 01 bf 82 35 58 be
       0.595402 0.41144553 -0.5075558 -0.21114162
0000b0 4d a7 a3 3e 41 6a 46 3e 6a 71 df 3d 43 b5 a1 3e
       0.31963578 0.1937647 0.10910304 0.31583604
0000c0 f8 7a 22 3f ed c7 d0 3e 95 60 7e 3e b1 be 2b 3f
       0.63468885 0.4077753 0.2484153 0.67087847
0000d0 ee 12 ad 3e cd 2f e2 bd 43 ea 60 be 1b a9 33 3f
       0.33803505 -0.110442735 -0.21964364 0.7017991
0000e0 16 04 10 3e 11 e3 b9 be de b3 21 3e 91 00 eb be
       0.14064059 -0.3630605 0.1579127 -0.4589887
0000f0 68 26 e5 3e 79 51 2e 3f 0a 08 93 be 71 b9 d6 be
       0.44755864 0.6809307 -0.2871707 -0.41938356

value_fc2.weight f4 [1, 64]
000000 7e 69 a5 bd b4 7b 10 be 44 62 28 be 31 77 7b 3e
       -0.08076762 -0.14109689 -0.16443735 0.24557187
000010 85 63 01 3d 7d ca 88 3e ed 66 96 3c 8a 6c 40 3e
       0.03158905 0.26716986 0.018359626 0.18791404
000020 ee a9 dd bd 95 df 87 3d 73 9c 0b 3e 4a e6 59 3c
       -0.10823427 0.06634442 0.136339 0.013299534
000030 d4 ae 2b be c7 16 91 3d 79 c9 01 3e 2e 36 d1 3d
       -0.1676591 0.070844226 0.12674512 0.10215412
000040 94 06 8e 3c b2 c2 68 3e c8 12 2a 3e 32 50 59 be
       0.017337121 0.2273052 0.16608727 -0.21221998
000050 24 16 0d 3e bc 55 61 be 4e e9 67 3d 5c 31 a4 3d
       0.13777977 -0.22005361 0.05661898 0.08017227
000060 17 95 3f 3e f7 92 8c 3e b8 8c 45 3e 77 87 01 3c
       0.18709217 0.27455875 0.19291961 0.0079058325
000070 25 c6 ae be 15 60 1f 3e ed 21 aa be b6 dd 0d 3d
       -0.34135547 0.15563996 -0.33229008 0.03463527
000080 d9 60 8e 3e 1e f9 c1 3d cc f1 82 3e b4 22 41 bc
       0.27808264 0.094713435 0.255751 -0.011788059
000090 eb fc 23 be 2b dc b3 3d 3c 62 34 3e 1c 3a 05 be
       -0.1601445 0.08782228 0.17615598 -0.13010448
0000a0 33 95 1e 3e 67 12 53 3e 6d ab a2 bb fd 41 a9 3d
       0.15486602 0.20612489 -0.004964283 0.082645394
0000b0 dd e4 42 3e dc b2 48 3e 83 2b f4 3d 97 a9 87 3e
       0.19032617 0.1959948 0.11922362 0.26496574
0000c0 08 ce 5d 3e e2 a3 2c 3d 51 3d 95 3e cb 10 50 3e
       0.21660626 0.04214848 0.29148343 0.20318906
0000d0 4b 04 4b 3e 5a e4 ac bd 39 a4 78 be 64 51 24 3e
       0.19825856 -0.08441992 -0.24281396 0.16046673
0000e0 ad 9b 2e 3e 6f 83 47 be 1d 1d 8e 3c ce bf 96 3d
       0.17051573 -0.19483732 0.017347867 0.073608026
0000f0 fd c9 71 3e d7 6a 58 3e cc c1 a5 be 61 c9 68 bc
       0.23612209 0.21134506 -0.32374418 -0.014208169
