CartPole/ppo/CartPole-v0/lr_0.0002/coeff_entropy_0.0001/batch_size_64/horizon_2048/policy.pth (torch_old, 6519 bytes, 7 tensors)

fc1.weight f4 [32, 4]
00000000: e1eb 373f 66c6 1d3f cc95 23bf 403e d03e
00000010: 0814 7bbf fa88 c7be 8662 85be 6ac5 15be
00000020: e72c a0be 7aca b2be 24af 18bf e983 07bf
00000030: 9376 fbbe ef88 913e e58c f23e 3efa 9dbe
00000040: 9022 253e fbba b23e 172a 0c3f ff62 3c3e
00000050: e0b2 1cbf af83 ca3e 85eb 12bf 14f7 863d
00000060: 8b6b d4be ba0a 6bbd 968e 2d3e 1f83 313e
00000070: dfc9 bd3e 5890 a5be a559 46be 0e6a 863e
00000080: 9e4c 12bd 54b1 bebe 50ca bdbe aea3 e33d
00000090: 1186 bc3e 5e3e 2dbf d6d4 eebe 08c6 0bbe
000000a0: ad29 803d 502c b93e f6e5 2d3f 4c11 e63e
000000b0: e925 863f 732c 49be 4018 713f cc73 513d
000000c0: c69f 77bd 6cad 963d e4ed a33e 45b7 1ebe
000000d0: da6a e4be e183 9abe f4cf f33d 2a71 a93d
000000e0: 2d8e a43e aba7 a93e 654b 143f 3307 ea3e
000000f0: f1fa ff3e b692 adbe 5d74 c13e 15a7 66be
00000100: 5c00 c33d c843 533e 7801 293f a032 d53e
00000110: a787 cbbe 058e 27be 530d dbbe 234f a0be
00000120: 5848 cd3e 0179 a1bd 3530 193f 8568 9d3e
00000130: b71e a4bf b758 08bf 198d 4ebf 8ef6 d13d
00000140: 7969 66be 15e3 f93d 2e72 013f 7ad0 a4be
00000150: cb9f 84bd 2dff 483d 7bf5 aa3e 27e2 aebe
00000160: 3a37 96bf 9118 663d 15cb 473f cba3 293e
00000170: c850 8abf 46ba 48be 1ab7 3c3f b10b f83d
00000180: 0344 9abe cd59 9f3e e00b 213d 03b0 f53e
00000190: 9e5d 7cbe 6da5 89bd 6be1 8c3e 86e6 b1be
000001a0: 321c 6abe 254b 2dbe 96b1 c23e b80c 35be
000001b0: 09b5 8abe 3afd a5be b8ed 073f 5de1 92be
000001c0: cb73 7e3d 934e b33d 9b5a e4bd b95a 843e
000001d0: d8b7 523f 75b0 143f 8b5d 69bf 16ac 41bf
000001e0: 5da2 8e3e f565 4cbe fa28 203e 8614 963e
000001f0: d9a2 79be 205a c1be 5e34 54be ad22 acbe
0.718443 0.61630857 -0.63900447 0.40672493 -0.9807744 -0.38971692 -0.2605173 -0.14626089
-0.31284258 -0.34920102 -0.59642243 -0.52935654 -0.49113902 0.28424785 0.4737312 -0.30854982
0.16126466 0.3490828 0.54751724 0.18397139 -0.6121044 0.39553592 -0.57390624 0.06590095
-0.414883 -0.057383277 0.16948923 0.17335175 0.37068078 -0.32336688 -0.19370134 0.26252788
-0.0357176 -0.37244666 -0.37068415 0.11115204 0.36821035 -0.6767329 -0.46646756 -0.13649762
0.06257949 0.3616662 0.6792902 0.4493507 1.0480319 -0.19645862 0.9417763 0.051135823
-0.060455106 0.07357296 0.32017434 -0.154996 -0.4461277 -0.3017874 0.11904898 0.082735375
0.32139722 0.33135733 0.5792754 0.45708618 0.4999614 -0.33900994 0.3778409 -0.22524674
0.09521553 0.20631325 0.66017866 0.41640186 -0.39751932 -0.1636277 -0.42783603 -0.31310377
0.40094256 -0.07884408 0.59839183 0.30743805 -1.2821873 -0.5326037 -0.8068405 0.10252105
-0.22501172 0.122015156 0.5056485 -0.32190305 -0.064757906 0.04907148 0.33390412 -0.34156916
-1.1735604 0.056175772 0.78044254 0.16566388 -1.0805902 -0.19602308 0.7371689 0.12111605
-0.30130014 0.311232 0.039317966 0.4798585 -0.24645087 -0.067210056 0.2751573 -0.34746188
-0.22862318 -0.16923197 0.38026112 -0.17680633 -0.27091244 -0.3241976 0.53097105 -0.28687564
0.062122148 0.08755221 -0.11150094 0.25850466 0.82311773 0.5808175 -0.9115836 -0.7565321
0.27858248 -0.19960769 0.15640631 0.29312533 -0.24378528 -0.37764072 -0.20723101 -0.33620206

fc1.bias f4 [32]
00000000: 3b0c bcbc 02a8 003f 307e 873f a6a6 533f
00000010: 6503 8b3f a60f 603f 3870 653f 3ffd 683f
00000020: b63a 513f 3a62 473f 8d1c 003f 9826 153b
00000030: 25a4 163f 686d 8c3f 0dac 5d3f 7cdf 0e3f
00000040: 35d9 6c3f a419 0f3f 7765 033f 316a 503e
00000050: 4c73 393f 2d7d 2e3f c343 4a3c d5fe 8dbc
00000060: 1936 313f 89de 293f 5abf 093f 99c4 2e3f
00000070: 39bb 4f3f 509a 50be 41e6 283f 83b2 053f
-0.02295505 0.5025636 1.0585384 0.8267616 1.0860411 0.8752388 0.8962436 0.9101142
0.8173021 0.77884257 0.50043565 0.00227586 0.58844215 1.0970888 0.86590654 0.5580976
0.9251893 0.558985 0.513267 0.20353009 0.72441554 0.68159753 0.012345257 -0.017333427
0.6922317 0.66355187 0.53807604 0.68268734 0.81145054 -0.20371366 0.6597634 0.5222551

fc2.weight f4 [32, 32]
00000000: f4b2 343f d567 de3e 864e 6a3e 0d10 813e
00000010: a3cb 0ebe 6b99 5c3e 4981 9ebc baf6 5ebe
00000020: 7972 0fbe 847d a73e a5a7 09bf 6b43 5b3f
00000030: 01fc da3d 1eea 21be 6ef9 50be bdd8 3e3e
00000040: 013f ecbe 6f53 173f 75bc dbbe aafc 473f
00000050: fe1a e23c cfb1 a13e 3586 253f 2c4b f43e
00000060: 1efb bfbe c063 4c3e 0d23 d2bd 291a 76bd
00000070: 5300 97bd 58e1 413f 5e3b a7be eefa 0b3f
00000080: 4f95 3f3f a7db fb3e ecf4 ba3e afd4 7c3d
00000090: a88c 33be 671f 99bd 9214 8ebe 7915 03bc
000000a0: 612f 463e 5657 943e 94bc 1fbf dde1 463f
000000b0: 1480 2b3e d834 8bbe 8144 bbbe 4b64 b83e
000000c0: ffb0 80be 8fc2 d03e 80ba 21be 6d17 0f3f
000000d0: b038 6c3e 30ad 9b3e bdeb 123f 3787 f33e
000000e0: 37a4 efbe 9715 ab3d 814d 28be 4f23 49bd
000000f0: 1a5c 3cbe fd44 523f a20a a0bd 8211 ab3e
00000100: 965c d0be 6ada 2f3c e1dc 1f3f 77b1 173f
00000110: 62b3 133f 82d8 173f f018 e33e 20a7 ff3e
00000120: 82c4 0f3f ffd9 f53e 69f6 943e 7413 4fbf
00000130: 6518 dc3e 50d4 003f c0e9 f13e e68f 1e3f
00000140: f5aa 183f d8aa c03e 86a4 053f f08a 1ebe
00000150: bb45 0a3f d09a 283f 0084 52bf edee 0bbf
00000160: 0134 023f f7bf d73e 3688 3f3f 5664 1c3f
00000170: 133e 053f 6c9d 99be ed08 ca3e ba5f f53e
00000180: d272 3abf 8b3f 0e3e 3e5e ee3e 3cf4 093f
00000190: 1c3c c33e d267 cd3e 561d 2d3f 46ba b53e
000001a0: 5c26 043f ee26 1f3f 1b80 013f 980c 37bf
000001b0: 9154 2e3f bbb1 0e3f 8f52 033f a7ce f93e
000001c0: af94 103f 0658 063f 917b d03e ed10 40bd
000001d0: b0a5 dd3e d7d1 0e3f d4c2 3bbf 5063 3abf
000001e0: 1a1b 093f 2a1f 113f f2f0 433f f2ae e43e
000001f0: b2e2 c73e e8c1 09bf cf66 b83e 37d9 003f
00000200: 440e 3d3f a0c1 6dbe 6897 abbe 875d b5bd
00000210: 3c5f 873e 938e b0bd 43ff 31be 8eaa 14bc
00000220: 0519 b93d ebf0 70bc cd34 d73e 7139 393f
00000230: 0850 653e a81f 9ebe 09e4 853e 2034 713e
00000240: 4835 833e 5dba 9ebe b67c bf3e 74c2 8bbe
00000250: 439e 603b a6ad 5c3c 049a 9d3e 42e7 923d
00000260: 68da de3d c70b 39be 553c 9bbe 8aee b2be
00000270: 53cd 123e 4cea da3e 44df 703e 7ebd a7be
00000280: d3a4 033c bad3 e23e 9297 893e bbca 403e
00000290: 6879 c7be bcc3 7d3e b67b c1bd a1eb 7bbe
000002a0: e48c 293e 844c e2bb 832b 00bf 571c 8b3e
000002b0: 6497 313e db32 d33b 4170 03bf e167 aabe
000002c0: 9dbd 90be 30e2 fc3e 1910 d2be e136 473f
000002d0: 44cb 2c3e d69d 9b3d 30cc 433f cef8 203f
000002e0: f562 1fbe 7c93 af3e 9b36 9d3e 27a0 763e
000002f0: 0037 debd e80f 1f3e 9e21 c5be 88d9 d43e
00000300: 5ded 273f d153 90be 3b9e b1be bbc9 ba3b
00000310: 3765 a53e f064 9ebe 1fd3 85be 22c6 9b3e
00000320: 6f07 f7ba ae15 853e f3d6 833c 6e51 833f
00000330: 9241 543e efdf 94be 4af7 0d3e 8546 9d3e
00000340: 53aa 963e bc98 f1be 24ef 853e 8ead 0fbe
00000350: 8c19 24be dc55 11be 4dfc 3cbe 5da3 f5bd
00000360: 52f0 403b c973 d3bd 683c aabe 0241 84be
00000370: 70c2 5b3e fa0a 113f ba49 9a3e 2458 45be
00000380: 87d6 e9be 2baf 603e 8da0 e93e 1c72 fe3e
00000390: 1800 cb3e dc72 0d3f 721c db3e 42a2 ae3e
000003a0: 980b e43e f290 c23e 802d ec3e 2ddf 4cbf
000003b0: 2901 063f 4804 c43e 20a2 bf3e 5dc8 253f
000003c0: 639c 233f 4699 fa3e 4110 8c3e 21de cabd
000003d0: af50 0e3f cc76 1d3f 5977 7ebf f3ed dfbe
000003e0: 7f43 eb3e 73f6 d03e c124 4a3f f978 2c3f
000003f0: edf6 0b3f 8e4b dbbe d186 e43e 070f 113f
0.7058556 0.43438593 0.22881517 0.25207558 -0.13944869 0.215429 -0.019348757 -0.21773806
-0.14008512 0.32712948 -0.5377143 0.85649747 0.10692597 -0.15811965 -0.2040765 0.18637367
-0.46141818 0.59111685 -0.4291722 0.7811991 0.027600762 0.3158097 0.6465791 0.47713602
-0.37496275 0.19959927 -0.10260592 -0.060083542 -0.07373109 0.7573447 -0.3266248 0.54679763
0.748372 0.4919102 0.36514986 0.06172627 -0.17534125 -0.07476693 -0.2775007 -0.008000725
0.19354011 0.28972882 -0.6239712 0.7768839 0.16748077 -0.27188754 -0.36575702 0.36014017
-0.25135037 0.40773436 -0.157938 0.5589512 0.230685 0.3040557 0.5739096 0.47564098
-0.46804973 0.08353727 -0.16435815 -0.04910594 -0.18394509 0.8213652 -0.07814528 0.33411795
-0.40695637 0.010733226 0.6244641 0.59255165 0.5769559 0.5931474 0.44354963 0.49932194
0.5615922 0.4801788 0.29094246 -0.8088906 0.42987362 0.50323963 0.4724865 0.6193832
0.5963586 0.37630343 0.5220417 -0.15482688 0.5401265 0.65861225 -0.82232666 -0.54661447
0.508606 0.42138645 0.74817216 0.610906 0.5204784 -0.30002916 0.39459935 0.47924596
-0.7283145 0.13891427 0.46556276 0.538883 0.38131797 0.4011827 0.6762289 0.35493678
0.5162103 0.62168777 0.505861 -0.7150359 0.6809779 0.55739945 0.5129785 0.48790476
0.56476873 0.52478063 0.40719274 -0.04689114 0.43290472 0.5578894 -0.7334416 -0.7280779
0.5355698 0.5668818 0.7653953 0.44664723 0.39040142 -0.538115 0.36015937 0.50331444
0.7384989 -0.23218393 -0.3351395 -0.088557296 0.26439846 -0.08620944 -0.17382531 -0.0090738665
0.09037975 -0.014705877 0.4203247 0.72353274 0.22393811 -0.30883527 0.2615054 0.2355504
0.25626588 -0.3100156 0.37399834 -0.27296793 0.0034274019 0.013469135 0.30781567 0.07173015
0.108815014 -0.18070899 -0.30319467 -0.34947616 0.14336137 0.4275688 0.23522669 -0.3276176
0.008034903 0.4430216 0.2687345 0.18827336 -0.38959813 0.24781698 -0.09447424 -0.24601604
0.16557652 -0.006906094 -0.50066394 0.2717006 0.17342907 0.0064452714 -0.5134316 -0.33282378
-0.28269663 0.49391317 -0.41027907 0.77818114 0.16874415 0.07598464 0.7648344 0.62879646
-0.15565093 0.3429221 0.30705723 0.24084531 -0.10850334 0.15533412 -0.3850221 0.41572213
0.6559656 -0.28188947 -0.34691033 0.0057003177 0.32303783 -0.30936384 -0.26137635 0.304246
-0.001884682 0.25993103 0.016093707 1.0259225 0.20728138 -0.29077098 0.13863865 0.30717865
0.29426822 -0.4718684 0.26159012 -0.1403105 -0.1602537 -0.14192909 -0.1845562 -0.1199405
0.0029440117 -0.10324819 -0.3324921 -0.25830847 0.21460891 0.56657374 0.30134374 -0.19271904
-0.45671484 0.21941821 0.45630303 0.49696434 0.3964851 0.55253386 0.4279514 0.34108168
0.44540095 0.3800121 0.46128464 -0.8002804 0.5234552 0.38284516 0.3742838 0.64758855
0.639105 0.48945063 0.2735615 -0.09905649 0.55591863 0.61509395 -0.9940086 -0.43736228
0.45949933 0.40813026 0.7896233 0.6737209 0.54673654 -0.4283108 0.44634107 0.56663555

fc2.bias f4 [32]
00000000: ceb8 3abd da5f 6b3d 551c 0d3f b415 f13e
00000010: b0ee 8dbd adaa 00bd 8cbe 2ebd 264d 0a3f
00000020: e5e0 d93d 92ea 073f f363 bc3e 3aea ec3e
00000030: aa7c 07bd 5fb5 01bd a743 f33e a85d e03e
00000040: 582a eabd 4c5d 163f 1edb afbd 953a 0bbe
00000050: 8130 2c3f 73c0 be3d 4201 2c3e 2e32 f83e
00000060: fe04 16be 2360 f33e 8a01 33be 9840 20bd
00000070: 659a a23d 810d 6ebd 13ed d5bd 62f6 61be
-0.0455864 0.057464458 0.55121356 0.4708687 -0.06930292 -0.03141277 -0.04266219 0.5402397
0.10638598 0.530923 0.36795005 0.4627245 -0.033077873 -0.03166711 0.47512552 0.43821454
-0.11433858 0.5873611 -0.08586715 -0.13596566 0.6726151 0.093140505 0.16797355 0.48475784
-0.14650342 0.47534284 -0.17481056 -0.0391241 0.07939605 -0.058118347 -0.10445609 -0.22066644

dist.linear.weight f4 [2, 32]
00000000: b87f 473e a471 783e 02f1 2e3e 7334 0b3d
00000010: 5586 b0bd 774e 993e 4857 9b3d 43fa bcbd
00000020: 6cc6 cbbe 3a86 783d 791c 58bd 6829 87bd
00000030: 8767 063e 756e 15be 0b48 eabd fe05 f9bc
00000040: c0c1 563c ab7a 333d d971 8abe aa7e 01be
00000050: e014 1bbe 3363 1cbe 843e 0b3e ef20 253e
00000060: 9b84 52be a35d c73d 356a 73be c714 6dbd
00000070: 144d cc3e 4a01 61be 0fe0 993c 4f79 b5be
00000080: e837 89be 955c cabe eb5a a1bd 6d1b 82bc
00000090: 1c66 343e 23b6 f9bb 766c 3cbe f9cb 9abd
000000a0: 343f 6e3e d849 a53d e160 f1bc 4ae8 f13d
000000b0: d69d 033d 8f44 8f3c 6007 23bc 16bf bbbc
000000c0: 60ef e23b 72b4 ee3c 4bf0 c53d ae0a 2b3e
000000d0: e0dc 073e 6228 35bc a6f0 15be 6524 143c
000000e0: a370 12bc 1279 99bd 5752 c53e a1d3 5b3d
000000f0: 94b5 8bbe efb6 193e 2cb7 e9bd e860 e43d
0.19482315 0.242621 0.17084125 0.033985566 -0.08619372 0.29942676 0.07585007 -0.09227421
-0.3979982 0.060674883 -0.05276153 -0.065996945 0.1312543 -0.14592917 -0.11439522 -0.030398365
0.013107717 0.043818157 -0.27039984 -0.12645975 -0.15144682 -0.15272216 0.13598067 0.16125844
-0.20558397 0.09734657 -0.23770984 -0.057881143 0.39902556 -0.21973148 0.018783597 -0.35444114
-0.26800466 -0.3952376 -0.07878669 -0.015882218 0.17617077 -0.0076205893 -0.1840075 -0.07558436
0.23266298 0.08070725 -0.02946514 0.11811884 0.032132946 0.017488746 -0.009950489 -0.022918265
0.0069255084 0.029138777 0.09664973 0.16703293 0.13267851 -0.011056991 -0.14642581 0.00904188
-0.0089379875 -0.074937955 0.38539383 0.053668622 -0.2728697 0.1501119 -0.114118904 0.11151296

dist.linear.bias f4 [2]
00000000: ea3d 4a3d 7ab7 37be
0.049375452 -0.17941085

critic.weight f4 [1, 32]
00000000: e5bd 9bbf dec9 8cbf 336f 153f b2e3 293f
00000010: ae65 78bf 3e93 9abf bb69 5dbf bacb 343f
00000020: cec7 64bf bb9a 1b3f 2c98 233f 1747 133f
00000030: 4318 5fbf f6b9 8abd dcba 333f f203 2e3f
00000040: ae30 b9bd dda2 173f 6ec9 8dbf 73a7 dfbd
00000050: ebf6 0f3f 3fb4 24be 6f6c 62bf 999f 1c3f
00000060: aba1 62bf 2a13 2c3f 10a7 45bf 8d94 0ebe
00000070: 9565 a3bf 5b32 41bf 4a20 53bf 291d 94bf
-1.2167326 -1.0999105 0.583728 0.6636306 -0.9703015 -1.2076185 -0.86489457 0.7062336
-0.8936738 0.60782975 0.6390407 0.5753035 -0.87146395 -0.067737505 0.70207 0.6797477
-0.09042488 0.59232885 -1.1077096 -0.1092061 0.5623614 -0.16084383 -0.88446707 0.61181027
-0.88527936 0.6721674 -0.7720804 -0.13923855 -1.2765375 -0.7546746 -0.82471144 -1.1571399
