bipedalwalk/BipedalWalker-v2/lr_0.0002/coeff_entropy_0.0001/batch_size_64/horizon_2048/policy.pth (torch_old, 83793 bytes, 12 tensors)

logstd f4 [4]
-0.50438136 -0.59907883 -0.68785876 -0.5538473
00000000: 231f 01bf 3b5d 19bf 8317 30bf f0c8 0dbf

act_fc1.weight f4 [64, 24]
0.15379354 -1.6492198e-05 0.016470158 -0.17800868 -0.09775458 -0.06722104 0.053180814 -0.11662283
-0.16064145 -0.1632106 0.038572196 -0.10470023 -0.15486294 -0.2112855 -0.14666888 0.04993256
0.18724337 -0.04453371 0.20458448 -0.013703178 0.10906301 0.20158698 -0.09026817 0.16171342
-0.24975063 -0.15505587 0.19320208 -0.18157351 0.06946354 0.058175847 -0.1252075 -0.0963805
-0.053663976 0.09186934 -0.16286099 -0.06338989 0.07648475 0.055952787 -0.22262992 0.039213125
0.004029171 -0.21531336 0.003800217 -0.16936882 -0.06817168 -0.1623867 0.12513734 0.13879442
0.15872212 0.0062322365 -0.010356544 -0.28799868 -0.0019031874 -0.04611892 0.21329215 -0.035753682
0.15825063 0.2132102 -0.10001213 0.010938311 0.14569797 -0.22434328 0.14334409 -0.19682881
-0.024340684 -0.003604003 -0.10883994 -0.12095925 0.13351682 0.18344525 -0.10197372 0.07231203
0.015776645 -0.17634992 -0.19759798 0.03693935 -0.1298937 0.1566344 0.018549785 0.19123498
0.045824755 0.08989044 -0.15510663 -0.027242204 0.14463656 -0.026641311 -0.1576897 -0.10090101
0.16367245 -0.09529493 0.016476281 0.11321927 -0.15311487 0.046105143 0.16531475 -0.031050473
0.3284477 0.02946294 -0.22149985 -0.015998695 0.014111456 0.11021066 0.13047819 -0.023194559
0.12949203 0.29840195 -0.014086889 -0.08059059 0.02720469 -0.17328116 -0.0075143743 0.027634062
-0.09044686 -0.056986213 -0.08781653 -0.11512958 0.08226226 0.1346929 0.12542018 -0.021187237
0.15716569 0.21370019 -0.13372192 0.042421803 0.12441893 0.09314032 0.14103778 -0.039770287
0.15488358 0.2425142 0.22817884 0.15276036 0.1829594 -0.16158333 -0.030872537 0.048853435
0.038841084 -0.24134444 0.11827594 -0.09961965 0.13170096 -0.0038735915 -0.061069794 0.061292455
0.09032582 0.24770026 0.18193315 0.15594885 -0.059570625 -0.17979513 -0.17828576 -0.14856413
-0.078818195 -0.0009876048 0.15812966 0.11131127 -0.2798365 -0.14637817 -0.124596894 0.03627333
0.1403895 -0.090891466 0.15251325 -0.0965678 0.013349838 -0.03354525 0.06280908 -0.095259495
-0.07321197 -0.32229027 0.17353433 -0.10227581 0.017498462 -0.19223334 -0.23538212 -0.037455667
-0.17408296 -0.11105157 -0.10436211 -0.0699596 0.12021302 0.07847178 -0.034475975 -0.21067843
-0.122158416 -0.12328667 -0.05198244 0.16309252 -0.087110944 0.17901814 -0.17786546 0.078772366
0.15020393 0.35181725 -0.2815929 -0.0060306583 -0.10502913 -0.16351789 0.042906925 -0.048912402
0.17898211 0.1876325 0.020948948 0.09750437 0.18275885 -0.2553355 -0.04258382 0.16999735
-0.11805146 -0.17701574 -0.111489266 0.111202314 0.041892312 -0.030725945 0.15530545 0.16564368
-0.18252909 0.05096735 0.22889127 -0.13044913 -0.06835975 -0.070582785 -0.3400271 0.11648032
-0.15401343 -0.13221593 -0.039567582 0.058091052 -0.1494409 -0.040831164 -0.02246763 0.16931544
-0.14141074 -0.122422285 0.17037834 0.008312807 0.2217154 0.19113387 0.12905574 -0.18755826
-0.063955985 -0.118286185 -0.038346123 0.05750032 0.13095315 0.09017153 0.17276716 0.12552953
-0.12143087 0.022723056 0.15819828 0.10130868 0.14162366 0.08776791 -0.1258425 -0.026541648
00000000: 0e7c 1d3e ba58 8ab7 6dec 863c e847 36be
00000010: 8e33 c8bd 2fab 89bd 20d4 593d f3d7 eebd
00000020: 317f 24be ae20 27be e1fd 1d3d 136d d6bd
00000030: 6494 1ebe 3a5b 58be 5e30 16be 1686 4c3d
00000040: babc 3f3e fb68 36bd 987e 513e 4b83 60bc
00000050: 6d5c df3d d16c 4e3e 85de b8bd 3498 253e
00000060: a1be 7fbe f7c6 1ebe c4d6 453e 68ee 39be
00000070: e742 8e3d cc49 6e3d 6536 00be 2463 c5bd
00000080: c2ce 5bbd fe25 bc3d 08c5 26be 8fd2 81bd
00000090: 09a4 9c3d c02e 653d 19f9 63be f19d 203d
000000a0: 2307 843b 1b7b 5cbe 100d 793b 056f 2dbe
000000b0: 989d 8bbd b348 26be 0124 003e 2020 0e3e
000000c0: 0d88 223e ca37 cc3b 7eae 29bc 9074 93be
000000d0: 5f74 f9ba 31e7 3cbd 4269 5a3e 7472 12bd
000000e0: 740c 223e c653 5a3e 29d3 ccbd 9a36 333c
000000f0: d931 153e 3fba 65be cbc8 123e 7e8d 49be
00000100: 1d66 c7bc 2331 6cbb 79e7 debd 7cb9 f7bd
00000110: a2b8 083e 12d9 3b3e 99d7 d0bd 5418 943d
00000120: 063e 813c 1395 34be 2057 4abe b74d 173d
00000130: db02 05be c564 203e b8f5 973c 1ad3 433e
00000140: bdb2 3b3d 7b18 b83d 46d4 1ebe 0b2b dfbc
00000150: 9b1b 143e e13e dabc 6979 21be 30a5 cebd
00000160: c099 273e fd29 c3bd 44f9 863c 81df e73d
00000170: 25ca 1cbe bfd8 3c3d 4548 293e 905d febc
00000180: 4c2a a83e 435c f13c dbd0 62be b20f 83bc
00000190: bd33 673c 20b6 e13d 139c 053e 8402 bebc
000001a0: 8f99 043e 24c8 983e b2cc 66bc ae0c a5bd
000001b0: 5fdc de3c 9e70 31be 243b f6bb d460 e23c
000001c0: 343c b9bd 606a 69bd 27d9 b3bd 0fc9 ebbd
000001d0: 1e79 a83d f0ec 093e 266e 003e db90 adbc
000001e0: 0bf0 203e 39d4 5a3e 66ee 08be 7cc2 2d3d
000001f0: 5acf fe3d 5ac0 be3d 356c 103e 2be6 22bd
00000200: cd99 1e3e a455 783e b7a7 693e 366d 1c3e
00000210: b559 3b3e 1a76 25be 67e8 fcbc 8a1a 483d
00000220: d417 1f3d ff22 77be a83a f23d 6305 ccbd
00000230: 9edc 063e 15dc 7dbb 5224 7abd cc0d 7b3d
00000240: befc b83d 23a5 7d3e af4c 3a3e 0eb1 1f3e
00000250: 5400 74bd 371c 38be 8b90 36be 3221 18be
00000260: 6f6b a1bd 8572 81ba beec 213e 2af7 e33d
00000270: bb46 8fbe 29e4 15be a82c ffbd 5893 143d
00000280: 44c2 0f3e 4e25 babd 6f2c 1c3e 57c5 c5bd
00000290: 47b9 5a3c be66 09bd 0ca2 803d 6917 c3bd
000002a0: 28f0 95bd 3b03 a5be fcb2 313e fb75 d1bd
000002b0: ef58 8f3c d1d8 44be 0308 71be 1d6b 19bd
000002c0: ce42 32be 016f e3bd cdbb d5bd fb46 8fbd
000002d0: 3e32 f63d d0b5 a03d ae36 0dbd 16bc 57be
000002e0: 312e fabd b97d fcbd 8aeb 54bd ba01 273e
000002f0: 3967 b2bd 8850 373e 5d22 36be 6853 a13d
00000300: 0fcf 193e 6421 b43e f22c 90be d49c c5bb
00000310: 8319 d7bd 3c71 27be 2cbf 2f3d 5f58 48bd
00000320: 1647 373e bc22 403e 219d ab3c 5fb0 c73d
00000330: 2325 3b3e 56bb 82be 5f6c 2ebd c913 2e3e
00000340: f7c4 f1bd 9d43 35be 7c54 e4bd 0abe e33d
00000350: 4697 2b3d fab4 fbbc 6408 1f3e 7f9e 293e
00000360: e8e8 3abe 24c3 503d 7962 6a3e 7594 05be
00000370: 3200 8cbd b58d 90bd 0818 aebe 3c8d ee3d
00000380: b2b5 1dbe 9d63 07be 9e11 22bd e2f0 6d3d
00000390: 0907 19be 943e 27bd 090e b8bc 0761 2d3e
000003a0: facd 10be 89b8 fabd a977 2e3e 7132 083c
000003b0: 5d09 633e 99b8 433e 3027 043e 460f 40be
000003c0: 5bfb 82bd 0740 f2bd d310 1dbd 7585 6b3d
000003d0: 9518 063e daab b83d e0e9 303e d08a 003e
000003e0: bfb0 f8bd b425 ba3c bbfe 213e ed7a cf3d
000003f0: cb05 113e a9bf b33d dbdc 00be df6d d9bc

act_fc1.bias f4 [64]
0.029217869 0.18319163 -0.06174981 0.03867797 -0.041283786 0.0015476133 0.11799032 0.20472805
0.06676437 0.004838822 -0.12742436 -0.17109868 -0.09235327 0.082938544 -0.11692595 -0.053812586
0.05550476 0.12445011 0.16007839 0.15743865 0.0576378 0.14270814 0.07512721 -0.057571255
-0.053524926 0.18446344 -0.047308203 0.0452277 0.0143262 -0.04806941 -0.17165047 -0.17415126
-0.00017357545 0.04862076 -0.033428155 -0.043395095 -0.025923686 0.072448954 0.016861085 -0.1728119
0.02330836 0.0679685 -0.17350794 -0.004588668 -0.0031142784 -0.15137582 -0.11468115 0.07292106
0.07996414 0.09046528 0.03482488 -0.041176688 -0.06039586 -0.07266444 0.06534236 -0.034998897
0.08101919 -0.113400444 -0.10226392 -0.05857256 -0.094133936 0.08671169 -0.0030393153 -0.22134197
00000000: 505a ef3c 9696 3b3e 5eed 7cbd cb6c 1e3d
00000010: 3019 29bd 49d9 ca3a e9a4 f13d 3ba4 513e
00000020: c2bb 883d fb8e 9e3b 887b 02be 7e34 2fbe
00000030: b623 bdbd afdb a93d df76 efbd 966a 5cbd
00000040: f658 633d b3df fe3d 97eb 233e 9937 213e
00000050: 9d15 6c3d 1522 123e 4bdc 993d d6cf 6bbd
00000060: f43c 5bbd fce3 3c3e 3fc6 41bd ae40 393d
00000070: 70b8 6a3c 6ee4 44bd 24c5 2fbe b554 32be
00000080: ce01 36b9 9026 473d f6eb 08bd 0ebf 31bd
00000090: e95d d4bc 1e60 943d 4220 8a3c 9af5 30be
000000a0: 2cf1 be3c 1233 8b3d 11ac 31be 895c 96bb
000000b0: ec18 4cbb 4302 1bbe f3dd eabd a357 953d
000000c0: 3dc4 a33d dc45 b93d 89a4 0e3d e3a8 28bd
000000d0: a661 77bd 18d1 94bd 37d2 853d 015b 0fbd
000000e0: 64ed a53d 7e3e e8bd bf6f d1bd c8e9 6fbd
000000f0: 4bc9 c0bd e695 b13d 402f 47bb 78a7 62be

act_fc2.weight f4 [128, 64]
0.03189298 0.10133318 0.10330743 -0.04385374 -0.040214047 0.14000301 0.062213186 -0.07390256
0.0014263326 -0.18934365 0.08470665 -0.16459127 0.089200474 -0.02149585 -0.19246311 0.09118037
0.11892695 0.103900954 0.004025317 -0.054601654 0.09629849 0.15151054 -0.013925482 0.10299532
-0.038789626 -0.07908329 -0.0074810255 -0.073860295 -0.06921803 -0.052803177 -0.099113494 -0.04248254
0.081586614 -0.0060429038 0.08739079 0.034580193 -0.058034144 -0.020878918 0.012955279 -0.15887499
0.01439443 -0.14198579 0.0026989197 0.13253276 -0.03276244 -0.11788214 -0.058410015 0.041519802
-0.043861385 -0.087761424 -0.03859083 -0.020885427 -0.043521434 0.13050337 -0.062900506 -0.07224639
0.14770056 0.062009662 0.05876523 0.05968589 -0.08671736 -0.057897177 -0.056437977 -0.040572725
-0.10337577 0.09888578 -0.01481956 0.036832307 -0.09439671 -0.096756995 -0.0091070365 0.21336757
-0.11865592 -0.09351086 -0.051340126 0.065420136 0.14161474 -0.16867141 0.019643223 -0.091202326
-0.044609033 0.0050694374 0.1408742 0.2415093 0.08101802 0.10778046 0.06483475 -0.038658526
0.10242726 0.18703347 0.16555002 0.022421477 -0.15726222 0.054030627 0.06619698 -0.15150198
-0.04486168 -0.19480798 0.018499201 -0.11755254 0.039377134 -0.083700754 0.1408405 0.2244055
-0.0017215012 0.022076136 -0.15552987 0.109549716 0.0007103579 0.0776028 -0.04575005 -0.081967436
-0.0029263266 0.05029844 0.08298196 0.07080121 -0.022542277 -0.024505155 0.056144603 -0.077702686
0.18046875 -0.13516262 0.02961218 -0.04639085 0.12212275 -0.055227123 -0.14396407 0.008689396
0.06831471 -0.09020161 -0.027234318 0.12518944 -0.042967122 0.0961406 -0.05263608 0.02394097
0.07874153 -0.018968465 0.06423049 -0.10902604 -0.08271367 -0.041104198 0.071126185 0.020901037
-0.027659763 0.06332135 0.0005835341 0.047093276 -0.069974974 -0.020576296 -0.0060574105 0.07643755
0.055199794 0.061318822 -0.10060805 -0.013408837 -0.045236725 -0.06537549 0.03701239 0.111058876
-0.063220195 -0.06004447 0.09445546 -0.067648165 -0.048061665 0.014230676 -0.07088977 0.008374496
-0.054465774 0.058125686 -0.028860614 -0.044278614 -0.012259842 -0.055206344 0.087618634 0.031785395
0.0860181 0.13230604 0.102941446 -0.12597126 -0.07509192 0.0064461837 0.13340078 -0.15479372
-0.09138332 0.011267267 -0.034716453 -0.09488108 -0.13164704 -0.17074932 0.100255005 -0.02732816
-0.094025835 0.07986158 0.12240023 -0.050250452 0.098733455 0.011097493 0.03760567 -0.13721985
0.074454136 0.011855749 -0.0071175834 0.029787933 -0.053906716 -0.06626678 -0.05383433 0.020140892
-0.117469504 -0.035009757 0.15612552 0.06483189 0.047219414 0.11921522 0.21277907 -0.09533149
-0.09487526 0.008382899 -0.093863204 0.073811226 0.062867925 -0.09638862 0.18229079 0.13473935
0.0055844863 0.087620735 0.12121829 0.14277524 0.051285934 0.0070537603 0.055383574 0.033328015
0.11531147 -0.16559583 0.06469865 0.037885085 0.016028102 0.06322308 0.052010376 0.018285476
-0.09447794 -0.13189815 -0.1464267 -0.009355275 -0.06840986 -0.18235332 0.2582181 0.034886017
-0.0128768515 -0.035336804 0.0052996967 -0.11150221 -0.032238238 0.010116829 0.025814919 0.15665843
00000000: 37a2 023d c587 cf3d d992 d33d fb9f 33bd
00000010: 7cb7 24bd f35c 0f3e 41d3 7e3d 3a5a 97bd
00000020: c8f3 ba3a 4de3 41be ae7a ad3d 9d8a 28be
00000030: bdae b63d 1118 b0bc 0d15 45be c6bc ba3d
00000040: f98f f33d 06ca d43d cee6 833b fca5 5fbd
00000050: 2538 c53d 9425 1b3e b427 64bc 36ef d23d
00000060: dfe1 1ebd 6cf6 a1bd 6423 f5bb 1144 97bd
00000070: 2fc2 8dbd 2548 58bd 04fc cabd 2c02 2ebd
00000080: e216 a73d 8d03 c6bb f1f9 b23d f6a3 0d3d
00000090: 36b5 6dbd 440a abbc 6142 543c 20b0 22be
000000a0: 9ed6 6b3c b964 11be 5ce0 303b abb6 073e
000000b0: e931 06bd 316c f1bd 573f 6fbd ab10 2a3d
000000c0: ffa7 33bd 43bc b3bd 6b11 1ebd ea17 abbc
000000d0: 8843 32bd ada2 053e fbd1 80bd eaf5 93bd
000000e0: d13e 173e d8fd 7d3d cfb3 703d 3179 743d
000000f0: df98 b1bd 9725 6dbd 822b 67bd 962f 26bd
00000100: adb6 d3bd a184 ca3d bdcd 72bc 79dd 163d
00000110: 1053 c1bd 8828 c6bd ae35 15bc 077d 5a3e
00000120: e001 f3bd 9f82 bfbd 064a 52bd fefa 853d
00000130: 7403 113e 33b8 2cbe d3ea a03c 49c8 babd
00000140: f6b7 36bd 861d a63b 5441 103e 374e 773e
00000150: c7ec a53d 00bc dc3d 15c8 843d 6758 1ebd
00000160: 62c5 d13d b485 3f3e f285 293e 3fad b73c
00000170: 5909 21be 384f 5d3d 4892 873d 5623 1bbe
00000180: e2c0 37bd be7b 47be a38b 973c 63bf f0bd
00000190: eb49 213d 4d6b abbd 7e38 103e 8eca 653e
000001a0: ffa3 e1ba 03d9 b43c 3943 1fbe 9a5b e03d
000001b0: 5037 3a3a 38ee 9e3d 6864 3bbd 8bde a7bd
000001c0: 9dc7 3fbb bd05 4e3d 72f2 a93d 3a00 913d
000001d0: 95aa b8bc 09bf c8bc e2f7 653d 9622 9fbd
000001e0: cdcc 383e 1268 0abe 3e95 f23c 5504 3ebd
000001f0: 7e1b fa3d d635 62bd 516b 13be f85d 0e3c
00000200: 95e8 8b3d 9fbb b8bd 811a dfbc a931 003e
00000210: 4bfe 2fbd 5de5 c43d ee98 57bd da1f c43c
00000220: 3d43 a13d c163 9bbc 468b 833d 0b49 dfbd
00000230: c965 a9bd e05c 28bd 9baa 913d a738 ab3c
00000240: ba96 e2bc a0ae 813d 50f8 183a e1e4 403d
00000250: 0a4f 8fbd 9f8f a8bc 3e7d c6bb 4a8b 9c3d
00000260: 2e19 623d 7229 7b3d 980b cebd bdb0 5bbc
00000270: 254a 39bd 96e3 85bd 4e9a 173d d672 e33d
00000280: 9779 81bd 31f1 75bd dd71 c13d 1f8b 8abd
00000290: 4fdc 44bd c827 693c a82e 91bd 2f35 093c
000002a0: 8117 5fbd 3315 6e3d 186d ecbc 7e5d 35bd
000002b0: 81dd 48bc 0c20 62bd 6671 b33d 6731 023d
000002c0: 422a b03d 3c7b 073e f7d2 d23d 9cfe 00be
000002d0: cbc9 99bd 823a d33b 379a 083e 3f82 1ebe
000002e0: 2e27 bbbd 589a 383c d732 0ebd 0351 c2bd
000002f0: 7bce 06be e9d8 2ebe 7f52 cd3d 4edf dfbc
00000300: 9e90 c0bd 788e a33d f9ac fa3d 6bd3 4dbd
00000310: c434 ca3d 42d2 353c 6708 1a3d 5c83 0cbe
00000320: 697b 983d 9e3e 423c 9e3a e9bb d305 f43c
00000330: 4acd 5cbd e1b6 87bd 6381 5cbd 83fe a43c
00000340: da93 f0bd 6466 0fbd 5edf 1f3e 95c6 843d
00000350: 2569 413d 1c27 f43d c2e2 593e 283d c3bd
00000360: f64d c2bd 6d58 093c 5a3b c0bd 572a 973d
00000370: e6c0 803d 6667 c5bd 70aa 3a3e 1df9 093e
00000380: 11fe b63b 8072 b33d 4b41 f83d ac33 123e
00000390: 3311 523d 3b23 e73b e3d9 623d f582 083d
000003a0: 6c28 ec3d f491 29be ba80 843d 642d 1b3d
000003b0: 5e4d 833c 1a7b 813d d508 553d 6ccb 953c
000003c0: a67d c1bd 4f10 07be e1f0 15be de46 19bc
000003d0: 781a 8cbd d4ba 3abe 2a35 843e a4e4 0e3d
000003e0: 6ef9 52bc 53bd 10bd 14a9 ad3b 455b e4bd
000003f0: 3e0c 04bd 0ec1 253c cf79 d33c 116b 203e

act_fc2.bias f4 [128]
-0.06862554 0.057278775 -0.105052866 -0.053086676 0.016763924 0.030029008 -0.037200302 -0.038339615
-0.13132009 -0.01664892 0.022293711 -0.0034962972 -0.10344139 -0.1399376 -0.031100117 0.07207176
0.06267313 0.1245895 -0.13025524 0.029436836 0.06418978 0.04779393 0.036358494 -0.07779279
0.12438884 -0.07433979 0.056340285 0.15633804 0.02025121 -0.11192262 0.07521573 -0.060298234
-0.054040674 -0.03907149 0.039431836 -0.042615905 -0.07202079 0.04251374 0.133661 -0.007125934
-0.01691117 0.007919657 -0.084126405 -0.08126843 -0.062612295 -0.052588172 -0.043218244 -0.07849399
-0.1148211 0.020613475 -0.0506314 0.16145572 -0.113298066 -0.09992765 0.06385009 -0.1626004
-0.18822253 -0.0030806926 0.043157723 -0.014890594 -0.09192443 -0.040194593 -0.035608955 -0.04819683
-0.12083072 0.015344366 -0.031514406 -0.06025625 -0.15429987 0.08414777 -0.14900531 0.047027837
-0.022420973 0.08837402 0.101854004 0.1311633 0.052713197 0.06339228 -0.10361784 0.04266697
-0.10150917 0.118514754 0.059442595 0.0011189806 0.096625745 0.026653025 0.041294247 0.016090581
0.112303704 0.09834614 0.039564412 -0.08977776 -0.0071851225 0.03982337 -0.0385503 0.16655196
-0.0884898 0.035100743 -0.051904105 0.007993461 -0.026923733 -0.06991797 -0.026321175 0.15688382
-0.03054295 0.004819983 0.03699304 -0.09682918 -0.08214304 -0.09744954 0.020759465 0.008981481
0.14299704 -0.088368274 0.1259085 -0.034102883 -0.084924966 -0.02957954 -0.021225253 0.0111809075
-0.03382669 -0.03953283 -0.103839986 0.08078814 -0.01064458 0.07385829 -0.07448129 0.016531203
00000000: 8c8b 8cbd 269d 6a3d f525 d7bd 6a71 59bd
00000010: 7f54 893c 65ff f53c 585f 18bd 000a 1dbd
00000020: c678 06be 5163 88bc 4da1 b63c 2222 65bb
00000030: 14d9 d3bd cd4b 0fbe acc5 febc 5c9a 933d
00000040: c55a 803d c828 ff3d a161 05be 8525 f13c
00000050: ee75 833d 91c3 433d a5ec 143d d451 9fbd
00000060: 93bf fe3d 763f 98bd 12c5 663d 1417 203e
00000070: dee5 a53c b037 e5bd b40a 9a3d 48fb 76bd
00000080: c159 5dbd 6d09 20bd 4783 213d 048e 2ebd
00000090: a37f 93bd e322 2e3d 6ede 083e ab80 e9bb
000000a0: 4b89 8abc 73c1 013c 774a acbd 1070 a6bd
000000b0: e03a 80bd b266 57bd 9d05 31bd 75c1 a0bd
000000c0: 5327 ebbd 97dd a83c df62 4fbd a654 253e
000000d0: d108 e8bd dea6 ccbd d6c3 823d b880 26be
000000e0: 68bd 40be 72e5 49bb 27c6 303d aef7 73bc
000000f0: e042 bcbd 16a3 24bd b2da 11bd 0a6a 45bd
00000100: 1976 f7bd f066 7b3c 4015 01bd 42cf 76bd
00000110: c900 1ebe ab55 ac3d d994 18be 43a0 403d
00000120: 30ac b7bc 70fd b43d d598 d03d ac4f 063e
00000130: cbe9 573d d0d3 813d 9735 d4bd 90c3 2e3d
00000140: 0ae4 cfbd ddb7 f23d 147a 733d c2aa 923a
00000150: b8e3 c53d 7257 da3c 2824 293d 65d0 833c
00000160: 7cff e53d b369 c93d 4b0e 223d 67dd b7bd
00000170: 2d71 ebbb d41d 233d ebe6 1dbd 998c 2a3e
00000180: 243a b5bd ccc5 0f3d 6699 54bd 01f7 023c
00000190: 298f dcbc 2731 8fbd 819f d7bc 27a6 203e
000001a0: 3535 fabc f3f0 9d3b 0486 173d 614e c6bd
000001b0: 9c3a a8bd a093 c7bd c10f aa3c 1027 133c
000001c0: d16d 123e 6dfa b4bd 28ee 003e 77af 0bbd
000001d0: 24ed adbd cb50 f2bc 95e0 adbc 2030 373c
000001e0: db8d 0abd 2ded 21bd 0faa d4bd 4174 a53d
000001f0: 9b66 2ebc 0443 973d a689 98bd 726c 873c

mu.weight f4 [4, 128]
-0.045833625 -0.058892865 0.011300834 -0.04134082 -0.024185505 -0.05131969 -0.006296476 -0.0034088292
0.0009803659 -0.046002947 0.025276978 -0.028408673 -0.04488518 -0.02802825 -0.08757224 0.015541733
0.013731224 0.07629378 -0.04886385 -0.00720723 0.045626048 -0.05694799 0.023636855 -0.0013533395
-0.020850105 0.043402266 0.02337979 0.035199963 -0.010686907 0.015022039 0.02758651 -0.08108249
-0.007025676 -0.013861236 -0.0049898652 0.04257834 -0.010060933 0.0054367683 0.0647135 0.042850073
0.038682144 -0.02535804 -0.048712242 0.031758122 0.022032348 -0.024399625 -0.039116353 -0.037166152
-0.014171103 0.02767882 -0.024636397 0.030352093 -0.07789615 0.0012906495 0.06515746 -0.036918767
-0.043719016 -0.017901355 0.009747165 -0.019891268 0.04085889 -0.03343728 -0.035939455 0.0057451357
-0.076774314 0.029467983 -0.004659419 -0.020086195 -0.057529747 0.0032652323 -0.048189867 0.04306414
-0.025900057 0.07643044 0.015442815 0.02893021 -0.036883816 -0.0410913 -0.03244177 0.038303554
0.0066940775 0.0047657634 -0.03287666 0.023597203 0.042442888 0.0419706 -0.0010843267 -0.0076593063
-0.015431994 0.024188975 -0.031150512 -0.05390567 0.0015836268 -0.014800444 -0.061905168 0.06690368
-0.048083033 -0.013641013 -0.045599688 0.04775015 -0.06929687 -0.0146053415 -0.024086297 0.038847584
-0.04581485 0.035622552 -0.013631314 0.0033226402 -0.020462336 -0.028705375 0.015423717 0.042390104
0.055106938 -0.019282263 0.054576658 -0.035723735 -0.026259365 -0.081386134 -0.029606458 0.0017332177
0.018123614 0.050573222 -0.0021328488 0.024051918 0.01919966 0.07117971 -0.027179537 0.040118106
-0.027089935 0.046637215 -0.0037039982 -0.08542172 -0.067186624 -0.07421558 -0.055159587 0.008421232
0.042457473 -0.09412505 0.00048415666 0.020333618 -0.11158254 -0.079516575 0.00400322 -0.046774507
-0.012522034 0.013837643 -0.09041676 0.048490103 -0.022945186 -0.08584314 -0.046158314 0.015831364
-0.025454486 -0.017232519 -0.023184113 0.0040532798 0.041106936 0.053034667 0.0022767712 -0.051495444
0.022121102 0.017961672 -0.0012714063 0.091348626 -0.018443298 0.0015563954 -0.051946934 -0.04663048
0.08522209 -0.022585772 0.033703685 0.040117368 -0.008519203 0.07365027 -0.06948117 0.088712715
0.022415543 0.025997188 -0.113682956 0.009322547 -0.025550513 0.033805154 0.0762445 -0.0353457
-0.038176727 -0.029923484 0.04276834 -0.08600946 -0.08700987 -0.015790844 -0.041347142 -0.097919874
-0.012364315 0.062260643 -0.02396937 -0.0491534 -0.005310168 0.079892084 -0.015461912 -0.026578182
-0.040808503 0.09298826 0.026261637 0.024111072 -0.074074335 -0.0076527726 -0.08284046 0.02177624
-0.09282928 -0.006148099 -0.0673195 0.059305802 -0.008272491 -0.06349096 -0.035923794 -0.041157346
-0.053747367 0.047294542 0.053885452 -0.0045201825 0.0052979933 -0.012313489 0.06643144 0.030754661
-0.050921816 0.083465405 -0.075735606 -0.027259495 -0.094140604 0.006683344 -0.06004535 0.11743132
-0.011580799 -0.029664326 0.075022206 -0.14685234 0.11398131 -0.04247498 0.09904248 0.08503059
0.041324127 0.095898524 0.11746991 -0.034893505 0.11183307 -0.10702209 -0.08887184 0.033866618
-0.0664664 0.06842609 0.003422085 0.041778408 0.054020338 0.10655842 -0.046627037 0.007484112
00000000: 0abc 3bbd a539 71bd 2227 393c fe54 29bd
00000010: ae20 c6bc 9834 52bd ab52 cebb aa66 5fbb
00000020: 9f7f 803a 966d 3cbd aa11 cf3c 4eb9 e8bc
00000030: 86d9 37bd 809b e5bc 1359 b3bd c1a2 7e3c
00000040: eef8 603c ea3f 9c3d 7625 48bd a12a ecbb
00000050: 61e2 3a3d 4c42 69bd 14a2 c13c 8a62 b1ba
00000060: d7cd aabc 93c6 313d f986 bf3c d62d 103d
00000070: 2318 2fbc 001f 763c 1bfd e13c 940e a6bd
00000080: a437 e6bb 3d1a 63bc 0682 a3bb a066 2e3d
00000090: 9dd6 24bc eb26 b23b 8388 843d 8f83 2f3d
000000a0: 2b71 1e3d aabb cfbc 7d86 47bd ce14 023d
000000b0: 2f7d b43c b9e1 c7bc 7838 20bd 893b 18bd
000000c0: ea2d 68bc b1be e23c 45d2 c9bc f4a4 f83c
000000d0: 0488 9fbd 032b a93a 4671 853d 2238 17bd
000000e0: b612 33bd dda5 92bc 93b2 1f3c 03f3 a2bc
000000f0: a75b 273d 88f5 08bd 4035 13bd b141 bc3b
00000100: da3b 9dbd d766 f13c 0aae 98bb ce8b a4bc
00000110: 50a4 6bbd 82fd 553b bd62 45bd 0664 303d
00000120: 5b2c d4bc 9087 9c3d dc03 7d3c 0cff ec3c
00000130: 7c13 17bd 5a4f 28bd a9e1 04bd 30e4 1c3d
00000140: fe59 db3b 1f2a 9c3b ada9 06bd ec4e c13c
00000150: 98d8 2d3d 5de9 2b3d f71f 8eba ebfa fabb
00000160: 79d6 7cbc f527 c63c 5c2f ffbc 31cc 5cbd
00000170: b391 cf3a 907d 72bc 4690 7dbd cc04 893d
00000180: b7f2 44bd 8e7e 5fbc bdc6 3abd a995 433d
00000190: 84eb 8dbd 3e4b 6fbc a050 c5bc a51e 1f3d
000001a0: 5aa8 3bbd f4e8 113d e055 5fbc a7c0 593b
000001b0: a1a0 a7bc 8927 ebbc c2b3 7c3c 3fa1 2d3d
000001c0: d0b7 613d d6f5 9dbc c68b 5f3d 0d53 12bd
000001d0: e11d d7bc c6ad a6bd 3e89 f2bc 232d e33a
000001e0: f977 943c de25 4f3d 44c7 0bbb 8708 c53c
000001f0: 9b48 9d3c abc6 913d 9fa7 debc e252 243d
00000200: b6eb ddbc aa06 3f3d c7be 72bb 95f1 aebd
00000210: 2499 89bd 57fe 97bd 05ef 61bd 35f9 093c
00000220: e3e7 2d3d a2c4 c0bd 68d6 fd39 b092 a63c
00000230: 6385 e4bd 96d9 a2bd 712d 833b a096 3fbd
00000240: 3829 4dbc 48b7 623c 6c2c b9bd 8f9d 463d
00000250: 8bf7 bbbc 87ce afbd 8010 3dbd c7b0 813c
00000260: ed85 d0bc 362b 8dbc 9cec bdbc 60d1 843b
00000270: bf5f 283d e13a 593d e235 153b e3ec 52bd
00000280: 5037 b53c 5b24 933c 51a5 a6ba fd14 bb3d
00000290: 6616 97bc f7ff cb3a 4fc6 54bd 9aff 3ebd
000002a0: eb88 ae3d cc05 b9bc e00c 0a3d 1c52 243d
000002b0: 2194 0bbc f4d5 963d 254c 8ebd 03af b53d
000002c0: cda0 b73c 0ef8 d43c 9cd2 e8bd 99bd 183c
000002d0: 4f4f d1bc 4677 0a3d 1426 9c3d a7c6 10bd
000002e0: 335f 1cbd 1822 f5bc db2d 2f3d ba25 b0bd
000002f0: 3b32 b2bd cd5b 81bc 9f5b 29bd 378a c8bd
00000300: b293 4abc 0405 7f3d 6a5b c4bc 1355 49bd
00000310: eb00 aebb 769e a33d f653 7dbc 7dba d9bc
00000320: d126 27bd a170 be3d a522 d73c 9584 c53c
00000330: 49b4 97bd 1cc4 fabb 42a8 a9bd 1664 b23c
00000340: 471d bebd fe75 c9bb cede 89bd a4ea 723d
00000350: 5889 07bc 8c07 82bd d424 13bd 9b94 28bd
00000360: 3326 5cbd ecb7 413d feb6 5c3d 0a1e 94bb
00000370: ca9a ad3b 84be 49bc 350d 883d 33f1 fb3c
00000380: 6593 50bd e9ef aa3d 451b 9bbd 4e4f dfbc
00000390: cacc c0bd f4ff da3b 1df2 75bd d57f f03d
000003a0: 64bd 3dbc 9a02 f3bc 3ea5 993d 7660 16be
000003b0: 086f e93d 3ffa 2dbd c9d6 ca3d 8524 ae3d
000003c0: 7d43 293d 7266 c43d 1094 f03d 7eec 0ebd
000003d0: bd08 e53d 662e dbbd 7002 b6bd b9b7 0a3d
000003e0: 891f 88bd fa22 8c3d 0f45 603b d61f 2b3d
000003f0: 6e44 5d3d 4d3b da3d fefb 3ebd 483d f53b

mu.bias f4 [4]
0.16216305 -0.017967336 0.023614729 0.02825669
00000000: 120e 263e 3c30 93bc ad73 c13c 937a e73c

value_fc1.weight f4 [64, 24]
-0.083747566 0.3049259 0.049806733 0.2805252 -0.017949497 0.16829613 0.5410779 0.092884034
0.16355507 -0.13521667 0.12884954 -0.004571107 -0.0018814929 0.2762297 -0.35552472 -0.23176536
-0.28518018 -0.3003731 0.0037093381 -0.11426085 0.07136788 0.096293844 0.13038799 -0.256792
-0.111909285 0.14480634 -0.86423284 0.88284767 -0.119801134 -0.27069402 0.16636951 0.040234163
0.3126359 0.15803573 0.20567806 0.07791823 -0.055004884 -0.1832982 0.10743348 0.08112192
0.08661036 -0.038059037 0.20781976 0.22143933 -0.09255941 -0.09921496 -0.039546 -0.1497866
-0.123880565 -0.5906394 -0.5109883 -0.07418528 0.2879978 -0.14563495 0.18497676 -0.1235564
0.049994014 -0.20673531 -0.1760397 -0.061964594 0.01250683 0.091997 0.07224252 0.26721466
0.09345589 -0.0013637957 0.20626086 0.10268902 -0.17626777 0.040167034 -0.10643623 -0.13109435
-0.88668513 -0.516824 0.8928561 -0.8797587 0.09918294 0.034871276 -0.15800023 -0.039775506
0.19293615 0.053014234 -0.08585966 -0.15780388 -0.06672681 -0.077981435 -0.11237825 0.20432673
-0.078306496 0.19278595 -0.12781711 -0.06344329 0.26940674 0.15648407 0.1097347 0.04459634
-0.32358915 -0.37689412 -0.9864398 0.29646575 -0.09603264 0.012881101 0.10741106 -0.19480814
-0.1528004 0.118023 -0.09953872 -0.20303155 -0.14989834 0.040063698 0.22606015 0.33942682
-0.019718053 0.11725875 0.29831976 -0.080311954 0.22698802 0.17856699 -0.207802 -0.23971683
0.25075328 0.13713081 0.8974 -0.4227177 -0.26035738 0.19780119 -0.04814614 0.15564875
-0.2039175 0.23441827 -0.2213479 0.0004307026 0.0026689786 0.11141576 -0.100201726 -0.3237514
-0.03682175 0.013740226 -0.19948508 -0.1325711 -0.08286937 -0.11218783 -0.021277174 0.10505157
-0.031735826 0.5246629 0.15777093 0.3518803 -0.2601423 -0.1223124 0.30941775 -0.15286322
-0.11147552 0.004226547 0.1872592 -0.15439412 0.04042571 0.020566875 -0.2513344 -0.012396335
0.037366603 0.084347844 -0.15836713 -0.11241955 0.07767975 -0.035010833 0.14136185 -0.14562841
-1.1576201 -1.4524238 0.84111035 -0.24412681 -0.3217969 -0.23335487 -0.7910412 -0.022190655
0.08729693 0.027380625 0.1532845 0.029638866 0.093294345 -0.25957498 0.18787506 0.1684695
0.041266378 -0.0945217 -0.05140478 -0.102534465 -0.015279707 -0.26143354 -0.1043048 -0.07603769
1.3604234 0.94059455 -1.4794997 0.5245108 -0.2158574 -0.023885204 0.46377602 0.027177475
-0.344925 0.44121745 -0.018002747 0.12987852 -0.030490337 0.056169502 -0.18186168 -0.27003527
0.04396146 -0.2824807 0.038768403 -0.20494497 0.03439798 -0.16545022 -0.08364859 -0.17494781
-0.07484238 0.5229191 -0.18978705 0.40270683 -0.05040092 0.1147641 0.48961326 0.01191708
-0.17682634 -0.29716045 -0.052825905 -0.27781427 -0.034060124 0.06223863 -0.043889083 -0.32225686
0.0065803113 -0.3125769 0.08261993 0.004716182 -0.21269833 -0.22210301 -0.121275775 0.031067014
0.010432074 0.46530077 0.31180117 0.23660646 -0.47098738 0.14299245 0.16480212 -0.07389595
0.006700392 0.48654076 0.009309676 -0.11359681 -0.17709424 0.196865 -0.22515532 -0.10193916
00000000: d883 abbd 3f1f 9c3e 2502 4c3d 00a1 8f3e
00000010: d30a 93bc d255 2c3e 1584 0a3f fc39 be3d
00000020: fb7a 273e 3d76 0abe 22f1 033e 3ac9 95bb
00000030: 6d9c f6ba fb6d 8d3e 5607 b6be e653 6dbe
00000040: 2303 92be 81ca 99be 5e18 733b 9801 eabd
00000050: 5329 923d b535 c53d 6e84 053e 3e7a 83be
00000060: b230 e5bd 1d48 143e 5d3e 5dbf 4e02 623f
00000070: 4c5a f5bd 6898 8abe c55c 2a3e 94cc 243d
00000080: d011 a03e 1ed4 213e 459d 523e 9893 9f3d
00000090: cd4c 61bd 86b2 3bbe 1606 dc3d 4023 a63d
000000a0: c660 b13d cbe3 1bbd b4ce 543e fec0 623e
000000b0: ca8f bdbd 3731 cbbd fdfa 21bd a961 19be
000000c0: 18b5 fdbd 2534 17bf 21d0 02bf 74ee 97bd
000000d0: 7374 933e 5421 15be 8c6a 3d3e 230b fdbd
000000e0: 86c6 4c3d 6cb2 53be c043 34be 96ce 7dbd
000000f0: 72e9 4c3c ec68 bc3d e3f3 933d 5cd0 883e
00000100: cd65 bf3d 64c1 b2ba 0c36 533e 9f4e d23d
00000110: 8a7f 34be 3086 243d 3dfb d9bd 993d 06be
00000120: ccfd 62bf 944e 04bf 3892 643f de37 61bf
00000130: 6d20 cb3d 2fd5 0e3d d0ca 21be a4eb 22bd
00000140: 0e91 453e 7425 593d 30d7 afbd 5797 21be
00000150: 11a8 88bd bbb4 9fbd 9126 e6bd 073b 513e
00000160: 285f a0bd ae69 453e 7de2 02be 8eee 81bd
00000170: aeef 893e 5c3d 203e 96bc e03d a7aa 363d
00000180: 7aad a5be 44f8 c0be 5287 7cbf 5cca 973e
00000190: c3ac c4bd 410b 533c 54fa db3d c97b 47be
000001a0: b577 1cbe 0bb6 f13d f5da cbbd 81e7 4fbe
000001b0: f37e 19be d519 243d 507c 673e 5ac9 ad3e
000001c0: c187 a1bc 5b25 f03d 5ebd 983e 987a a4bd
000001d0: 8c6f 683e 44da 363e 0cca 54be 5478 75be
000001e0: bc62 803e 056c 0c3e 02bc 653f 746e d8be
000001f0: 904d 85be 658c 4a3e e334 45bd 6362 1f3e
00000200: c0cf 50be 580b 703e 06a9 62be edcf e139
00000210: 08ea 2e3b f22d e43d 9036 cdbd bec2 a5be
00000220: 67d2 16bd af1e 613c d145 4cbe b8c0 07be
00000230: 6bb7 a9bd bcc2 e5bd 784d aebc 4725 d73d
00000240: 6dfd 01bd 4f50 063f b48e 213e a829 b43e
00000250: 5f31 85be ec7e fabd 016c 9e3e 2d88 1cbe
00000260: 474d e4bd d97e 8a3b e0c0 3f3e 7e19 1ebe
00000270: 6e95 253d dd7b a83c e7ae 80be ff19 4bbc
00000280: b90d 193d 90be ac3d fe2a 22be 393c e6bd
00000290: 9016 9f3d 8567 0fbd 29c1 103e 9d1f 15be
000002a0: e52c 94bf 06e9 b9bf 0253 573f 61fc 79be
000002b0: 90c2 a4be 94f4 6ebe ad81 4abf 2dc9 b5bc
000002c0: bcc8 b23d 554d e03c 9df6 1c3e 35cd f23c
000002d0: 1b11 bf3d 03e7 84be 5262 403e 4583 2c3e
000002e0: ef06 293d 9894 c1bd d28d 52bd 97fd d1bd
000002f0: bc57 7abc 9eda 85be c19d d5bd a6b9 9bbd
00000300: 5b22 ae3f ceca 703f 3f60 bdbf 5746 063f
00000310: b909 5dbe e7aa c3bc 0d74 ed3e 4ca3 de3c
00000320: 029a b0be 41e7 e13e 7f7a 93bc e0fe 043e
00000330: dfc6 f9bc fe11 663d f339 3abe 1042 8abe
00000340: ef10 343d 4fa1 90be 9ecb 1e3d 18dd 51be
00000350: e5e4 0c3d c86b 29be f44f abbd 8525 33be
00000360: f646 99bd 07de 053f 8957 42be 972f ce3e
00000370: 3271 4ebd 7109 eb3d 97ae fa3e db3f 433c
00000380: f711 35be 6a25 98be fa5f 58bd ac3d 8ebe
00000390: a182 0bbd efed 7e3d 0ac5 33bd dafe a4be
000003a0: a79f d73b 140a a0be a334 a93d 348a 9a3b
000003b0: 97cd 59be f96e 63be 6f5f f8bd 4080 fe3c
000003c0: 4aeb 2a3c e73b ee3e 67a4 9f3e f748 723e
000003d0: 4225 f1be 9d6c 123e e3c1 283e c356 97bd
000003e0: f68e db3b df1b f93e 9c87 183c 72a5 e8bd
000003f0: 3158 35be fb96 493e 1e8f 66be 7ac5 d0bd

value_fc1.bias f4 [64]
-0.08222801 -0.0319304 0.057178177 0.13739637 0.0007213268 0.21502206 -0.16721779 0.005490798
-0.15525953 0.11163566 -0.12988846 0.026120108 -0.14703852 -0.15412176 -0.102892295 -0.08386555
0.071226895 0.15528439 0.23868538 -0.0045535024 0.01261656 -0.05898301 0.24622734 0.025229532
-0.24664237 0.2634372 0.23089407 -0.18706031 0.22872326 0.2726186 0.055085834 -0.10512926
-0.31445867 0.025160888 -0.23154047 -0.20227945 -0.22844921 -0.041228738 0.009001549 0.07371188
-0.14061141 0.220547 -0.08527613 -0.24414414 0.26933336 0.016853353 -0.015808145 -0.24254829
-0.1500603 0.03133684 0.19737083 0.04253522 -0.006420715 -0.03546169 -0.14577134 -0.12424703
0.014459148 0.26779342 0.064947754 0.021077964 0.06394855 0.04793164 -0.10918665 -0.07837091
00000000: 2967 a8bd 73c9 02bd aa33 6a3d a2b1 0c3e
00000010: 6c17 3d3a be2e 5c3e 243b 2bbe 27ec b33b
00000020: 5bfc 1ebe 3da1 e43d 7b01 05be d6f9 d53c
00000030: 4491 16be 18d2 1dbe 32b9 d2bd b4c1 abbd
00000040: 68df 913d df02 1f3e f169 743e 8c35 95bb
00000050: b0b5 4e3c 2b98 71bd 0523 7c3e 2aae ce3c
00000060: d18f 7cbe 3ee1 863e 7f6f 6c3e bd8c 3fbe
00000070: 6e36 6a3e aa94 8b3e afa1 613d 024e d7bd
00000080: ba00 a1be 351e ce3c f218 6dbe 5822 4fbe
00000090: 97ee 69be 77df 28bd 3c7b 133c 41f6 963d
000000a0: 70fc 0fbe 13d7 613e 40a5 aebd ec00 7abe
000000b0: 10e6 893e 0b10 8a3c 1580 81bc 945e 78be
000000c0: 68a9 19be 0f5b 003d 941b 4a3e 6939 2e3d
000000d0: dc64 d2bb 4740 11bd 1545 15be 3a75 febd
000000e0: 10e6 6c3c 381c 893e 5403 853d b2ab ac3c
000000f0: 75f7 823d f853 443d 409d dfbd ed80 a0bd

value_fc2.weight f4 [128, 64]
0.17309523 0.4088519 -0.8212672 -0.18844192 -0.10209573 0.7302125 0.780595 0.36855963
0.1874404 0.041486748 0.8035669 -0.5239356 -0.416784 0.48171768 -0.24559744 -0.53987205
-0.46302125 -0.99593157 -0.43192354 0.24412066 0.22262956 -0.49742383 -0.3837581 -0.40018478
0.45953935 -0.23076466 -0.07234094 0.5639678 -0.14429171 -0.21975979 -0.53069174 -0.69845796
0.27729997 0.5066037 -0.041304775 0.6717677 0.824088 -0.3777534 -0.12737553 0.5766695
0.79997236 -0.7007364 0.17845036 -0.23778495 0.14731456 0.107049435 0.16252291 0.11021497
-0.030691583 -0.34085187 -0.27778396 -0.4895174 -0.20900387 -0.21677928 0.08015817 0.28021652
-0.5193817 -0.46840146 -0.99471885 0.18333946 -0.8450411 0.49488947 0.17251028 0.06729088
-0.305555 0.22332127 -0.001938336 -0.16658343 0.28698736 -0.22400148 0.052271843 0.5812042
0.48343834 -0.14078163 0.14451554 -0.26709244 0.18828593 -0.008216775 -0.19572976 0.47238284
0.37705627 0.10511635 0.2627801 -0.09965788 0.16067731 -0.46647063 -0.34580278 -0.19783244
0.030972665 -0.10509524 0.032548085 -0.067812905 -0.91107994 -0.41399047 -0.048370715 0.003430698
0.064940766 0.6306631 0.028460555 0.67086357 -0.17415445 -0.054595795 -0.07411166 -0.21127318
-0.0135453995 0.31319517 -0.16067107 0.07437076 0.17068942 -0.5093109 0.117014386 0.5000264
0.09106061 -0.57198226 0.5872339 0.11848367 0.6973023 -0.015619149 0.37245485 -0.17054977
-0.33263335 0.1909612 0.070126124 -0.11244371 0.1888782 0.16672638 0.38256398 0.42564404
0.32048106 0.07497728 -0.045949187 0.08475568 -0.3000445 0.0065366635 0.140581 -0.81105345
-0.53463924 0.4390728 0.2898574 0.027969753 0.08384789 0.047475036 0.13961142 -0.28598905
-0.3022084 -0.4816619 -0.05437266 0.30468532 -0.27500075 0.7410478 0.070500284 0.32507673
-0.3274369 0.2063037 -0.16696617 0.14790685 0.5494165 0.6572414 -0.18844858 -0.29343835
-0.10367122 -0.9580895 -0.38411415 -0.058513075 0.31508183 0.16585447 -0.04144916 0.11686857
0.036533043 -0.07728822 0.032274276 -0.22944151 -0.047497764 0.14399882 0.2650663 -0.6178873
-0.14153035 -0.044347566 0.21399745 -0.17407885 -0.4168821 -0.18168299 -0.23058894 0.08850649
0.47871503 -0.272776 -0.43918815 0.065923974 -0.2611671 -0.11208731 -0.4951312 -0.19682555
-0.3935605 0.033917602 0.049124006 -0.21558873 0.33280027 -0.06648657 -0.14988191 0.62259805
0.70157653 -0.33925277 -0.1200322 0.029771741 -0.003909309 -0.057654344 0.005949303 0.34655887
0.28703392 0.4194801 0.09685094 -0.23037182 0.088614985 -0.6843892 -0.19294706 -0.36333367
0.20357232 -0.16168529 0.080473125 -0.28789118 -0.72868407 -0.5237764 0.14268583 0.23954366
0.15037373 1.0482886 0.28252092 0.20871545 -0.24464166 -0.1916213 0.110921964 -0.06541734
-0.092795394 0.1807027 -0.030371469 0.16286848 0.14700449 -0.15832925 -0.18795738 0.47134298
0.077348605 -0.029805416 -0.24525121 0.067372076 0.47963032 0.060410675 0.29114556 0.0008208424
-0.45253438 0.19084601 0.40180582 -0.06412407 0.21192206 0.081011064 0.45915607 0.32199895
00000000: e03f 313e 0955 d13e 913e 52bf ebf6 40be
00000010: 9117 d1bd 35ef 3a3f 13d5 473f d9b3 bc3e
00000020: 60f0 3f3e 02ee 293d 8fb6 4d3f a520 06bf
00000030: b664 d5be b3a3 f63e e57d 7bbe 0e35 0abf
00000040: 1f11 edbe 5ff5 7ebf 1525 ddbe c4fa 793e
00000050: 01f9 633e 56ae febe f17b c4be 05e5 ccbe
00000060: be48 eb3e 924d 6cbe 7d27 94bd 3260 103f
00000070: 35c1 13be b608 61be 6adb 07bf 24ce 32bf
00000080: 43fa 8d3e c8b0 013f 322f 29bd f8f8 2b3f
00000090: 6ef7 523f e568 c1be bb6e 02be 9da0 133f
000000a0: fdca 4c3f 7663 33bf b1bb 363e e67d 73be
000000b0: a1d9 163e bc3c db3d 686c 263e 63b8 e13d
000000c0: ea6c fbbc 2384 aebe b339 8ebe 06a2 fabe
000000d0: 1c05 56be 63fb 5dbe f729 a43d 8a78 8f3e
000000e0: 33f6 04bf 51d2 efbe e5a5 7ebf 57bd 3b3e
000000f0: 9d54 58bf 2762 fd3e 89a6 303e cdcf 893d
00000100: b471 9cbe 55ae 643e c30f feba d994 2abe
00000110: 02f0 923e a560 65be 001b 563d ccc9 143f
00000120: 3b85 f73e 0f29 10be e2fb 133e 57c0 88be
00000130: 07ce 403e a79f 06bc 626d 48be 2adc f13e
00000140: 850d c13e 3e47 d73d 1d8b 863e 6e19 ccbd
00000150: 9888 243e 3dd5 eebe 100d b1be 9694 4abe
00000160: 63ba fd3c 2c3c d7bd 2451 053d 7ee1 8abd
00000170: 893c 69bf 8ff6 d3be 5f20 46bd 90d5 603b
00000180: aaff 843d 2373 213f 1c26 e93c b7bd 2b3f
00000190: 8b55 32be d79f 5fbd dbc7 97bd ff57 58be
000001a0: 86ed 5dbc 1e5b a03e f586 24be b24f 983d
000001b0: 35c9 2e3e 3362 02bf 3da5 ef3d bb01 003f
000001c0: fc7d ba3d 6e6d 12bf f654 163f 91a7 f23d
000001d0: 6782 323f 76e7 7fbc 67b2 be3e 99a4 2ebe
000001e0: eb4e aabe 558b 433e 499e 8f3d e348 e6bd
000001f0: 4969 413e 52ba 2a3e 6ddf c33e 04ee d93e
00000200: 1816 a43e b08d 993d 3735 3cbd 6394 ad3d
00000210: 6f9f 99be 8231 d63b 77f4 0f3e 33a1 4fbf
00000220: 1ede 08bf 26ce e03e 3068 943e d320 e53c
00000230: 71b8 ab3d 2f75 423d 4cf6 0e3e 286d 92be
00000240: 0fbb 9abe 639c f6be deb5 5ebd b7ff 9b3e
00000250: e6cc 8cbe 4fb5 3d3f 7462 903d 7570 a63e
00000260: cfa5 a7be 4741 533e 2ef9 2abe e574 173e
00000270: 8fa6 0c3f f940 283f aaf8 40be 8d3d 96be
00000280: 9451 d4bd 5a45 75bf 9caa c4be 68ab 6fbd
00000290: 6852 a13e c1d5 293e 98c6 29bd ca58 ef3d
000002a0: aca3 153d 4949 9ebd 0832 043d b7f2 6abe
000002b0: 048d 42bd 6d74 133e c5b6 873e dd2d 1ebf
000002c0: 55ed 10be cba5 35bd 2622 5b3e ba41 32be
000002d0: 9271 d5be 1b0b 3abe 821f 6cbe e442 b53d
000002e0: 231a f53e 4ca9 8bbe 45dd e0be 2603 873d
000002f0: b2b7 85be 088e e5bd d681 fdbe a38c 49be
00000300: c380 c9be 2fed 0a3d 4136 493d 4bc3 5cbe
00000310: cc64 aa3e 1c2a 88bd a57a 19be 9662 1f3f
00000320: 859a 333f 8ab2 adbe 71d3 f5bd dee3 f33c
00000330: a919 80bb f626 6cbd 5ff2 c23b 2a70 b13e
00000340: 1cf6 923e 18c6 d63e c959 c63d 97e6 6bbe
00000350: c67b b53d 2134 2fbf ea93 45be df06 babe
00000360: 4375 503e d490 25be 18cf a43d 7966 93be
00000370: 0a8b 3abf 3616 06bf 3c1c 123e ef4a 753e
00000380: 92fb 193e 522e 863f 95a6 903e 81b9 553e
00000390: 5883 7abe 6038 44be 0e2b e33d 87f9 85bd
000003a0: 830b bebd 210a 393e 96cd f8bc ffc6 263e
000003b0: 5888 163e 1021 22be e677 40be de53 f13e
000003c0: f268 9e3d 7d2a f4bc 2223 7bbe 5ffa 893d
000003d0: 1b92 f53e 2f71 773d 0811 953e cd2d 573a
000003e0: 96b2 e7be 236d 433e 7eb9 cd3e 7b53 83bd
000003f0: 1902 593e 21e9 a53d 8116 eb3e 0cdd a43e

value_fc2.bias f4 [128]
-0.7147239 0.249796 -0.011655626 0.12800139 -0.7381265 -0.119389646 0.13516161 -0.007670915
0.06571284 -0.22967851 -0.2088457 -0.86085474 -0.11678756 -0.77081835 -0.23168045 0.0008170212
-0.12375948 0.6159436 0.81516594 0.40140092 0.18290927 0.003261425 0.57803214 -0.6500459
0.5214092 -0.090365425 -0.0075541916 -0.16749388 0.12327035 0.2821529 -0.2673344 0.1960373
-0.1909618 -0.009319179 -0.6704801 0.7380929 -0.57177395 -0.24730423 -0.17702006 -0.1454149
0.7662881 -0.07226477 -0.14888588 -0.2048151 -0.074374944 0.11367474 0.11164888 -0.8614855
-0.16283494 0.19440407 -0.07398007 0.37961152 0.15874235 0.07221036 0.11456508 -0.005995957
0.13577151 -0.18460834 0.15103795 -0.11822624 -0.09895586 -0.8414866 -0.2538784 0.106448695
0.1704488 -0.026520064 -0.1913153 0.1281943 -0.5466693 0.62522024 0.21624322 0.17002359
-0.74376863 -0.63058853 0.092241846 0.6278204 0.15268958 -0.23168118 0.61797494 -0.57890487
-0.45722115 -0.10477551 -0.6413357 0.055168737 -0.04441979 -0.6761822 -0.10513058 -0.39053676
-0.688124 -0.66222125 -0.11319838 0.644858 -0.06910201 0.023282086 0.26959267 -0.12134776
0.42054412 -0.32137093 0.6199587 -0.59622437 0.16962275 -0.039563276 0.30407387 -0.075766824
-0.03658268 0.27437353 0.7165739 -0.25938067 -0.20203687 0.6997225 -0.20311634 -0.07664103
0.43594494 -0.24970445 0.7365763 -0.12712021 -0.05866116 0.5389196 -0.6816254 -0.23205987
0.079366565 -0.07947398 -0.5285778 0.19744034 -0.1676916 0.17839499 -0.51171875 -0.5153942
00000000: 25f8 36bf 86ca 7f3e 3df7 3ebc cc12 033e
00000010: dcf5 3cbf 8f82 f4bd ce67 0a3e 4d5c fbbb
00000020: 7494 863d d830 6bbe a6db 55be fa60 5cbf
00000030: 512e efbd 5a54 45bf a43d 6dbe 5d2d 563a
00000040: 9c75 fdbd 7bae 1d3f b7ae 503f 6c84 cd3e
00000050: 914c 3b3e a2bd 553b eaf9 133f 6869 26bf
00000060: 137b 053f 8211 b9bd 2789 f7bb 8483 2bbe
00000070: 2a75 fc3d 5876 903e 0ee0 88be 01be 483e
00000080: 7d8b 43be 78af 18bc 95a4 2bbf a8f3 3c3f
00000090: c75f 12bf 523d 7dbe bf44 35be a5e7 14be
000000a0: 752b 443f 8dff 93bd 8a75 18be 0dbb 51be
000000b0: e451 98bd 4dce e83d 2ba8 e43d 508a 5cbf
000000c0: 34be 26be dc11 473e dd82 97bd 715c c23e
000000d0: 5b8d 223e 06e3 933d 19a1 ea3d bc79 c4bb
000000e0: b007 0b3e f809 3dbe b1a9 1a3e 9920 f2bd
000000f0: 5fa9 cabd aa6b 57bf 5afc 81be c601 da3d
00000100: 218a 2e3e 9b40 d9bc 28e8 43be 5e45 033e
00000110: 85f2 0bbf 6f0e 203f dd6e 5d3e aa1a 2e3e
00000120: 9f67 3ebf 406e 21bf 4be9 bc3d d6b8 203f
00000130: a85a 1c3e d53d 6dbe 9b33 1e3f 1c33 14bf
00000140: e418 eabe 8b94 d6bd 942e 24bf 9df8 613d
00000150: 87f1 35bd 471a 2dbf b44e d7bd 6ff4 c7be
00000160: e528 30bf 5587 29bf 8dd4 e7bd 6a15 253f
00000170: 5b85 8dbd 13ba be3c 0d08 8a3e 2d85 f8bd
00000180: 8f51 d73e bb8a a4be 9db5 1e3f 29a2 18bf
00000190: 96b1 2d3e 1a0d 22bd 92af 9b3e a32b 9bbd
000001a0: b8d7 15bd b07a 8c3e 6371 373f 8bcd 84be
000001b0: c1e2 4ebe 0421 333f bbfd 4fbe f9f5 9cbd
000001c0: 2d34 df3e 86b2 7fbe 4490 3c3f cd2b 02be
000001d0: af46 70bd a3f6 093f 017f 2ebf 1aa1 6dbe
000001e0: f08a a23d 41c3 a2bd e050 07bf cd2d 4a3e
000001f0: 59b7 2bbe 2dad 363e 0000 03bf e0f0 03bf

value_fc3.weight f4 [1, 128]
0.8140701 -1.0359893 0.7118979 -0.7483275 0.75927144 0.7116446 -0.6659227 0.79708916
-0.7714907 1.2172763 0.77278084 0.7685139 0.87133646 0.76755786 0.6921908 -0.7372474
0.6923908 -0.8331097 -0.74571174 -0.7569681 -0.7250189 0.7270138 -0.77527994 0.7725175
-0.7568284 0.6659448 0.67847604 0.71214765 -0.73666936 -0.96758205 0.78479135 -0.78926927
0.75051945 0.72224116 0.75192755 -0.7788409 0.80755895 0.7714143 0.7406764 0.99104273
-0.77189755 0.779943 0.67498183 0.6639967 0.750972 -0.6777167 -1.0204493 0.8044286
0.666539 -0.66092676 0.6709148 -1.1650875 -0.72676384 -1.0638607 -0.7436501 -0.7696547
-0.70343816 0.70043224 -0.74598837 0.6258344 0.7112105 0.7818066 0.6747918 -0.75202245
-0.68173176 0.69781435 0.7859142 -0.7103036 0.79618126 -0.7862872 -0.9180752 -0.64603573
0.754321 0.7815001 -0.7158455 -0.76376593 -0.76483744 0.8002396 -0.75672525 0.8103721
0.79001564 0.8155722 0.77422583 -0.7178646 0.84390754 0.795076 0.7608647 0.7701404
0.7842671 0.7502507 0.6671179 -0.82549167 0.7697597 -0.72011435 -0.7897726 0.94906515
-0.73824626 1.1329778 -0.76183295 0.75939673 -0.853177 0.70756465 -0.9280759 0.749294
0.9807211 -0.9448592 -0.8027379 0.96006334 0.72610873 -0.8274977 0.69392043 -0.7884232
-0.7676362 0.72523654 -0.8128004 0.70135444 0.7144741 -0.8121284 0.8119289 0.95755553
-0.6964084 0.8334089 0.75975466 -0.9006974 0.80861986 -0.9302769 0.75867915 0.81139463
00000000: e666 503f 4c9b 84bf f13e 363f 6492 3fbf
00000010: 9d5f 423f 572e 363f e979 2abf 090e 4c3f
00000020: 6a80 45bf b6cf 9b3f f7d4 453f 54bd 443f
00000030: e80f 5f3f ac7e 443f 6b33 313f 3fbc 3cbf
00000040: 8640 313f ad46 55bf f7e6 3ebf a9c8 41bf
00000050: d79a 39bf 941d 3a3f bf78 46bf b5c3 453f
00000060: 82bf 41bf 5c7b 2a3f 9bb0 2d3f 4f4f 363f
00000070: 5d96 3cbf 75b3 77bf 16e8 483f 8d0d 4abf
00000080: 0b22 403f cce4 383f 537e 403f 1e62 47bf
00000090: 2fbc 4e3f 687b 453f f89c 3d3f fab4 7d3f
000000a0: 149b 45bf 58aa 473f 9ccb 2c3f b0fb 293f
000000b0: b33f 403f d77e 2dbf 159e 82bf 08ef 4d3f
000000c0: 4da2 2a3f 7f32 29bf 13c1 2b3f 9621 95bf
000000d0: 320d 3abf 962c 88bf da5f 3ebf 1708 45bf
000000e0: 8614 34bf 874f 333f 18f9 3ebf af36 203f
000000f0: e411 363f 7a24 483f 28bf 2c3f 8b84 40bf
00000100: f985 2ebf f6a3 323f ac31 493f 75d6 35bf
00000110: 89d2 4b3f 1e4a 49bf fa06 6bbf 9962 25bf
00000120: 2e1b 413f 6410 483f a741 37bf 2a86 43bf
00000130: 63cc 43bf 81dc 4c3f bfb8 41bf 8c74 4f3f
00000140: 773e 4a3f 57c9 503f aa33 463f f9c5 37bf
00000150: 530a 583f 1a8a 4b3f 07c8 423f ec27 453f
00000160: bbc5 483f 6e10 403f 3dc8 2a3f 6c53 53bf
00000170: f90e 453f 6a59 38bf 8a2e 4abf eff5 723f
00000180: b5fd 3cbf 6b05 913f 7c07 43bf d367 423f
00000190: cf69 5abf f522 353f 6296 6dbf bbd1 3f3f
000001a0: 8a10 7b3f 4be2 71bf 3b80 4dbf b6c6 753f
000001b0: 43e2 393f e4d6 53bf c5a4 313f 1ad6 49bf
000001c0: ce83 44bf 1aa9 393f b013 50bf f78b 333f
000001d0: c6e7 363f a6e7 4fbf 93da 4f3f 5c22 753f
000001e0: d247 32bf 495a 553f 487f 423f 1b94 66bf
000001f0: b601 4f3f a026 6ebf cc38 423f 8fb7 4f3f
