bipedalwalk/BipedalWalker-v2/lr_0.0002/coeff_entropy_0.0001/batch_size_64/horizon_2048/policy.pth (torch_old, 83793 bytes, 12 tensors)

logstd f4 [4]
-0.004785904 -0.007043091 0.0043508722 -0.001489744
00000000: 13d3 9cbb bbc9 e6bb c391 8e3b 8443 c3ba

act_fc1.weight f4 [64, 24]
-0.18833148 -0.07341576 -0.14054814 0.0535975 -0.14650658 0.009029038 0.20198442 0.115283646
-0.011979856 -0.05197056 0.16493917 0.18498209 0.13849372 0.015175925 0.12094935 -0.1693568
-0.14006855 -0.17354997 -0.107813194 0.08566061 0.19167651 0.13954744 0.012876876 0.1258361
-0.08873747 0.05149733 0.18201134 -0.048845205 0.10546749 -0.16858737 0.14004366 -0.046954434
-0.100852005 0.15638162 -0.12210036 -0.19178957 -0.11037225 -0.17641799 -0.034600247 -0.166672
0.20198552 0.05360831 -0.008621449 -0.07090707 0.12981172 0.15503198 0.03811983 0.16875753
-0.041306444 0.18967448 -0.1738667 -0.18349268 0.12873825 -0.19795771 0.12787269 -0.1213591
0.11984742 0.030287743 -0.103962235 -0.06127324 -0.08175854 -0.005677216 -0.17209491 0.14240631
-0.07239004 -0.17779581 -0.15075642 -0.20721686 -0.014771343 0.1737616 0.16638464 -0.019359533
0.1659965 0.1022357 -0.07550759 -0.16882117 -0.11926466 -0.20636152 -0.060120054 0.18909691
-0.088896655 0.114835 0.116115294 0.054298766 -0.18323068 -0.19029048 -0.17018288 -0.039610762
0.13230944 0.13132519 0.1412617 0.14684518 0.15900552 0.06675909 0.066252664 -0.15224154
0.072881475 0.109959595 -0.18570928 -0.040495515 0.016132422 -0.09920136 0.18850943 0.14805792
-0.19083256 -0.16565274 0.015912298 0.010902653 -0.19320805 0.18435763 0.15627256 0.02100658
-0.20305845 -0.005731333 -0.103775464 0.18288784 0.15693022 0.03788336 0.06658215 0.08261057
0.036579225 0.11519008 0.08077334 0.18380147 -0.063497014 -0.20755805 -0.025040384 -0.1844156
-0.08638993 0.16833757 0.033387102 0.11431086 -0.080968425 0.12162424 -0.13703212 0.09810105
0.09570158 0.122973226 -0.08883791 0.081598684 0.11514399 -0.19732146 0.14175625 -0.079671584
0.09832868 -0.16544068 0.10394801 -0.0714719 -0.13103174 0.13213958 -0.08950939 -0.19239736
-0.19057707 -0.20680174 -0.054863367 0.032062937 -0.08691385 -0.16188504 0.06814803 -0.084167294
-0.14107877 0.1547062 -0.06445485 0.08367255 -0.031358667 -0.0017316109 -0.18880786 0.06049317
0.057171643 -0.12188309 0.12504382 0.17337391 0.013602123 0.020560293 0.0029735037 -0.12070863
-0.16420712 0.04652777 0.14025283 -0.009558684 -0.07699787 0.18803002 0.09280064 0.046015024
-0.097577155 0.11048591 -0.025539162 -0.16197854 -0.05701477 0.19444032 -0.1970206 -0.17381066
-0.18234965 -0.14727023 0.1864888 0.057713795 0.179413 0.057188004 -0.20392583 0.18000616
0.0035448575 0.17704086 -0.17738609 0.00299037 0.120612964 -0.12968072 0.038704287 -0.12990458
0.03375403 -0.11446448 -0.046694133 -0.05757591 -0.028684983 0.13206324 0.17476603 -0.091643326
0.1976926 -0.10209313 0.08056182 0.063015446 0.003969219 0.10907054 0.15258221 0.076334484
-0.04084567 -0.026187621 0.112886876 -0.07543965 0.03633685 0.1381801 -0.06202722 0.15838736
-0.015598142 0.021579904 0.08501987 -0.03399072 -0.14410304 -0.062415 0.032070305 -0.19767183
-0.17119397 0.00580569 0.16109763 -0.01715905 -0.01508344 0.20208962 0.05756444 0.025286175
0.06418094 -0.055423085 -0.08813678 0.14861956 -0.1697622 -0.19130147 -0.10054713 -0.1923677
00000000: f8d9 40be 015b 96bd daeb 0fbe 0d89 5b3d
00000010: d205 16be 88ee 133c 01d5 4e3e d519 ec3d
00000020: 2847 44bc 15df 54bd d0e5 283e f26b 3d3e
00000030: 4cd1 0d3e 71a4 783c 4bb4 f73d de6b 2dbe
00000040: 216e 0fbe 15b7 31be 2acd dcbd d46e af3d
00000050: d946 443e 86e5 0e3e 88f9 523c 2edb 003e
00000060: febb b5bd ddee 523d 2e61 3a3e e911 48bd
00000070: 57ff d73d 2ba2 2cbe 9b67 0f3e 4b53 40bd
00000080: 7f8b cebd 8122 203e c10f fabd 7c64 44be
00000090: d90a e2bd eba6 34be fdb8 0dbd 11ac 2abe
000000a0: 4bd5 4e3e 6394 5b3d fa40 0dbc ba37 91bd
000000b0: 5ded 043e b4c0 1e3e 8a23 1c3d c6ce 2c3e
000000c0: f230 29bd 073a 423e 1d0a 32be 81e5 3bbe
000000d0: f6d3 033e 6db5 4abe 0ff1 023e 1f8b f8bd
000000e0: 9072 f53d 001e f83c 27ea d4bd a6f9 7abd
000000f0: 0571 a7bd f107 babb a639 30be f6d2 113e
00000100: 3b41 94bd 1b10 36be e45f 1abe a830 54be
00000110: 8103 72bc 90ee 313e bc60 2a3e e297 9ebc
00000120: fdfa 293e f360 d13d b9a3 9abd 75df 2cbe
00000130: 0841 f4bd 6f50 53be 7240 76bd 9fa2 413e
00000140: 730f b6bd 9d2e eb3d dbcd ed3d 6268 5e3d
00000150: d3a0 3bbe 82db 42be 6c44 2ebe e53e 22bd
00000160: 207c 073e 1c7a 063e e8a6 103e 955e 163e
00000170: 58d2 223e fdb8 883d 7aaf 873d 35e5 1bbe
00000180: e242 953d 7f32 e13d 932a 3ebe a0de 25bd
00000190: 2428 843c 152a cbbd 9e08 413e 7f9c 173e
000001a0: 9c69 43be dfa0 29be 825a 823c 0ba1 323c
000001b0: 55d8 45be 3fc8 3c3e ea05 203e fe15 ac3c
000001c0: 8eee 4fbe e8cd bbbb 3b88 d4bd f346 3b3e
000001d0: 51b2 203e 952b 1b3d 395c 883d bb2f a93d
000001e0: 19d4 153d c7e8 eb3d 7e6c a53d 7436 3c3e
000001f0: b90a 82bd 198a 54be 7e21 cdbc 71d7 3cbe
00000200: 34ed b0bd af60 2c3e eac0 083d d01b ea3d
00000210: c6d2 a5bd 2116 f93d 2652 0cbe 34e9 c83d
00000220: 31ff c33d 63d9 fb3d a6f0 b5bd 361d a73d
00000230: 9dd0 eb3d a30e 4abe 8d28 113e db2a a3bd
00000240: 8c60 c93d 4869 29be b2e2 d43d dc5f 92bd
00000250: 2f2d 06be 994f 073e b350 b7bd d003 45be
00000260: a326 43be d6c3 53be 69b8 60bd 6d54 033d
00000270: e3ff b1bd 31c5 25be 3291 8b3d e75f acbd
00000280: f476 10be 4d6b 1e3e e800 84bd 845c ab3d
00000290: f271 00bd 38f7 e2ba d956 41be b0c7 773d
000002a0: d02c 6a3d d79d f9bd 7d0b 003e ee88 313e
000002b0: 70db 5e3c 0f6e a83c 1ddf 423b 1636 f7bd
000002c0: e925 28be e793 3e3d 709e 0f3e 079c 1cbc
000002d0: 0fb1 9dbd f18a 403e 430e be3d 407a 3c3d
000002e0: 88d6 c7bd 7046 e23d 8137 d1bc b4dd 25be
000002f0: 5288 69bd 5d1b 473e c5bf 49be 6cfb 31be
00000300: deb9 3abe 02ce 16be ecf6 3e3e 4d65 6c3d
00000310: 0bb8 373e f83d 6a3d efd1 50be 8953 383e
00000320: d750 683b 334a 353e b3a4 35be 15fa 433b
00000330: ee03 f73d 06cb 04be 6388 1e3d b505 05be
00000340: aa41 0a3d 5a6c eabd 5942 3fbd b8d4 6bbd
00000350: c5fc eabc 963b 073e def5 323e 7faf bbbd
00000360: ee6f 4a3e 3416 d1bd 98fd a43d 3e0e 813d
00000370: 3910 823b 6060 df3d 833e 1c3e 4155 9c3d
00000380: ca4d 27bd 6c87 d6bc 3c31 e73d 1a80 9abd
00000390: f3d5 143d 167f 0d3e 4110 7ebd 4c30 223e
000003a0: 598f 7fbc 57c8 b03c e61e ae3d da39 0bbd
000003b0: bf8f 13be dfa6 7fbd 275c 033d 7c6a 4abe
000003c0: 794d 2fbe a83d be3b c7f6 243e 2391 8cbc
000003d0: 8820 77bc 95f0 4e3e b1c8 6b3d f424 cf3c
000003e0: 4c71 833d 5103 63bd 0e81 b4bd ba2f 183e
000003f0: 24d6 2dbe 88e4 43be a7eb cdbd 0afc 44be

act_fc1.bias f4 [64]
0.005381801 -0.1687149 0.009265316 -0.014057194 0.023893595 -0.1523198 -0.090761356 0.19777744
0.05368927 0.023737174 -0.15202026 0.06733499 -0.051750533 -0.19300058 0.11213478 0.14360379
-0.116458125 -0.18198194 -0.1270397 0.026606454 -0.03788372 -0.1429432 -0.060229693 -0.12051102
-0.0842755 0.09541307 -0.05053843 0.061934944 -0.18772171 0.102409184 -0.048633095 -0.038608138
0.18368031 0.14723605 0.13831677 -0.07358459 -0.11675988 -0.03243832 0.17529489 -0.13315012
0.0999039 0.022967601 -0.18382002 -0.045290712 0.09895937 0.10986276 0.13679613 -0.069000095
-0.14569838 0.041029405 -0.1822843 0.17472501 -0.121916786 0.0019305159 0.09273057 0.103225514
0.19804658 -0.13413928 -0.086785346 0.115730785 0.008391644 0.16191939 0.07158069 -0.062602535
00000000: d259 b03b 99c3 2cbe 8dcd 173c 2550 66bc
00000010: 80bc c33c b9f9 1bbe 17e1 b9bd 2b86 4a3e
00000020: 48e9 5b3d 7674 c23c 33ab 1bbe ede6 893d
00000030: 5ef8 53bd f2a1 45be eba6 e53d df0c 133e
00000040: 9981 eebd 7959 3abe b216 02be c7f5 d93c
00000050: f62b 1bbd b45f 12be 69b3 76bd 7bce f6bd
00000060: a298 acbd ed67 c33d 6301 4fbd 7faf 7d3d
00000070: 1f3a 40be e8bb d13d 7f33 47bd 9123 1ebd
00000080: b116 3c3e 0cc5 163e e9a2 0d3e 84b3 96bd
00000090: ce1f efbd 0bde 04bd 8180 333e 8158 08be
000000a0: 6a9a cc3d 8d26 bc3c 513b 3cbe c182 39bd
000000b0: 36ab ca3d baff e03d 4914 0c3e ec4f 8dbd
000000c0: f531 15be 730e 283d bca8 3abe 1deb 323e
000000d0: 82af f9bd 5d09 fd3a 86e9 bd3d e667 d33d
000000e0: b9cc 4a3e cf5b 09be 84bc b1bd 4304 ed3d
000000f0: 1b7d 093c 32ce 253e e698 923d c235 80bd

act_fc2.weight f4 [128, 64]
-0.021451427 0.11688306 -0.084707335 0.00082663563 -0.010593738 -0.0016387299 0.10192913 0.08815229
0.12681131 -0.04105614 0.09292818 0.04147305 -0.024290632 -0.09249296 -0.027236395 -0.12280649
0.06951132 -0.039239623 -0.06693996 0.00056508026 0.1272822 0.035018485 0.010617986 -0.104116805
0.06750368 -0.024573205 0.045998923 -0.10936149 -0.108669125 0.046374723 -0.06745691 0.12413089
0.07146395 0.01930711 0.049815476 -0.11640328 -0.07798125 0.050428666 -0.10863082 -0.033243895
0.06993855 -0.05346202 0.018353771 -0.0889628 -0.09614873 0.046827603 -0.021492243 0.062068406
0.124995366 0.04546537 0.037042875 -0.09056191 -0.039686333 0.060343504 0.03142515 -0.039527487
0.046745047 -0.0033458853 -0.10214754 0.07283624 0.11457301 0.033438522 -0.022058595 -0.036211286
-0.08136311 0.11541208 -0.089434184 0.020421075 0.047354065 0.036763906 -0.11618162 0.03721221
0.1084404 -0.0908768 -0.08406388 -0.031099731 -0.10300076 0.010130109 -0.05965675 0.020784013
-0.064186595 0.09510506 0.10953211 -0.04795884 0.10987832 0.026169682 -0.06121287 0.033998154
-0.09805107 -0.11793213 0.04881069 0.007935537 -0.01806491 -0.009245534 -0.12521207 -0.000531862
0.089143775 -0.018574486 -0.014444702 0.1211495 -0.11192667 -0.05359049 -0.04844944 -0.057036944
0.060745038 0.0511794 0.039424144 0.052530024 0.006750222 -0.01078907 0.085927054 0.03929889
0.04589649 -0.018316606 0.12795943 0.02081242 -0.08266546 0.11307038 -0.11792375 -0.013173188
0.12434703 0.044851802 -0.052722435 0.013547187 -0.09064661 -0.06712603 0.049181662 -0.023728967
0.029804055 0.09044085 0.015903646 -0.09954322 -0.08857903 0.0954778 0.018921543 -0.050664563
-0.048448004 -0.028348586 0.09683147 0.04309172 0.031418875 0.03713608 0.11118349 0.070801
-0.052955594 -0.10260365 0.1174284 -0.09672024 0.11667976 -0.09352648 -0.06340772 -0.08119852
-0.074792154 -0.09548844 0.05189142 0.000734894 0.01226985 -0.11531861 0.0850275 -0.07741312
0.089111924 0.08772963 0.12582922 0.04869112 0.04979543 0.12264898 -0.110391006 0.10465484
0.023733735 0.12500931 -0.012969412 -0.007934852 -0.043050423 -0.03512692 -0.09234071 0.05291442
0.07669845 -0.047487706 0.09787379 -0.0745675 0.098054685 0.063821465 0.022074586 0.08929005
-0.012011948 0.026180295 -0.005477132 0.09040004 -0.009715542 -0.06693918 0.0058391583 -0.09803595
0.07751177 -0.0617958 -0.0043131853 -0.0694414 0.004672956 0.06089729 -0.09498682 -0.11160392
0.06338736 0.01711482 0.00029476997 0.074533336 0.07066954 0.08251451 0.03634642 0.008307138
0.006641146 -0.12157352 0.0031286385 0.06270423 0.0055830353 -0.113553666 0.12516856 0.059621938
-0.010206757 0.039353922 0.11555032 -0.00934115 -0.013918418 -0.010834637 -0.016253889 -0.05667854
-0.07202198 -0.028140696 0.1242664 0.0029649194 -0.061857972 0.08499862 0.0069558946 0.04699882
-0.088890076 -0.09787132 -0.046680886 0.004865674 0.04712064 -0.0067420653 0.028411813 -0.054716468
0.087576166 0.05380125 0.076655544 -0.08602229 -0.04373536 -0.01622662 -0.062543675 0.09480957
0.0916381 -0.041010767 0.027831402 0.047747653 0.09653564 0.08625801 0.105146915 0.057926424
00000000: e7ba afbc 6360 ef3d 0a7b adbd 94b2 583a
00000010: 5c91 2dbc a7ca d6ba 38c0 d03d 3089 b43d
00000020: d3da 013e 7c2a 28bd 2151 be3d a5df 293d
00000030: 26fd c6bc f36c bdbd dc1e dfbc f881 fbbd
00000040: f35b 8e3d bab9 20bd d117 89bd e521 143a
00000050: 4456 023e 8b6f 0f3d 10f7 2d3c 313b d5bd
00000060: 5f3f 8a3d bf4d c9bc 5e69 3c3d ebf8 dfbd
00000070: eb8d debd 6cf3 3d3d d926 8abd 5638 fe3d
00000080: b15b 923d f229 9e3c 500b 4c3d d864 eebd
00000090: a2b4 9fbd 4a8e 4e3d d679 debd c02a 08bd
000000a0: f13b 8f3d fefa 5abd a65a 963c 2132 b6bd
000000b0: a0e9 c4bd 4dce 3f3d 8010 b0bc 713b 7e3d
000000c0: 92fd ff3d e539 3a3d 45ba 173d 8678 b9bd
000000d0: 238e 22bd c02a 773d a8b7 003d 93e7 21bd
000000e0: bc77 3f3d a446 5bbb bb32 d1bd 2b2b 953d
000000f0: 41a5 ea3d d5f6 083d 3ab4 b4bc 4952 14bd
00000100: b4a1 a6bd 2b5d ec3d 4529 b7bd 194a a73c
00000110: 56f6 413d c095 163d a1f0 edbd d56b 183d
00000120: 0016 de3d 9e1d babd af29 acbd ddc4 febc
00000130: 10f2 d2bd c2f8 253c a35a 74bd 3c43 aa3c
00000140: 4374 83bd 71c6 c23d 5f52 e03d 7d70 44bd
00000150: e207 e13d cd61 d63c 59ba 7abd a641 0b3d
00000160: 00cf c8bd 6786 f1bd b8ed 473d 0e04 023c
00000170: ddfc 93bc 957a 17bc 9837 00be a86c 0bba
00000180: 0391 b63d 8529 98bc 79a9 6cbc 3b1d f83d
00000190: cf39 e5bd b481 5bbd ec72 46bd 929f 69bd
000001a0: cacf 783d 7ea1 513d 367b 213d b929 573d
000001b0: f730 dd3b a4c4 30bc 86fa af3d dff7 203d
000001c0: f5fd 3b3d b50c 96bc cc07 033e cf7e aa3c
000001d0: 824c a9bd 7291 e73d 0282 f1bd 5bd4 57bc
000001e0: a8a9 fe3d 86b6 373d 7bf3 57bd 05f5 5d3c
000001f0: eea4 b9bd 5f79 89bd b672 493d 4063 c2bc
00000200: a227 f43c 0d39 b93d 5d48 823c 51dd cbbd
00000210: ec68 b5bd dd89 c33d 5a01 9b3c a585 4fbd
00000220: 6a71 46bd 4b3b e8bc 944f c63d f280 303d
00000230: 14b1 003d 011c 183d 2bb4 e33d 1d00 913d
00000240: f7e7 58bd dd21 d2bd 4d7e f03d 4315 c6bd
00000250: ccf5 ee3d d08a bfbd e8db 81bd 694b a6bd
00000260: a12c 99bd 718f c3bd 198c 543d e7a5 403a
00000270: 7b07 493c 2a2c ecbd e622 ae3d c58a 9ebd
00000280: 5080 b63d 98ab b33d 60d9 003e 5770 473d
00000290: 4bf6 4b3d 632f fb3d ae14 e2bd 4755 d63d
000002a0: 406d c23c 7102 003e a87d 54bc 2e01 02bc
000002b0: a455 30bd 3fe1 0fbd 201d bdbd cabc 583d
000002c0: 1414 9d3d 7882 42bd 0e72 c83d d8b6 98bd
000002d0: e5d0 c83d d4b4 823d c3d5 b43c b4dd b63d
000002e0: c3cd 44bc 0f78 d63c 8379 b3bb a823 b93d
000002f0: f02d 1fbc 6917 89bd 6956 bf3b 12c7 c8bd
00000300: 7ebe 9e3d 981d 7dbd 9f55 8dbb 4b37 8ebd
00000310: 991f 993b 706f 793d 7388 c2bd 9990 e4bd
00000320: 3bd1 813d 6134 8c3c 5b8b 9a39 efa4 983d
00000330: 31bb 903d 5efd a83d fcdf 143d aa1a 083c
00000340: f89d d93b 8afb f8bd d809 4d3b 136b 803d
00000350: e5f1 b63b d38e e8bd 302c 003e 2236 743d
00000360: 3e3a 27bc 9431 213d a5a5 ec3d 9f0b 19bc
00000370: 140a 64bc c383 31bc e026 85bc c227 68bd
00000380: 4380 93bd 5187 e6bc 627f fe3d 184f 423b
00000390: c95e 7dbd c213 ae3d 46ee e33b d681 403d
000003a0: 000c b6bd c270 c8bd 7534 3fbd 3b70 9f3b
000003b0: 9201 413d 8bec dcbb e4bf e83c 601e 60bd
000003c0: 225b b33d b35e 5c3d 95fd 9c3d 742c b0bd
000003d0: d923 33bd b0ed 84bc e616 80bd 852b c23d
000003e0: c2ac bb3d e8fa 27bd aefe e33c 0b93 433d
000003f0: 7ab4 c53d 0aa8 b03d 4457 d73d 4244 6d3d

act_fc2.bias f4 [128]
0.03993979 -0.061971985 0.07462261 0.094102524 -0.11195281 -0.09461185 -0.05429701 -0.030830774
-0.07918115 0.01599346 -0.08344836 -0.12481553 -0.07188559 -0.0031873954 0.0629974 -0.03172536
0.035439733 -0.109772794 0.093648985 -0.0008526177 -0.08421162 0.05753678 -0.07871965 0.031203954
-0.0470801 0.05422338 -0.12197787 -0.03945513 0.061060954 0.11657063 0.012425519 0.0137121985
0.013133289 -0.114575654 0.11151351 0.054095272 0.019420952 -0.0741251 -0.0774846 -0.030190306
-0.10558821 0.110783555 0.011659958 0.00539628 0.053666875 -0.034832776 -0.11505981 -0.09614571
0.06432171 -0.0021271065 0.12103292 -0.059562147 -0.1155532 0.070422694 -0.09445047 0.027442576
-0.009267606 0.002922898 0.01620425 0.08606868 0.11778962 -0.05668065 -0.0808165 0.07753123
0.023631366 -0.02823379 -0.11427222 -0.06776873 -0.07641877 0.09316269 0.10474679 -0.12315098
0.008197944 0.07805111 -0.0040402906 -0.06100055 0.07284386 -0.11769247 -0.11816861 0.02830606
0.06402453 -0.031383593 -0.0880632 0.10220401 -0.026178485 0.088250846 -0.11851516 -0.085577324
0.09867951 -0.09033098 0.11380338 -0.06383631 0.11327625 0.07302847 -0.0334785 -0.10577945
-0.09441985 -0.102161944 -0.10926217 -0.055933066 0.09360144 0.09280187 0.07922037 0.11125105
-0.122242615 0.02854107 0.095958196 0.115996376 -0.005313391 -0.038298607 -0.006647671 0.06810468
0.08729639 0.119550936 -0.04465665 -0.07314903 -0.05577568 -0.104824156 -0.09024305 -0.08008195
-0.0036025648 -0.06390272 0.01200331 0.070705235 -0.110585764 -0.11924794 0.032131635 0.028971624
00000000: e897 233d 56d6 7dbd bdd3 983d d3b8 c03d
00000010: 8447 e5bd dcc3 c1bd 8b66 5ebd d290 fcbc
00000020: ba29 a2bd b704 833c f9e6 aabd 499f ffbd
00000030: c138 93bd 9fe3 50bb c804 813d 73f2 01bd
00000040: 4129 113d 8fd0 e0bd 0acb bf3d 3582 5fba
00000050: 2477 acbd b0ab 6b3d c537 a1bd 6f9f ff3c
00000060: 10d7 40bd 5619 5e3d 89cf f9bd b49b 21bd
00000070: 0d1b 7a3d 95bc ee3d 6794 4b3c 21a9 603c
00000080: 022d 573c a4a6 eabd 3261 e43d 0193 5d3d
00000090: b018 9f3c e7ce 97bd 3fb0 9ebd a951 f7bc
000000a0: a23e d8bd 7de2 e23d 6909 3f3c 47d3 b03b
000000b0: ccd1 5b3d d0ac 0ebd 7aa4 ebbd 0be8 c4bd
000000c0: 1abb 833d ed66 0bbb 1ce0 f73d 70f7 73bd
000000d0: 28a7 ecbd c639 903d 3f6f c1bd 41cf e03c
000000e0: 28d7 17bc 178e 3f3b c6be 843c c744 b03d
000000f0: af3b f13d f829 68bd 1f83 a5bd b2c8 9e3d
00000100: 9196 c13c 8d4a e7bc 8e07 eabd 55ca 8abd
00000110: 7281 9cbd 15cc be3d 7c85 d63d 9536 fcbd
00000120: ab50 063c 43d9 9f3d 6a64 84bb b6db 79bd
00000130: 292f 953d c008 f1bd 6202 f2bd 1ce2 e73c
00000140: 4b1f 833d 158c 00bd 7b5a b4bd 5650 d13d
00000150: 4374 d6bc dcbc b43d 14b8 f2bd 2a43 afbd
00000160: 7c18 ca3d 73ff b8bd bf11 e93d 9cbc 82bd
00000170: 61fd e73d f38f 953d c020 09bd e5a2 d8bd
00000180: 325f c1bd 483a d1bd d8c4 dfbd 121a 65bd
00000190: 1db2 bf3d e80e be3d 4a3e a23d 97d7 e33d
000001a0: 565a fabd f6ce e93c bb85 c43d 828f ed3d
000001b0: f41b aebb 00df 1cbd b5d4 d9bb 777a 8b3d
000001c0: 73c8 b23d 1fd7 f43d e4e9 36bd 29cf 95bd
000001d0: 0a75 64bd 0cae d6bd 59d1 b8bd 0102 a4bd
000001e0: 0219 6cbb 6edf 82bd 88a9 443c e8cd 903d
000001f0: ca7a e2bd 4438 f4bd 769c 033d e655 ed3c

mu.weight f4 [4, 128]
0.012328338 0.011624031 -0.0046173665 -0.0011522635 -0.0060012825 -0.0037870563 0.0053359307 -0.0054489123
0.008260272 -0.009135183 -0.005206517 -0.0068228147 -0.006554958 -0.0020960502 0.0002569357 0.0048998543
0.0032632996 -0.00217592 -0.0048942505 0.007047643 0.0027793369 -0.002256959 0.005258554 0.0029169102
-0.010876562 0.0098748095 0.0014532268 0.0060101207 0.0028677788 0.007831653 -0.0077267867 -0.00207187
0.011092378 0.0080634225 -0.0061384602 -0.007299751 -0.002741237 -0.0034667002 -0.0043070163 0.0048953556
0.0054654805 0.000970161 0.010733837 0.009691333 -0.00361635 0.0038779748 -0.0014794421 0.0054976237
0.0046711997 0.0057417676 0.0075845555 -0.0047252444 -0.0035608201 0.0034221532 0.011923295 0.00014258662
-0.005435507 -0.0072159017 0.009572496 -0.009295079 -0.0015788971 0.004555289 0.008363767 0.0021131036
0.006168328 -0.00016976063 -0.0007025884 -0.005624228 0.004705388 -0.0039923233 0.009055921 0.0007781371
0.0058651045 -0.0011162747 -0.006306156 -0.00040349012 0.0044941977 -0.0015009101 0.00021016174 -0.009387518
0.006267412 -0.0060208263 -0.007010508 0.002177053 -0.0014848403 0.0047716447 0.004600874 -0.0033080655
0.007850527 -0.003640901 0.00096310733 -0.00052882475 -0.0072850618 0.0022779717 -0.007086823 0.007719312
0.0016384051 0.0042102872 0.0064621205 -0.008787932 0.005930504 -0.0072348015 -0.004881479 0.001567396
0.00484803 0.0065263426 0.0019691268 -0.0045478637 -0.011937384 0.0059736506 4.0577976e-05 -7.2520714e-05
0.006529978 -0.00088867714 0.013781388 -0.0019718406 -0.0020660176 0.0025547734 0.0029850197 -0.006248012
0.0040911823 0.0014170234 0.0020291181 0.002954115 0.0077898856 0.0034192551 0.006694404 -0.0032330106
-0.0116437925 -0.0022553974 0.011351843 0.0038988867 -0.0041352604 0.0018299428 0.010746497 0.011305825
0.00517468 -0.0016435162 0.0024677836 -0.0009661059 -0.010399848 0.0012030804 0.004791352 -0.013497812
0.00048144202 0.0058660097 -0.005681156 -0.005609222 -0.00026518514 0.006446527 -0.0026400706 0.0107028615
0.00465643 -0.001789967 0.0038322683 0.0050615976 -0.010429002 0.0002509163 -1.6135247e-05 0.00019513012
-0.001935694 0.0038467709 0.005278024 -0.01048136 0.008927148 -0.0063139927 -0.009684144 -0.0133879725
-0.0033229946 -0.0052030473 0.0024601095 -0.0006217268 0.014881612 -0.0057439264 -0.0016435458 0.0048764036
-0.009989637 -0.013924812 -0.01069027 -0.0035761723 -0.0036228455 -0.004473047 0.011681423 -0.0016799633
-0.005124889 0.00433462 0.0046118894 -0.012694479 -0.0071320683 0.00026725256 -0.011240519 -0.0025269967
0.015516142 0.0099692065 -0.0070243157 -0.004228835 -0.0050616865 -0.011780765 -0.0048716534 -0.0048468737
-0.006950971 -0.0006046149 -0.00929137 0.010049063 -0.003465676 -0.0028275945 -0.0017515535 -0.0052771084
0.00018180744 -0.0011462793 0.007954884 -0.001605873 0.002509555 0.0018807959 0.00093257776 -0.007827724
-0.010496064 0.0038068711 0.0046791267 0.0027041659 0.0076567503 -0.007857776 -0.0018838261 -0.008521602
5.426315e-05 -0.0057367934 -0.001255876 -0.003949513 0.0044731298 -0.0049857083 -0.0053287493 0.007178
0.0040472928 -0.00022345418 0.00075831666 0.0012760048 0.00631599 -0.014350779 0.0006024279 -0.0021647424
-0.013856614 -0.0067475513 0.001126827 0.0030272466 -0.016470414 0.002278628 0.0036700955 0.0070679863
0.003833534 0.010673612 -0.004012187 -0.00017197183 -0.009718561 0.0059952545 0.0063131563 -0.0072130803
00000000: ccfc 493c b872 3e3c 474d 97bb 8c07 97ba
00000010: 68a6 c4bb 4330 78bb 08d9 ae3b ca8c b2bb
00000020: 1856 073c bcab 15bc 6e9b aabb eb91 dfbb
00000030: f9ca d6bb e35d 09bb 53b5 8639 f58e a03b
00000040: 15dd 553b e199 0ebb f35f a0bb eaef e63b
00000050: 8925 363b 7de9 13bb f34f ac3b a229 3f3b
00000060: 9c33 32bc f4c9 213c 337a be3a 8cf0 c43b
00000070: 58f1 3b3b 5550 003c fc30 fdbb 36c8 07bb
00000080: cebc 353c 721c 043c 2325 c9bb c032 efbb
00000090: 53a6 33bb 9431 63bb df21 8dbb 3869 a03b
000000a0: c617 b33b 6752 7e3a fadc 2f3c 66c8 1e3c
000000b0: 4900 6dbb 9f25 7e3b d7e9 c1ba 6925 b43b
000000c0: dd10 993b 7025 bc3b dd87 f83b 39d6 9abb
000000d0: a65c 69bb 3446 603b ed59 433c 4e83 1539
000000e0: 561c b2bb 5f73 ecbb f5d5 1c3c 634a 18bc
000000f0: fff2 ceba 8944 953b 2e08 093c ff7b 0a3b
00000100: b01f ca3b c601 32b9 e92d 38ba 724b b8bb
00000110: a82f 9a3b 09d2 82bb 495f 143c e6fb 4b3a
00000120: 1030 c03b f74f 92ba dfa3 cebb 878b d3b9
00000130: 1044 933b 30ba c4ba dd5e 5c39 1bce 19bc
00000140: dd5e cd3b 5a4a c5bb 67b8 e5bb e3ac 0e3b
00000150: f99e c2ba 755b 9c3b eec2 963b 21cc 58bb
00000160: 7f9f 003c 2f9c 6ebb 0a79 7c3a d4a0 0aba
00000170: 87b7 eebb 064a 153b 9538 e8bb 48f2 fc3b
00000180: c1bf d63a 73f6 893b 32c0 d33b 42fb 0fbc
00000190: ac54 c23b ea11 edbb d0f4 9fbb 1571 cd3a
000001a0: 39dc 9e3b eeda d53b 770c 013b 3f06 95bb
000001b0: 0495 43bc 9dbe c33b 4532 2a38 4316 98b8
000001c0: 6df9 d53b 1df6 68ba 55cb 613c ff39 01bb
000001d0: 0666 07bb fc6d 273b 52a0 433b 20bc ccbb
000001e0: 530f 863b 6abb b93a f4fa 043b d399 413b
000001f0: 4c42 ff3b 9515 603b bb5c db3b ebe0 53bb
00000200: 9bc5 3ebc 4acf 13bb 15fd 393c 7784 7f3b
00000210: 1481 87bb b1da ef3a 1312 303c 113c 393c
00000220: 5d90 a93b 416b d7ba 8aba 213b 4542 7dba
00000230: 2064 2abc aeb0 9d3a c600 9d3b ed25 5dbc
00000240: 0e6a fc39 a837 c03b fe28 babb 91cd b7bb
00000250: 8c08 8bb9 633d d33b 0905 2dbb 0e5b 2f3c
00000260: f794 983b 539d eaba cb26 7b3b c2db a53b
00000270: 68de 2abc 6a8d 8339 2e5a 87b7 d89b 4c39
00000280: 1db7 fdba 1b1a 7c3b 46f3 ac3b 03ba 2bbc
00000290: 2c43 123c 9ce5 cebb 3eaa 1ebc 3a59 5bbc
000002a0: 99c6 59bb 537e aabb ca39 213b 61fb 22ba
000002b0: 01d2 733c 8c37 bcbb 3f6c d7ba 3dca 9f3b
000002c0: 93ab 23bc e524 64bc 3e26 2fbc 375e 6abb
000002d0: 436d 6dbb a392 92bb 7063 3f3c 3732 dcba
000002e0: afee a7bb 6e09 8e3b 551f 973b 81fc 4fbc
000002f0: 20b4 e9bb 081e 8c39 272a 38bc f89b 25bb
00000300: 6b37 7e3c e255 233c 3b2c e6bb 0a92 8abb
00000310: 81dc a5bb 1c04 41bc 64a2 9fbb 86d2 9ebb
00000320: f9c4 e3bb 057f 1eba d53a 18bc d3a4 243c
00000330: 6520 63bb 2a4f 39bb 6294 e5ba 98eb acbb
00000340: 90a3 3e39 c03e 96ba 3455 023c 287c d2ba
00000350: 5977 243b 0a85 f63a 3c78 743a db3f 00bc
00000360: aff7 2bbc b37c 793b 5c53 993b 6038 313b
00000370: 7ae5 fa3b e7bd 00bc b7ea f6ba 309e 0bbc
00000380: 9d98 6338 b6fb bbbb 359c a4ba eb6a 81bb
00000390: 5593 923b 275f a3bb ca9c aebb 6e35 eb3b
000003a0: 279f 843b 064f 6ab9 c5c9 463a 9e3f a73a
000003b0: 5df6 ce3b 881f 6bbc 41ec 1d3a 5ade 0dbb
000003c0: da06 63bc 901a ddbb 0ab2 933a c564 463b
000003d0: f6ec 86bc 0955 153b fc85 703b 919a e73b
000003e0: 073c 7b3b 60e0 2e3c aa78 83bb 5653 34b9
000003f0: 993a 1fbc d773 c43b 98de ce3b b45b ecbb

mu.bias f4 [4]
-0.011995224 0.028715925 -0.08770201 -0.014385373
00000000: 9e87 44bc a93d eb3c 1d9d b3bd a1b0 6bbc

value_fc1.weight f4 [64, 24]
0.16595322 0.00017171832 0.10626634 -0.0036593194 0.22224772 0.109753095 -0.07403169 -0.10264875
-0.0314582 -0.001409748 -0.106801994 0.15145348 0.07986328 -0.05562641 -0.03212421 -0.039662
-0.15821455 0.23380822 0.12664904 0.15603636 0.21213979 0.1564569 0.15360303 0.055014994
0.09776907 -0.12036401 0.08551576 -0.0066305255 -0.07746902 -0.14655676 0.078442514 -0.0009283877
-0.016665328 -0.16630404 0.014701384 0.1137581 -0.01460528 -0.039706763 0.207742 0.1929129
0.09262332 -0.019940484 0.23491639 -0.14079481 0.022594457 -0.0028941932 -0.08575997 0.090512134
-0.16742699 -0.18007286 0.11747224 -0.13710785 -0.1748463 -0.07925798 0.034132347 0.12152795
-0.055256866 -0.11683766 0.114726655 -0.01631888 0.15761024 0.2390818 0.19362311 0.21646805
0.10062375 0.13901566 0.17340855 0.005563285 0.13559924 -0.1357215 -0.037949484 0.13120733
-0.17209543 0.20040588 -0.14980966 0.040110968 0.16889738 0.05149993 -0.0021039608 -0.022920474
0.09464854 0.12521267 0.17470418 0.10694248 -0.04737077 -0.17412318 0.1435971 -0.04406321
-0.122168906 0.10862888 0.0994947 -0.16657417 -0.16112098 -0.08638841 0.1933678 0.10440692
0.07050942 0.10641268 -0.18748935 0.15268001 0.026766375 -0.06793708 0.03791024 -0.121232264
-0.10488539 -0.009259003 -0.17554332 -0.073378906 0.09349937 -0.2124756 -0.18006116 0.06016292
0.04355297 -0.124453545 -0.24463114 -0.19080228 0.13362336 -0.111453526 0.14085494 0.0514321
-0.19297779 -0.16580816 -0.031709496 0.11937943 0.16242243 0.097580545 -0.027081644 0.07324994
-0.044585135 0.068499304 -0.080692336 0.17141877 0.040310413 0.1415893 -0.018904276 0.038937427
-0.10234512 0.113409415 -0.086189784 -0.23009346 -0.075229935 -0.13888729 -0.14837433 -0.12728825
0.14147225 0.041229904 -0.089914314 -0.103413664 -0.18139714 -0.014899527 -0.09362696 0.12102443
-0.15786521 0.03940252 0.055648774 0.08361423 -0.13733378 -0.058363296 -0.14990713 -0.19851182
0.045057207 -0.018344356 -0.1056922 0.07483118 -0.21866113 -0.04758687 -0.16929483 0.12512869
-0.081424184 0.2027427 0.14298157 -0.073331624 -0.032194775 0.08718708 0.17456628 0.037044253
-0.18318959 -0.09267566 0.16167706 -0.1008984 -0.05375407 -0.0910181 0.0024843914 0.10687391
-0.113318965 -0.15028854 0.093576394 -0.22453855 -0.033957478 0.14213729 -0.16496223 -0.021563858
0.002106348 -0.0993153 0.085567825 -0.12179378 0.120720156 -0.050838783 -0.05796751 -0.13086931
-0.1174513 0.11510041 0.12045072 -0.14860016 -0.01614535 -0.11235651 -0.030882277 0.053381924
-0.073335074 -0.1219053 -0.09082181 0.106976286 -0.18377666 -0.20984952 -0.21288177 -0.22330308
0.14522134 0.19586387 -0.07719672 -0.14816365 0.033324994 0.08874634 0.13359323 0.114984326
-0.11457509 0.011953293 -0.021184472 -0.07250082 0.06880897 -0.023014184 0.024185168 0.0036046945
-0.18476608 0.15650602 0.116628624 0.036658533 -0.20905325 -0.0980179 -0.2131075 -0.23960973
0.04764836 0.19382198 -0.08940723 -0.17287463 0.21268138 -0.065920085 0.16686748 0.024339534
0.18997669 0.00181259 -0.1274276 -0.11640164 0.011592293 0.23488936 -0.12268604 0.12692751
00000000: a4ef 293e 490f 3439 2ba2 d93d 31d1 6fbb
00000010: e894 633e 3bc6 e03d ed9d 97bd 8239 d2bd
00000020: 50da 00bd 4bc7 b8ba 01bb dabd 9f16 1b3e
00000030: 5c8f a33d 85d8 63bd ad94 03bd 9f74 22bd
00000040: ff02 22be 6c6b 6f3e 49b0 013e ffc7 1f3e
00000050: 2c3b 593e 3d36 203e 1d4a 1d3e 6757 613d
00000060: 263b c83d 6881 f6bd e322 af3d e144 d9bb
00000070: 14a8 9ebd fa12 16be 78a6 a03d 0b5f 73ba
00000080: ba85 88bc 9b4b 2abe 13de 703c 02fa e83d
00000090: fc4a 6fbc 8fa3 22bd 52ba 543e f68a 453e
000000a0: 4cb1 bd3d 3a5a a3bc ec8d 703e 842c 10be
000000b0: 0318 b93c 81ac 3dbb eca2 afbd 6d5e b93d
000000c0: fb71 2bbe 0565 38be 4995 f03d 0066 0cbe
000000d0: e90a 33be 0252 a2bd 5cce 0b3d a5e3 f83d
000000e0: 0655 62bd 9548 efbd cff5 ea3d 2caf 85bc
000000f0: 9464 213e dcd1 743e 2345 463e cda9 5d3e
00000100: d313 ce3d 1f5a 0e3e 0392 313e 384c b63b
00000110: 87da 0a3e 94fa 0abe eb70 1bbd 375b 063e
00000120: c939 30be 3337 4d3e b467 19be 664b 243d
00000130: 6ff3 2c3e 97f1 523d 9be2 09bb b8c3 bbbc
00000140: 18d7 c13d c037 003e a7e5 323e a904 db3d
00000150: da07 42bd 594d 32be 1e0b 133e a07b 34bd
00000160: b133 fabd d178 de3d e1c3 cb3d 6b92 2abe
00000170: e6fc 24be 68ec b0bd 3502 463e 4cd3 d53d
00000180: 3e67 903d e4ee d93d 35fd 3fbe 2658 1c3e
00000190: 2845 db3c 9922 8bbd c547 1b3d 9f48 f8bd
000001a0: 27ce d6bd 13b3 17bc a1c1 33be ae47 96bd
000001b0: 997c bf3d 3493 59be f461 38be 656d 763d
000001c0: 9964 323d 80e1 febd 9680 7abe ac61 43be
000001d0: 90d4 083e bf41 e4bd 473c 103e 77aa 523d
000001e0: f89b 45be 9dc9 29be d1e1 01bd 347d f43d
000001f0: 1152 263e 4fd8 c73d 53da ddbc 1104 963d
00000200: e79e 36bd 5d49 8c3d 0642 a5bd 6788 2f3e
00000210: 881c 253d c9fc 103e 24dd 9abc da7c 1f3d
00000220: 519a d1bd 3243 e83d 4584 b0bd 9f9d 6bbe
00000230: 2712 9abd 7838 0ebe 71ef 17be da57 02be
00000240: 1ade 103e b0e0 283d ff24 b8bd 8bca d3bd
00000250: 2cc0 39be 251d 74bc 7ebf bfbd a8db f73d
00000260: 6ba7 21be 8964 213d f8ef 633d f03d ab3d
00000270: 3aa1 0cbe 5a0e 6fbd 4181 19be af46 4bbe
00000280: e88d 383d e746 96bc 2775 d8bd 1741 993d
00000290: b4e8 5fbe 73ea 42bd a05b 2dbe bc21 003e
000002a0: b9c1 a6bd c89b 4f3e c369 123e e42e 96bd
000002b0: abde 03bd 248f b23d 81c1 323e b7bb 173d
000002c0: 0d96 3bbe bdcc bdbd ac8e 253e d2a3 cebd
000002d0: 3a2d 5cbd b367 babd 2cd1 223b b5e0 da3d
000002e0: c613 e8bd 3de5 19be fba4 bf3d 6fed 65be
000002f0: ff16 0bbd 708c 113e dceb 28be b0a6 b0bc
00000300: a80a 0a3b d265 cbbd 2f3e af3d 046f f9bd
00000310: 213c f73d 543c 50bd 576f 6dbd 9b02 06be
00000320: 4f8a f0bd c4b9 eb3d deae f63d a42a 18be
00000330: 4143 84bc 2b1b e6bd d4fc fcbc 01a7 5a3d
00000340: b330 96bd 7ca9 f9bd c900 babd 6216 db3d
00000350: f32f 3cbe cbe2 56be aefd 59be 90a9 64be
00000360: e7b4 143e 8a90 483e 5019 9ebd 36b8 17be
00000370: ca7f 083d a4c0 b53d aacc 083e e77c eb3d
00000380: 58a6 eabd bfd7 433c 0f8b adbc 4f7b 94bd
00000390: b8eb 8c3d 3e88 bcbc f91f c63c bd3c 6c3b
000003a0: 5233 3dbe 1d43 203e fdda ee3d 4227 163d
000003b0: 0e12 56be 9cbd c8bd da38 5abe 415c 75be
000003c0: ed2a 433d 4579 463e 231b b7bd 0c06 31be
000003d0: 26c9 593e 1c01 87bd 4fdf 2a3e b463 c73c
000003e0: 4089 423e 6e94 ed3a 617c 02be fc63 eebd
000003f0: 9aed 3d3c d686 703e d242 fbbd 49f9 013e

value_fc1.bias f4 [64]
0.015762227 0.17857972 0.047702372 0.20098229 -0.2177181 0.006016448 -0.040727567 -0.051469255
-0.22357917 -0.20778778 0.00734283 -0.03854461 -0.22879405 -0.10000962 0.070806436 -0.022857664
0.09028836 0.13148014 0.0519913 -0.15858233 -0.15543437 0.14749333 -0.010234212 0.06657239
-0.030065248 -0.18750815 -0.1632965 -0.0744315 -0.06301594 -0.071105875 -0.05826378 -0.07106163
0.18620822 0.024046622 0.20593071 -0.21688528 -0.04053034 0.17248607 0.18447688 -0.0021218
-0.03425418 -0.012510891 0.14231803 0.005447363 0.1922282 -0.22035155 -0.06953363 0.013891154
-0.03946496 -0.12444468 0.154163 -0.054117177 -0.22025253 0.03156234 -0.080574095 0.124624655
0.02679967 0.04928934 -0.005390152 -0.15662663 0.21621506 0.09117825 -0.22626983 -0.13539208
00000000: c91f 813c 9add 363e 9063 433d 4dce 4d3e
00000010: 7ef1 5ebe a025 c53b f3d1 26bd 6dd1 52bd
00000020: f0f1 64be 52c6 54be 1f9c f03b f4e0 1dbd
00000030: fd48 6abe d8d1 ccbd f702 913d ff3f bbbc
00000040: 1be9 b83d bba2 063e d4f4 543d 6863 22be
00000050: 302a 1fbe 7e08 173e 65ad 27bc 1b57 883d
00000060: 654b f6bc 2302 40be 3337 27be 8b6f 98bd
00000070: 800e 81bd f59f 91bd 00a6 6ebd c388 91bd
00000080: 5ead 3e3e 6cfd c43c 80df 523e 2d17 5ebe
00000090: 2403 26bd 30a0 303e 82e7 3c3e e60d 0bbb
000000a0: 1c4e 0cbd 7bfa 4cbc d1bb 113e cb7f b23b
000000b0: 78d7 443e d6a3 61be a667 8ebd b997 633c
000000c0: 03a6 21bd dadc febd e8dc 1d3e f9a9 5dbd
000000d0: e189 61be 8347 013d 0804 a5bd 363b ff3d
000000e0: fb8a db3c 9ee3 493d df9f b0bb bb62 20be
000000f0: 7b67 5d3e aabb ba3d 47b3 67be 39a4 0abe

value_fc2.weight f4 [128, 64]
-0.030126017 -0.085742034 -0.11125281 -0.036833733 0.0040707723 -0.059344955 0.14087172 0.11652645
0.036447335 0.09265635 -0.012864072 -0.064058855 0.15542303 0.14871301 -0.08697988 -0.025504638
-0.029773144 -0.020186888 0.13016431 0.08071864 -0.13304818 0.07584861 0.057951406 0.057808466
-0.15703464 0.05024359 0.05250406 -0.09425543 0.050152484 0.06652675 0.013785417 0.013665009
-0.045339067 -0.0605332 -0.0033958403 -0.059447568 -0.038542803 -0.08944392 -0.014214222 0.03686663
-0.06546074 -0.09847372 0.09819027 0.10988687 -0.03591195 -0.05606419 0.052428678 -0.12212787
0.14607204 0.04302511 0.04020818 0.13052988 0.10913966 0.1346589 -0.12392543 -0.08023084
-0.055808194 -0.07310199 0.120021805 -0.026137192 0.09349028 -0.066008754 0.027130513 0.008588511
0.059207108 0.008826771 -0.100253046 0.07106919 0.079486415 -0.009421679 0.046282977 -0.025072971
0.014811287 0.01893433 -0.15780558 0.11189346 0.09774649 -0.047337323 -0.0034362832 0.12015353
-0.1225183 -0.039479695 -0.025966888 -0.049689773 -0.07071313 0.07156353 -0.12623723 -0.008526166
-0.109901935 0.11829274 0.0906876 0.05106491 0.021387046 0.13134427 -0.02032393 0.08437527
0.008472767 -0.059973042 0.017732818 0.029571708 -0.10608975 -0.10238326 -0.11202354 -0.1333396
-0.03362562 -0.11111405 -0.04138583 0.091402404 0.07035794 0.122490376 0.058388617 0.08255697
-0.024726344 -0.06489535 -0.021672824 -0.0808031 -0.07583527 0.055321317 -0.045679316 0.030814044
0.04614079 0.008670297 0.026262492 0.12726167 0.023515923 0.038247373 -0.02656977 0.03351562
0.043819632 0.085392274 -0.07049952 -0.1383906 -0.071530476 -0.054855052 0.11383123 0.1380908
0.055023193 -0.07014822 -0.06305163 -0.039872434 0.011969513 0.1103052 -0.042267304 0.124834724
-0.075478494 0.00734198 -0.08598775 0.10782135 -0.024188694 -0.087067515 -0.0844456 -0.15603203
-0.109232344 0.03087056 -0.014879427 -0.08306434 0.11845934 0.1094897 0.049060058 -0.14019056
-0.13899258 0.048635196 -0.04579695 0.080296375 -0.036063243 -0.04887962 0.07754722 0.0674105
-0.03874288 0.0075695976 0.0749588 -0.032363784 -0.1546094 -0.06700569 0.0935555 0.056489244
0.12861472 -0.08035617 -0.14940837 0.003096266 0.0409326 -0.038172763 -0.11467837 0.031211162
-0.11616396 -0.019680994 0.15562014 0.09297115 -0.030766489 -0.040532075 0.05340908 -0.07542867
-0.0032982016 0.049690716 0.009114435 -0.06711718 -0.07691242 -0.011423367 0.013198167 0.043328766
0.13196121 -0.06967556 0.04095083 -0.06855621 -0.063719995 0.14430626 0.057673644 0.052209336
-0.107604556 -0.11415644 0.083651386 -0.03913085 0.029954463 -0.034905702 -0.05905694 -0.15154196
0.037837878 -0.08763653 0.031529985 -0.048151974 -0.030957686 0.085328825 -0.039250094 -0.04623197
0.0678578 -0.11286963 0.010112308 0.06802918 0.07401069 -0.1447781 -0.048652668 0.057024334
-0.15708175 -0.029772572 0.15924188 -0.03459299 0.034118548 -0.08932592 -0.0029811447 -0.15847225
0.019925337 0.06776132 -0.03686643 0.05043753 0.15537219 -0.01045754 0.06264635 0.0105758235
-0.05539627 0.06490224 0.010041151 -0.078665406 0.12163316 0.09608886 0.07312464 5.786122e-06
00000000: d6ca f6bc 8599 afbd 83d8 e3bd f8de 16bd
00000010: 1d64 853b b213 73bd ad40 103e 6ba5 ee3d
00000020: cd49 153d 9dc2 bd3d d4c3 52bc 4a31 83bd
00000030: 3727 1f3e 3948 183e 8222 b2bd 1aef d0bc
00000040: cfe6 f3bc f95e a5bc cb49 053e d04f a53d
00000050: c83d 08be 8456 9b3d 745e 6d3d 92c8 6c3d
00000060: b0cd 20be 39cc 4d3d 7f0e 573d fe08 c1bd
00000070: b16c 4d3d 2d3f 883d 3bdc 613c 34e3 5f3c
00000080: 75b5 39bd a9f1 77bd bf8c 5ebb 4b7f 73bd
00000090: 0fdf 1dbd 602e b7bd c5e2 68bc 7701 173d
000000a0: 4810 86bd 97ac c9bd fb17 c93d 5e0c e13d
000000b0: 6918 13bd 90a3 65bd 74bf 563d 2d1e fabd
000000c0: e993 153e 193b 303d 55b1 243d a0a9 053e
000000d0: 9d84 df3d 06e4 093e 9ecc fdbd 1150 a4bd
000000e0: 2297 64bd 7fb6 95bd fecd f53d aa1d d6bc
000000f0: d577 bf3d 992f 87bd cf40 de3c d3b6 0c3c
00000100: 2783 723d 299e 103c 7851 cdbd b98c 913d
00000110: c6c9 a23d 635d 1abc 3893 3d3d d565 cdbc
00000120: 0aab 723c 2b1c 9b3c c997 21be 6628 e53d
00000130: 502f c83d c8e4 41bd 4433 61bb 0e13 f63d
00000140: e0ea fabd 76b5 21bd 83b8 d4bc 8187 4bbd
00000150: 0cd2 90bd e68f 923d 5544 01be 55b1 0bbc
00000160: 4414 e1bd 7743 f23d 6cba b93d 7029 513d
00000170: e333 af3c 1d7f 063e 5f7e a6bc f1cc ac3d
00000180: 5cd1 0a3c 4ba6 75bd 6a44 913c 5e40 f23c
00000190: 9545 d9bd 51ae d1bd 996c e5bd 2d8a 08be
000001a0: 05bb 09bd c38f e3bd 3084 29bd 2f31 bb3d
000001b0: d317 903d 3cdc fa3d e728 6f3d a113 a93d
000001c0: e78e cabc dae7 84bd 358b b1bc 187c a5bd
000001d0: 864f 9bbd 9b98 623d 3c1a 3bbd bc6d fc3c
000001e0: 20fe 3c3d dd0d 0e3c 7024 d73c e250 023e
000001f0: 77a4 c03c 47a9 1c3d d9a8 d9bc ad47 093d
00000200: 377c 333d 25e2 ae3d 0d62 90bd 44b6 0dbe
00000210: 927e 92bd b1af 60bd 5920 e93d ad67 0d3e
00000220: 0060 613d dfa9 8fbd 3721 81bd 4751 23bd
00000230: c71b 443c b1e7 e13d 7b20 2dbd 59a9 ff3d
00000240: 7894 9abd fe94 f03b 581a b0bd 71d1 dc3d
00000250: 5e27 c6bc 7450 b2bd d1f1 acbd dcc6 1fbe
00000260: 35b5 dfbd 42e4 fc3c d7c8 73bc a31d aabd
00000270: cf9a f23d 233c e03d 33f3 483d 1d8e 0fbe
00000280: 1254 0ebe b335 473d 9595 3bbd 6d72 a43d
00000290: 0db7 13bd ff35 48bd 14d1 9e3d 840e 8a3d
000002a0: dbb0 1ebd 630a f83b 0084 993d e38f 04bd
000002b0: ed51 1ebe 473a 89bd 079a bf3d 4461 673d
000002c0: 94b3 033e c791 a4bd 82fe 18be b9ea 4a3b
000002d0: f1a8 273d 0b5b 1cbd 7edc eabd 8dae ff3c
000002e0: 5fe7 edbd 093a a1bc e35a 1f3e a967 be3d
000002f0: 010a fcbc f604 26bd 7bc3 5a3d 597a 9abd
00000300: a426 58bb 7e88 4b3d b654 153c bb74 89bd
00000310: 4284 9dbd 1329 3bbc 203d 583c 8179 313d
00000320: d720 073e 0fb2 8ebd 0fbc 273d 3367 8cbd
00000330: a17f 82bd 05c5 133e 333b 6c3d 75d9 553d
00000340: c75f dcbd daca e9bd 6b51 ab3d ac47 20bd
00000350: 1063 f53c 48f9 0ebd b1e5 71bd d12d 1bbe
00000360: e4fb 1a3d c87a b3bd 9625 013d 013b 45bd
00000370: f99a fdbc e1c0 ae3d b5c4 20bd bc5d 3dbd
00000380: 08f9 8a3d 3128 e7bd 18ae 253c e252 8b3d
00000390: eb92 973d b640 14be 0548 47bd 5992 693d
000003a0: 0ada 20be 9ce5 f3bc 4e10 233e 61b1 0dbd
000003b0: e4bf 0b3d 82f0 b6bd 4f5f 43bb 8d46 22be
000003c0: 763a a33c 72c6 8a3d 4101 17bd 9597 4e3d
000003d0: e319 1f3e 1a56 2bbc bb4c 803d 3846 2d3c
000003e0: 33e7 62bd 77eb 843d a483 243c 541b a1bd
000003f0: ce1a f93d 3cca c43d 5fc2 953d 6926 c236

value_fc2.bias f4 [128]
0.015858172 -0.14665495 -0.14304474 -0.06494855 0.077425025 -0.06080111 -0.10437905 -0.07950883
-0.104949124 -0.12266768 0.08536173 0.10626659 -0.0050260513 -0.0057203 -0.08359203 -0.13070883
0.12444314 0.0092606805 0.085534506 0.14011565 0.10779921 0.06559673 -0.030033218 0.07772888
-0.002015091 0.017563734 0.10700627 0.01935638 -0.013927016 0.059733532 0.052526645 -0.093945436
-0.11221458 0.06617207 -0.081395715 -0.080148295 0.10672033 -0.06885101 0.10948945 -0.051545355
-0.08654559 0.02735592 0.14707036 0.020519137 -0.05010201 0.06917577 0.026070973 0.025435342
0.02628862 -0.016217869 0.006905503 -0.081538126 -0.0046241446 -0.022780742 0.04940336 -0.097807616
-0.01954258 -0.10110106 -0.0501428 -0.01668907 0.08179125 0.05713905 0.001048771 -0.04645047
0.026764164 0.09482309 -0.0054273987 -0.093055405 0.074006855 0.15260018 -0.08282189 0.07188528
-0.050172262 0.08081962 0.061442666 -0.15553038 -0.13584568 0.1076173 0.04856361 0.0013063248
0.059350494 -0.08777083 -0.14691792 0.055631954 -0.041800343 0.11819585 0.05353284 -0.14456709
-0.09074759 -0.092192665 -0.15270905 0.13739182 -0.04038876 -0.05609542 -0.010860505 0.0012166514
0.03722624 0.04030442 0.1053131 -0.055738263 0.10420101 0.06671483 -0.055701785 -0.05217011
-0.07767082 -0.14687945 -0.059821755 0.07086055 0.05066271 0.104057685 0.13098028 0.14628115
-0.07902383 -0.09347289 -0.025783105 0.112273626 -0.055166855 0.019656286 0.1518545 -0.023722742
0.03632511 -0.06975797 0.025632918 0.005436878 -0.08295168 0.012633445 -0.10853906 0.032921508
00000000: ffe8 813c b72c 16be 527a 12be bf03 85bd
00000010: 0391 9e3d 960a 79bd afc4 d5bd 87d5 a2bd
00000020: 91ef d6bd 3139 fbbd 21d2 ae3d 4ca2 d93d
00000030: 93b1 a4bb 5b71 bbbb 4c32 abbd 89d8 05be
00000040: 0cdc fe3d 1cba 173c b72c af3d 7a7a 0f3e
00000050: d5c5 dc3d 9457 863d 3908 f6bc 5230 9f3d
00000060: 9e0f 04bb d2e1 8f3c 1a26 db3d 4591 9e3c
00000070: 242e 64bc 26ab 743d 2e26 573d 7766 c0bd
00000080: c2d0 e5bd 3985 873d ccb2 a6bd ca24 a4bd
00000090: 3090 da3d c201 8dbd 013c e03d 3921 53bd
000000a0: d03e b1bd 8619 e03c 9d99 163e c017 a83c
000000b0: c437 4dbd 07ac 8d3d cb92 d53c c75d d03c
000000c0: 3b5b d73c 56db 84bc 8f47 e23b 76fd a6bd
000000d0: 2386 97bb ae9e babc 2d5b 4a3d 5c4f c8bd
000000e0: c317 a0bc 130e cfbd 8962 4dbd 84b7 88bc
000000f0: 2c82 a73d a30a 6a3d ea76 893a d942 3ebd
00000100: 8540 db3c 9c32 c23d 52d8 b1bb d593 bebd
00000110: e890 973d 3943 1c3e 869e a9bd 9738 933d
00000120: 6e81 4dbd c284 a53d 4eab 7b3d 5b43 1fbe
00000130: 211b 0bbe 7566 dc3d a3ea 463d fd38 ab3a
00000140: 8119 733d 31c1 b3bd a771 16be 55de 633d
00000150: d636 2bbd aa10 f23d 4045 5b3d 6509 14be
00000160: dfd9 b9bd 82cf bcbd c35f 1cbe 71b0 0c3e
00000170: af6e 25bd 50c4 65bd 42f0 31bc 0c78 9f3a
00000180: 8b7a 183d 3f16 253d 65ae d73d ce4d 64bd
00000190: 5767 d53d c9a1 883d 8e27 64bd 53b0 55bd
000001a0: e111 9fbd 9167 16be a807 75bd 561f 913d
000001b0: b483 4f3d 321c d53d b21f 063e baca 153e
000001c0: 3fd7 a1bd b76e bfbd 1737 d3bc b7ef e53d
000001d0: a4f6 61bd 3806 a13c bf7f 1b3e 3256 c2bc
000001e0: a3c9 143d 44dd 8ebd 20fc d13c d727 b23b
000001f0: 92e2 a9bd 82fc 4e3c ba49 debd b4d8 063d

value_fc3.weight f4 [1, 128]
0.07310914 0.101127684 0.099290706 0.101407304 0.09505993 0.1096847 0.12368413 0.051450502
0.08528292 0.04427179 -0.12344343 -0.1059361 -0.044897895 -0.10130319 -0.060940098 0.08727953
-0.08375091 -0.047197945 -0.04250667 -0.06296251 -0.066430666 0.055557664 -0.10010089 -0.07843722
0.0885922 0.046127014 -0.053328488 0.10657253 0.08238522 -0.08583767 0.051080532 -0.078296706
0.11894244 -0.040323995 -0.06648012 -0.0538573 -0.07449148 -0.039713338 -0.1050289 0.10081608
-0.10800055 0.06264358 -0.037728276 0.053919602 -0.091374725 -0.054423213 -0.06981924 -0.08378288
-0.060783606 0.09844778 0.058314778 -0.116014704 0.05457806 -0.09697573 -0.11357602 0.053696357
0.06846302 0.03849442 -0.0960956 -0.10510519 -0.0991909 -0.11386922 -0.11736512 0.123011135
-0.06921343 -0.10129752 -0.050087918 -0.12175042 -0.043336842 -0.06478263 -0.04258988 -0.091635175
-0.12050344 -0.079857476 -0.10479944 0.10847922 0.06416605 -0.117649816 0.1032454 -0.07613884
0.0816356 0.09867295 0.043843955 -0.1083537 -0.07132801 -0.09662799 -0.119782016 0.04517602
-0.020873735 -0.040284645 0.04801048 -0.11020574 -0.06255582 0.05225142 -0.111823216 -0.0694941
-0.042218287 0.07276702 -0.0658351 -0.12978716 -0.079959236 -0.04928804 -0.07174294 0.08372965
0.07473444 0.086324565 -0.0856535 -0.07734854 0.03383642 -0.04591879 -0.098807566 -0.06588772
0.0062717814 0.088265754 -0.033780254 -0.041081995 0.08917001 -0.11036338 -0.05824156 0.0810822
0.024183614 -0.050991796 0.040302902 -0.042460985 -0.028619802 -0.09259446 0.045868024 0.10490151
00000000: 3fba 953d 081c cf3d ed58 cb3d a2ae cf3d
00000010: c8ae c23d 5fa2 e03d 1b4e fd3d c3bd 523d
00000020: d0a8 ae3d 5656 353d e9cf fcbd 07f5 d8bd
00000030: dbe6 37bd 0c78 cfbd 539c 79bd 9cbf b23d
00000040: 9985 abbd a252 41bd 791b 2ebd 7df2 80bd
00000050: cd0c 88bd 6f90 633d b201 cdbd b1a3 a0bd
00000060: d46f b53d aeef 3c3d f96e 5abd b342 da3d
00000070: 95b9 a83d a9cb afbd d239 513d 065a a0bd
00000080: 1898 f33d c62a 25bd bb26 88bd 7999 5cbd
00000090: fd8e 98bd 74aa 22bd 6419 d7bd a978 ce3d
000000a0: 642f ddbd 474b 803d f788 1abd cdda 5c3d
000000b0: ac22 bbbd e0ea 5ebd 64fd 8ebd 5c96 abbd
000000c0: 3bf8 78bd fd9e c93d 7adb 6e3d 1e99 edbd
000000d0: 3e8d 5f3d 369b c6bd 8b9a e8bd b6f0 5b3d
000000e0: 5736 8c3d 53ac 1d3d c5cd c4bd 6441 d7bd
000000f0: 9924 cbbd 4434 e9bd 205d f0bd 43ed fb3d
00000100: c5bf 8dbd 1375 cfbd fd28 4dbd 4958 f9bd
00000110: f981 31bd c1ac 84bd ba72 2ebd 39ab bbbd
00000120: 82ca f6bd 518c a3bd 17a1 d6bd 5a2a de3d
00000130: 7d69 833d 63f2 f0bd 5372 d33d aeee 9bbd
00000140: 9130 a73d 0b15 ca3d b895 333d 8be8 ddbd
00000150: 6b14 92bd e5e4 c5bd 4650 f5bd 7e0a 393d
00000160: 65ff aabc 8301 25bd a3a6 443d 8cb3 e1bd
00000170: 441d 80bd 9605 563d 9203 e5bd ec52 8ebd
00000180: 15ed 2cbd e006 953d 8ed4 86bd ede6 04be
00000190: abc1 a3bd 41e2 49bd f6ed 92bd 737a ab3d
000001a0: 5f0e 993d efca b03d 1a6b afbd e968 9ebd
000001b0: 0f98 0a3d 5715 3cbd 9f5b cabd 24f0 86bd
000001c0: 8483 cd3b adc4 b43d 2a5d 0abd 9845 28bd
000001d0: c49e b63d 3206 e2bd b48e 6ebd 6d0e a63d
000001e0: b71c c63c c6dc 50bd a814 253d 92eb 2dbd
000001f0: 1374 eabc 2aa2 bdbd 1ce0 3b3d 9ad6 d63d
